Data/model_results_unphased_all_PRS/logistic_regression/onnx_models/final_model_chr14.onnx (onnx, 16437 bytes, 6 tensors)

linear.0.weight f4 [8, 156]
000000 46 07 59 c0 f2 97 cc 3e 2c fd 1d 3e 33 16 8b bd
       -3.391069 0.39959675 0.15428609 -0.067913435
000010 1b 69 66 c0 a7 c2 29 c0 80 27 5e bd 33 3f 14 c0
       -3.6001651 -2.6525056 -0.05423689 -2.3163574
000020 b2 eb 9a 3e b6 c2 12 3e 05 e2 5a 3f 22 7d 75 bc
       0.30257946 0.14332089 0.8550113 -0.014983447
000030 76 98 34 be 9c 79 be 3e d8 46 20 3f 07 e9 0d c0
       -0.17636284 0.37202156 0.626081 -2.2173479
000040 8c 09 08 3f f7 3c dd 3e e1 2c aa bf 60 0e 0a bf
       0.5313957 0.43210575 -1.3294946 -0.53928185
000050 04 e9 95 3d 25 dc 2d 3f 22 21 a1 3e 81 62 2f c0
       0.07319835 0.6791404 0.3147059 -2.7403872
000060 a1 2a 85 bf 95 f5 8e 3c 5d 1e a2 bd 62 fa 21 c0
       -1.0403634 0.017451087 -0.079159476 -2.5309072
000070 95 9f f6 bd 21 4e 41 bf 67 43 99 be 66 77 17 3f
       -0.120421566 -0.7550984 -0.29934236 0.5916656
000080 d4 b3 19 3f 8e 6a 5b c0 31 e1 48 be 39 3f 1a 3e
       0.6004002 -3.4283786 -0.19617154 0.1506318
000090 fa 80 e1 3d 7e 8f c9 3d 13 5c 99 3f 0b 26 74 3f
       0.110109285 0.09841822 1.1981224 0.9537055
0000a0 56 89 57 bd c1 a7 e5 bd 11 26 14 bf a8 68 77 3c
       -0.052621208 -0.11213637 -0.57870585 0.015100636
0000b0 18 76 3e bf 2f 47 2a 3f 76 54 e6 3e 8b c7 25 be
       -0.74398947 0.6651487 0.44986314 -0.16189401
0000c0 01 de 76 3e 10 e1 40 be 47 d6 1a 3e 35 f1 55 3e
       0.24108125 -0.18835855 0.15120803 0.20892794
0000d0 57 c5 3b 3f f1 ab 2f be 4c 62 16 bd 0a 94 37 be
       0.7334799 -0.17155434 -0.036714837 -0.17927566
0000e0 c3 18 8d bc 23 e5 1d c0 1f c0 2f 40 19 12 54 be
       -0.017223721 -2.4671104 2.7461011 -0.20710029
0000f0 e9 d3 d6 be 1f c0 c9 bd 2d f4 26 c0 0a 65 4f bf
       -0.4195855 -0.09851097 -2.6086533 -0.8101355
000100 96 b5 ba 3e d6 18 a1 3e af 0a c9 bf c5 4b 0b 3f
       0.36466664 0.3146426 -1.5706385 0.5441249
000110 59 c7 fa be 22 b0 e4 3e 71 32 93 be d0 77 e2 bf
       -0.48980215 0.4466563 -0.2874942 -1.7692814
000120 fb 96 3f bf 58 97 40 3e a0 9f e7 be bd b5 01 40
       -0.7483975 0.18807733 -0.45238972 2.0267174
000130 a1 e3 91 bf c1 3e f8 be 6a e0 ec be 55 46 82 bd
       -1.1397592 -0.48485377 -0.46264964 -0.06361071
000140 1a 06 0f be cc d3 aa 3e f9 9d 0c bf 5d c9 44 3e
       -0.13967171 0.33364713 -0.5492855 0.19217439
000150 e0 f0 9e 3e 9c 6e 1d be 28 34 f8 3e 8c 55 3c be
       0.31043148 -0.15374225 0.48477292 -0.18392009
000160 a1 e3 70 bf e8 81 f5 be 14 b0 fd 3e 60 19 c2 bf
       -0.94097334 -0.47950673 0.495484 -1.5163994
000170 e6 5f 8e 3e 4b 42 24 3f 43 25 3c 3e 55 9e 6b 3e
       0.2780754 0.64163655 0.18373589 0.23009618
000180 73 f7 ce 3e 61 be 06 be 5c 7e 7c 3e 4e a1 8f 3e
       0.40423164 -0.13158561 0.24657577 0.28052753
000190 44 6d c0 3d 72 36 d7 3d 44 fb ba bf 16 cf 91 3e
       0.09395841 0.105084315 -1.460793 0.28478307
0001a0 c9 bc d0 3e de 42 e6 3d 7c 56 3d c0 f9 18 84 3e
       0.40769032 0.11243223 -2.9584036 0.25800303
0001b0 0f f6 d2 3b e1 e0 d3 3e 56 5e c0 be 0c 27 3c bf
       0.006438024 0.41382506 -0.37571973 -0.7349708
0001c0 61 ae d1 3d 67 10 c3 3d 99 91 bd be 7c 97 ff bc
       0.10238338 0.09524613 -0.37025145 -0.031200163
0001d0 0d 53 d6 3e 80 a2 a4 bd 2c 09 2a 3e 2d 9f 94 be
       0.41860238 -0.08038807 0.16605061 -0.2902769
0001e0 d4 29 f0 3e 5b 55 29 3d 07 3f 02 3e 0c 10 43 bf
       0.46906912 0.041341167 0.12719356 -0.7619636
0001f0 80 55 dd bd d0 53 31 3e 6f e4 d4 be 08 59 96 3e
       -0.108073235 0.17317128 -0.4158053 0.293648
000200 5b cc dd 3e 80 24 88 bd 15 76 be 3e fe 07 2a 3e
       0.43319973 -0.06647587 0.37199464 0.16604611
000210 da d0 6c 3e 72 67 a8 be d9 8f c4 be 75 0f 0c 3e
       0.23126546 -0.32891423 -0.38390997 0.13677771
000220 7b 35 8e 3f 06 02 31 bf d3 a4 53 bc ae 45 7f 3e
       1.1110071 -0.6914371 -0.012917715 0.24928924
000230 c9 1e 98 bd 69 a6 83 be ad 83 04 3e e9 2e 4a 3f
       -0.07427747 -0.25712898 0.12940855 0.7897783
000240 9b 8f 5d bf 61 a1 d7 3e 99 7a 0a 3e e7 89 c9 3e
       -0.8654725 0.4211531 0.1352333 0.39363024
000250 a8 ed 59 3e 47 e8 ac 3e ed 8c 6e 3e 1f ae c5 3e
       0.21282065 0.33770964 0.23295946 0.38609406
000260 ec 8f 29 3e 1e 5b 6a be 31 b2 71 be 84 00 bf 3e
       0.16558808 -0.22886321 -0.23603131 0.3730508
000270 49 ce 97 3e db 3a bb bc af 92 0f be 97 ac 04 bf
       0.2964957 -0.022855213 -0.14020799 -0.5182585
000280 71 02 30 be ea da d1 be cc 51 20 bf 26 22 39 3e
       -0.17188431 -0.4098733 -0.6262481 0.18079433
000290 74 1b 79 3e 90 d1 4a 3d 1d f4 3a bd 21 f9 09 3c
       0.24326879 0.04951626 -0.04564296 0.008421213
0002a0 f6 02 29 be 69 d3 4f bd 72 cd e6 bc ac e2 a4 3e
       -0.16505036 -0.050738726 -0.028174136 0.32204187
0002b0 97 08 c0 3e 93 c8 f2 3d 35 ab b0 bc 7a 9b 0d be
       0.37506554 0.11854663 -0.021566013 -0.13828841
0002c0 97 87 73 be 7a 25 f7 be e5 c3 49 3e 66 0a 71 3e
       -0.23782192 -0.4827078 0.19703634 0.23539123
0002d0 64 f0 5b 3e 38 55 43 3e 6f 2a c6 3d cf 4b 38 bd
       0.2147842 0.19075477 0.09676062 -0.04499417
0002e0 a5 06 79 3d e1 ed 5d be 76 75 97 3e e3 ba 87 3b
       0.060797352 -0.21672775 0.29581803 0.0041421517
0002f0 87 d2 70 3e ac 9a 82 be a5 3e 0d 3e c4 e7 de bd
       0.2351781 -0.2550863 0.13793428 -0.108840495
000300 41 16 1b be 3c 68 eb bd b0 12 a3 bf 73 36 86 3e
       -0.15145208 -0.114944905 -1.2740078 0.26213416
000310 3c 2a 00 bc 63 0d 68 bd 3b 18 72 3e 33 c2 fd bc
       -0.007822569 -0.05665339 0.23642056 -0.03097639
000320 9d 21 0f be ab aa 94 be 75 a9 15 3e ca 58 88 3e
       -0.13977666 -0.2903646 0.14615424 0.2663024
000330 92 0c 35 bd 22 55 cb bd a7 ad 9b be c6 78 f2 be
       -0.04420144 -0.09928347 -0.30405924 -0.47357768
000340 90 3b e3 3d 21 59 c4 bd 3b e8 72 be 37 b0 93 be
       0.11095345 -0.095873125 -0.23721401 -0.2884538
000350 2c 6d 27 3e b6 ff 85 bd df bf 91 bd 0b dd 6f 3e
       0.1635024 -0.065429136 -0.07116675 0.23424165
000360 51 f3 96 3e 59 09 a2 bd b0 4b a7 bd ed e5 0a 3d
       0.2948251 -0.07911939 -0.08168733 0.03391068
000370 40 1a 2f 3e cd 4d da 3d a6 4e 03 3e d2 6a 00 be
       0.17099857 0.106593706 0.12822971 -0.12540749
000380 c0 19 94 be 29 15 8e 3d 8b 32 56 3c 00 05 52 3e
       -0.28925896 0.0693763 0.013073574 0.2050972
000390 f3 20 c9 3d a6 20 27 be 01 19 62 3d 96 5e 5d 3e
       0.09820738 -0.16321048 0.055199627 0.21618113
0003a0 67 98 8f bd 44 67 02 be a2 5e 9d bb a0 a2 67 be
       -0.0701149 -0.12734705 -0.004802541 -0.2262063
0003b0 85 47 ef 3d aa c9 8e 3a 51 8c 4b 3d 79 35 df 3e
       0.11683563 0.0010893841 0.049694363 0.43595484
0003c0 bc f9 53 3e df e1 55 be e1 f9 10 3f a7 46 6a be
       0.20700735 -0.20886944 0.56631285 -0.22878514
0003d0 6b 12 f6 3d 41 67 78 bf a9 e2 2e 3f 07 8a 96 bf
       0.12015232 -0.9703255 0.68314606 -1.1760873
0003e0 63 ca 1b 3f 67 70 98 c0 ee 74 61 3f 2e c6 30 be
       0.6085569 -4.763721 0.88069046 -0.172631
0003f0 b7 0d 91 3e be e5 c7 bd 2d 2f 84 3f a7 f5 9b bf
       0.28330776 -0.09760617 1.0326897 -1.2184342

linear.0.bias f4 [8]
000000 cf 39 b0 3e 5b 81 ad be b9 f4 05 3f 81 c9 9d 3e
       0.34419104 -0.33887753 0.5232654 0.30817798
000010 4a 8f 23 3e ec d7 f7 be ed fc 81 3e 38 f2 07 3f
       0.15972629 -0.48406923 0.2538828 0.5310397

linear.1.weight f4 [8, 156]
000000 b9 bc 49 3d 3a d7 02 bc 75 38 03 3f 48 04 a2 bd
       0.049252246 -0.007985884 0.5125802 -0.07910973
000010 70 75 a8 be 70 88 d8 be 37 e8 fd 3d b0 6c 53 be
       -0.32902098 -0.42291594 0.12397807 -0.2064693
000020 29 8d 74 bd 32 27 45 be f0 39 4c be 84 3a dc 3d
       -0.059704933 -0.19253233 -0.19943976 0.107533485
000030 62 5d 0e 3e 0c 9a a4 3c 27 b2 1a 3f bc 2c 22 3f
       0.1390281 0.020092987 0.6042809 0.6334951
000040 23 19 a5 be 17 d1 01 bd 96 ab cf be 84 91 bd 3e
       -0.3224574 -0.031693544 -0.40560597 0.37025082
000050 21 2f 98 3e 73 47 1b 3f 12 aa 67 be 79 ff 2f 3f
       0.29723457 0.606559 -0.2262347 0.68749195
000060 14 4f bf bd c1 b0 a7 3d 38 93 02 be 62 9d e6 bd
       -0.09341255 0.0818801 -0.12751472 -0.11260487
000070 69 a3 99 bd 69 85 95 3d a6 e6 e1 bd 65 ca 0f be
       -0.07501871 0.073008366 -0.11030321 -0.14042051
000080 e5 ee be be 5d 7c d7 3e f0 60 6b 3e 93 64 8a bd
       -0.37291637 0.4208707 0.22986197 -0.06757464
000090 ba 58 12 be c2 77 b2 3d 53 30 f4 bd 92 56 6e be
       -0.14291659 0.08714248 -0.119232796 -0.23275211
0000a0 65 8f 16 be b3 64 80 be 86 41 81 3e 5f 1b 64 3e
       -0.14703138 -0.25076827 0.25245303 0.22276066
0000b0 c1 d5 9d 3e 25 b5 a1 3e d2 f2 2e be c7 25 aa 3d
       0.30827144 0.31583515 -0.17084816 0.08307987
0000c0 bf fb e0 3d 5b 2c 3c bd 09 16 fd bd c6 4a 74 bd
       0.10985517 -0.04594074 -0.123577185 -0.059641622
0000d0 96 c5 1c be cf 30 d0 3d 97 7a f3 bd 24 fe dd 3c
       -0.15309748 0.101655595 -0.118886165 0.027098723
0000e0 10 c2 cf bd 68 99 e2 3e 7c 0c e9 be f6 ca a2 3d
       -0.10144436 0.44257665 -0.45517337 0.07948868
0000f0 de d3 d4 bc de 76 15 bd 79 52 1f be 0c 14 f1 be
       -0.025979932 -0.036490314 -0.15558805 -0.47085607
000100 33 48 17 3e 12 78 8e bc df 4a 15 3f 24 c9 aa bd
       0.14773636 -0.017391238 0.5831737 -0.08339146
000110 37 88 c7 3d 03 78 a0 3c 8d 2e aa be ab f7 ed be
       0.09742778 0.019588476 -0.3323864 -0.46478018
000120 83 10 d0 3d 47 01 ef bd a1 fa e2 bb e8 90 82 3f
       0.10159399 -0.116701655 -0.00692685 1.0200472
000130 ab 70 51 be df 20 d4 3e b3 fc 06 3d 6a ba b7 3d
       -0.20453136 0.4143133 0.032955837 0.089711025
000140 e3 97 9f bc fe 8d 28 be d5 e3 ed 3e 34 a7 b8 bc
       -0.019481605 -0.16460416 0.46462885 -0.022540666
000150 14 d6 de bd b3 b5 f4 bc 66 d7 ad 3e c5 42 81 3c
       -0.10880676 -0.029871797 0.33953398 0.015778909
000160 b4 4e 5d 3e e0 c2 04 3e d0 e1 ea bd 97 03 ab 3e
       0.21612054 0.12964964 -0.114688516 0.33401176
000170 96 80 a6 bd 8c 89 98 3e 3b 9f 0c be c6 47 a9 bc
       -0.081299946 0.2979244 -0.13732617 -0.020664107
000180 3e 5b 09 bc 9b c6 e7 bd 0c 7d ac 3e a0 1f 69 3e
       -0.00838357 -0.11317178 0.33689153 0.2276597
000190 55 69 93 bd 7c 33 52 bc 95 91 46 3f 4f 2e b3 3d
       -0.07197825 -0.012829658 0.7756589 0.08749067
0001a0 d1 78 44 be a7 59 bf 3e 4e 65 b5 3f 64 7f 0e 3e
       -0.19186713 0.37373087 1.4171541 0.13915783
0001b0 38 1b cf 3e 9b d8 43 be 14 84 f3 3e a0 7b 2b be
       0.40450454 -0.19125597 0.47561705 -0.16746378
0001c0 e7 ca b6 3c 71 98 0c bc 52 66 bb 3d ab 6e e4 3d
       0.022313548 -0.008581267 0.091503754 0.11153921
0001d0 fb c7 e6 3c 37 89 26 3d 19 9a 18 3e 92 8e 7f 3e
       0.02817153 0.040658202 0.14902534 0.2495673
0001e0 7a ba 80 3d 3b e5 24 3d d9 c5 f9 bc cf af 12 3e
       0.062855676 0.040257674 -0.030489849 0.14324878
0001f0 e8 de 0e be 4e 1d b6 3d f1 fa 56 3e 69 a9 e0 3d
       -0.1395222 0.08892308 0.20994164 0.109698124
000200 16 86 44 bd 1e 3c 43 3e 10 df d5 ba 25 08 ca 3e
       -0.047979437 0.19065902 -0.0016317088 0.3945934
000210 fd de 23 be e1 6a 64 be f4 74 10 3d 75 2e 1b be
       -0.16003032 -0.22306396 0.035267785 -0.1515444
000220 18 67 82 be be 33 72 3d 31 af 93 3e 10 62 86 be
       -0.2546928 0.059131376 0.28844598 -0.2624669
000230 1c df 85 bc fb c0 93 bb 2e 83 a2 bd 4a f4 92 be
       -0.016341738 -0.004509089 -0.07935177 -0.28702003
000240 a2 f9 f6 bd 0d 35 a5 be 5d 77 01 3d 7d 46 d3 3d
       -0.120593324 -0.32267037 0.031607974 0.10316179
000250 87 73 a5 be f1 38 64 3d 55 38 82 bb e3 68 1b 3c
       -0.32314703 0.055718366 -0.0039740005 0.009485456
000260 3e f4 b2 3d b4 9d 62 bd 37 2b 2b 3e 45 c0 0c bf
       0.08737992 -0.05532618 0.16715704 -0.5498088
000270 b5 04 4f be e9 b4 9c bc 2a 41 4e 3e 3f 03 df 3b
       -0.2021664 -0.019129233 0.20142046 0.006805807
000280 b2 8b 15 bc 19 86 a7 3d 71 60 3e 3e 5e ad f4 3d
       -0.009127544 0.08179874 0.18591477 0.1194713
000290 cd 96 98 3e 87 3d 10 bd 55 21 f9 3d 0e a1 3b 3e
       0.29802552 -0.035214927 0.12164561 0.18323156
0002a0 8f 2f c7 3e 1e d3 b4 bc 90 58 94 3d dc a0 e4 3d
       0.38903472 -0.022073325 0.072434545 0.11163494
0002b0 cb 1d 03 3e 23 d6 61 be 15 8c 71 be ef 7e 39 3e
       0.12804334 -0.22054343 -0.23588593 0.18114828
0002c0 1d 2d 0f 3e 53 48 f7 3e c1 e4 80 be e7 b7 ef 3d
       0.13982053 0.48297366 -0.25174525 0.117049985
0002d0 a2 03 67 be 39 70 fa be 66 38 67 bd 7a e5 32 be
       -0.2255998 -0.48913744 -0.05645027 -0.17470351
0002e0 89 3c ca 3d 9b e9 8c 3d 49 b8 91 be 8e ae 32 bd
       0.098748274 0.06880494 -0.2846091 -0.0436235
0002f0 80 6e 1e bd 7b 59 90 3e 77 2f a4 3d f0 d8 d8 3d
       -0.0386796 0.28193268 0.08016866 0.105882525
000300 fe 32 22 3d 8c e9 27 3e c4 47 da 3d 75 df 1a bc
       0.03959941 0.16397685 0.106582195 -0.00945269
000310 d8 0c 11 3d 7f 82 68 3e 30 e5 78 be 79 cb 41 3e
       0.03541264 0.2270603 -0.24306178 0.18925275
000320 b0 3d 65 bd be 8f 9e 3e 0a 1d 4f bc 98 1a 46 be
       -0.055967033 0.30969042 -0.012641201 -0.19346082
000330 b1 bf 23 be fd 4e 9e 3b 83 66 c6 bd e0 b9 9e 3d
       -0.15991093 0.0048311935 -0.09687521 0.077502966
000340 47 e7 6a be 9d da b3 bc 7c 0d f5 bc f4 6a b9 3d
       -0.22939788 -0.021954829 -0.029913656 0.09053603
000350 0f ce d1 3e 12 21 f0 3c d6 97 57 3e 6c e0 ee 3d
       0.40977523 0.029312644 0.21054015 0.11663899
000360 7d 9b f3 be 40 51 4c bd 2d 36 47 bb 95 31 97 3e
       -0.47579566 -0.049882174 -0.0030397282 0.29530016
000370 22 73 9e bc 89 13 4c 3d 69 9a a4 bd b4 fe 1a bd
       -0.019342009 0.049823318 -0.08037264 -0.03784056
000380 39 95 e6 3d 8f 9c b8 bd 83 56 6d bd 34 41 71 bd
       0.11258931 -0.09014236 -0.057943832 -0.058900073
000390 82 6e 2c 3e 0c 63 3d 3c 15 08 13 3e 2b 96 0c 3e
       0.1683903 0.011559259 0.14358552 0.1372916
0003a0 f4 91 28 3e 3e 0e 02 3e 4a 9a 5f 3e d7 21 60 3d
       0.16461927 0.12700745 0.218362 0.054719772
0003b0 2d 08 8e 3d 9b d9 4d be 7f a2 da bd 1d 13 0c be
       0.06935153 -0.20102541 -0.10675525 -0.13679166
0003c0 f3 45 f2 bd 52 d7 6c 3e c7 89 ac bd 5e e3 9e 3d
       -0.11829748 0.23129013 -0.084247164 0.077582106
0003d0 34 ff 2b 3e 97 43 05 3e 46 7a b0 bd ae 50 b0 3e
       0.16796571 0.13014065 -0.08617072 0.34436554
0003e0 8b c7 94 bd 85 12 03 40 2c e7 ed 3d 87 0f f2 3d
       -0.07264622 2.0480053 0.11616358 0.11819368
0003f0 fd 3e 5b bd 0f 49 6e bd f3 9e d3 3d 12 6e a9 3e
       -0.053526867 -0.058175143 0.103330515 0.3309179

linear.1.bias f4 [8]
000000 03 ae 81 3f e5 d5 56 3e 52 f8 d1 be 84 69 ac 3c
       1.0131229 0.20980032 -0.41009766 0.021046408
000010 cf 0c 66 3e ac d1 25 be 1b b6 96 bd 1b c2 0d 3f
       0.22465824 -0.16193265 -0.073589526 0.55374306

linear.2.weight f4 [8, 156]
000000 f5 c8 5d 3f 17 28 6f bc 6a 65 22 bf f8 b8 58 3e
       0.8663476 -0.0145969605 -0.63435996 0.2116431
000010 ec 47 1a 40 1b 99 04 40 82 32 23 be d9 5c ad 3f
       2.4106398 2.0718448 -0.15937236 1.354396
000020 d2 9e 02 be a7 49 d5 3d 53 a6 a2 bd f9 be c4 bc
       -0.12755898 0.10414439 -0.0794188 -0.024016844
000030 d1 e3 76 3d 04 df d6 be 12 72 53 bf cd 08 74 3f
       0.060275856 -0.41967022 -0.8259593 0.9532593
000040 b1 99 f5 bd dd ad 80 be 71 59 a5 3f 27 8a 5e 3d
       -0.11992205 -0.25132647 1.291792 0.05433097
000050 76 d9 a1 be 52 5d a1 bf e1 aa 48 3d d3 56 84 3f
       -0.31611222 -1.2606604 0.048991088 1.0338997
000060 aa 56 f4 3e a6 d6 db bd bf 98 63 3e 66 84 a7 3f
       0.4772237 -0.107343 0.22226237 1.308728
000070 e9 e6 b6 3e 69 e6 8b 3e f8 0b 6c 3e e3 2c b7 bd
       0.35723045 0.27324226 0.2305144 -0.08944108
000080 44 ee 4c bd 97 07 0a 3f ca 33 5a bd 19 0e 04 be
       -0.050031915 0.5391783 -0.053272046 -0.12896003
000090 91 e4 35 3e fd a0 ab be d0 bd 86 bf 28 b9 03 be
       0.17762972 -0.33521262 -1.0526676 -0.128636
0000a0 c7 19 b8 3d 7d 5e bc 3e cc 6c 80 3d 37 a6 1c be
       0.08989292 0.3679084 0.06270751 -0.15297781
0000b0 e9 3a bb 3e 91 d5 08 c0 9a 72 46 3c 38 b0 2f bb
       0.36568382 -2.138035 0.012112284 -0.0026807915
0000c0 ef 01 43 be 27 65 6a 3d 4e d6 6d 3d 2e 70 87 ba
       -0.19043706 0.057225373 0.058065705 -0.0010333115
0000d0 44 24 e0 be a5 21 c1 bd 27 47 0f 3e b5 7f fd bc
       -0.43777668 -0.09430245 0.13991986 -0.030944685
0000e0 8c 8e 2b 3e f4 94 a2 3e 70 9e 82 c0 86 b5 5a bc
       0.16753596 0.31754267 -4.0818405 -0.013348943
0000f0 d4 fb f5 3e 03 e1 9a 3c 89 47 f0 3f 3e f2 4d 3f
       0.48043692 0.018906122 1.8771831 0.8044776
000100 f5 ba b6 be 5c 22 37 be 7d cc 7c 3e f1 0d 92 be
       -0.35689512 -0.17884201 0.24687381 -0.2852626
000110 20 39 12 3f 8b df 15 bf 2c a2 a9 3e 34 18 c0 3f
       0.57118416 -0.58544225 0.3313154 1.5007386
000120 2b b6 f7 3e bf be 65 3c 44 c5 65 3e fb b2 3f c0
       0.4838117 0.014022528 0.22438532 -2.995299
000130 7c 39 4a 3f 41 31 3d be 9a 51 5e 3e fc c1 34 3d
       0.78993964 -0.1847582 0.21710816 0.04413031
000140 ee 59 97 b9 e0 d2 b8 bd aa a5 cc bc 93 5f d4 bd
       -0.00028867967 -0.09024596 -0.024981339 -0.10369792
000150 b7 29 c9 bd 82 64 26 3e a0 d1 45 bf ff 61 89 3d
       -0.098224096 0.16249278 -0.7727299 0.067081444
000160 ee bb bc 3e 6e 59 9f 3e c4 23 7a be 6a b2 59 3f
       0.3686213 0.31122917 -0.24427706 0.85037863
000170 c3 50 19 be 60 3d 45 bf 2f ea 94 3d dc 2a c1 bd
       -0.14972214 -0.77046776 0.072712295 -0.09432003
000180 16 ab 89 be 68 7e 17 3e 65 3a 06 bf 3a 15 08 bf
       -0.2688834 0.14794314 -0.52432853 -0.5315739
000190 de c5 eb 3d 60 b2 45 bd 81 9b 09 3f 97 6b 73 be
       0.115123495 -0.048265815 0.53752905 -0.23771511
0001a0 0e 4a 8e 3d bf 7e 80 be b4 ed 47 3f 15 89 af be
       0.069477186 -0.250967 0.7809708 -0.34284273
0001b0 7c 3a 13 bf bb 1b 5d bd 16 6f c4 be b9 bc 32 3f
       -0.57511115 -0.053981524 -0.38366002 0.6981922
0001c0 3e 4d 5c be bf 71 1d bd 60 af 5b 3e 19 46 c5 bc
       -0.2151384 -0.038438555 0.21453619 -0.024081277
0001d0 11 b1 79 be 30 02 85 3d 7a 20 91 be 54 16 b4 bc
       -0.24383952 0.06494558 -0.2834509 -0.021983303
0001e0 83 fd 93 be 36 7f 44 bc 2f d6 b8 bd 0d be 80 3e
       -0.28904352 -0.01199322 -0.09025227 0.25144997
0001f0 15 67 a7 3d 5e 71 44 be eb 64 96 bb c4 cf aa bd
       0.08173958 -0.19183871 -0.004589667 -0.083404094
000200 43 1f 24 be de a6 50 bb 81 5e 4e be d2 87 3a bf
       -0.1602755 -0.0031837742 -0.20153238 -0.72863495
000210 9c 3f 8b bd 30 92 cb 3e 3f 3f 79 3e 0b 9c 85 bc
       -0.06799242 0.3975997 0.24340533 -0.016309759
000220 e6 59 ae be 48 9b a9 3e 84 20 0e be e5 50 fb 3a
       -0.34052962 0.33126283 -0.13879591 0.0019173889
000230 c2 92 2f 3e bc 74 84 3c ca a7 90 bd 80 72 86 bc
       0.17145827 0.016168945 -0.07063253 -0.01641202
000240 e9 43 0f 3f 69 eb 74 3d bb 52 dc bd 94 fc 81 be
       0.55963 0.059794817 -0.10757967 -0.25388014
000250 06 0a fc 3d 42 8d 89 be d5 68 f1 bd ca a2 81 be
       0.12306599 -0.26865584 -0.11787573 -0.2531951
000260 9a 36 9b bd 36 e2 2b 3d 76 18 19 3e 38 a8 ce 3e
       -0.07578774 0.04196378 0.14950737 0.40362716
000270 37 99 86 3c af 3c ec ba d0 01 72 bd 6c 4c c6 3e
       0.01643048 -0.0018023456 -0.05908376 0.3873018
000280 0c 59 9a 3e 90 02 a4 3e 51 f8 cf 3e 17 89 99 be
       0.30146062 0.32033205 0.40619138 -0.29987404
000290 16 e2 1a bf dc 77 d5 3d ae dc b4 bd 03 3e c9 bd
       -0.6050123 0.10423252 -0.08831154 -0.09826281
0002a0 ab 04 05 be 52 6a 43 3e bd c7 f8 bd cc 23 b4 be
       -0.12990062 0.19083527 -0.12147472 -0.3518356
0002b0 a9 df f7 be aa b0 1e 3e 71 70 85 3e 14 39 f7 bd
       -0.48412827 0.1549708 0.26062348 -0.12071434
0002c0 bc 42 99 3e 8e a6 1d be d2 47 19 3d 79 ae d8 be
       0.29933727 -0.15395567 0.03742201 -0.42320612
0002d0 ee 60 dd bb b0 b9 d9 3e 54 67 8b bd 26 79 92 3e
       -0.0067559397 0.4252448 -0.06806818 0.28608054
0002e0 e6 74 40 be 7a 2f 89 3e 1f f7 3c 3d 4b ef f8 3b
       -0.18794593 0.26794034 0.04613411 0.0075968853
0002f0 29 e7 38 be a5 34 43 3d ba c2 8e bd f2 18 4d bd
       -0.1805693 0.047657628 -0.06970735 -0.050072618
000300 8e 59 66 3e e4 1f 23 3d c9 31 af 3f 8a dc f4 bd
       0.224951 0.039825335 1.3687068 -0.11956127
000310 2f a2 a3 bd 3d 91 3e be 3e fd c3 3d a3 8a 7b be
       -0.079899184 -0.18610092 0.095697865 -0.24564604
000320 8a 7f 2e 3e 76 e4 23 be 43 a3 a3 bd 87 5d a1 3d
       0.1704084 -0.1600512 -0.07990124 0.07879167
000330 39 65 61 3e c7 9a 5e 3d 65 51 ec 3e b3 b9 a5 3e
       0.2201127 0.054346826 0.4615585 0.3236824
000340 c7 83 1e 3d 1c 2d 56 3d 2a ed 3c 3e f5 c2 51 3e
       0.03869989 0.052289113 0.18449846 0.20484526
000350 e3 25 ca be f4 a6 ef 3c 69 cc 90 be 9b 60 6a be
       -0.3948203 0.029254414 -0.28280953 -0.22888415
000360 96 eb 92 3e e8 59 7c 3e b7 f3 15 3e e3 5a e0 be
       0.28695363 0.24643672 0.14643751 -0.4381934
000370 b6 79 de bb 5a 1b 19 be 72 17 22 3e 30 3f 25 bb
       -0.0067894114 -0.1495184 0.15829256 -0.0025214665
000380 5e 72 a7 3d fc e3 6b 3d f8 39 83 bb ba 01 60 bc
       0.08176111 0.05759047 -0.004004713 -0.013672287
000390 ba f2 dc be 1c bd 4d 3e 41 62 87 bd 20 3f 90 be
       -0.43153936 0.20091671 -0.06610537 -0.2817316
0003a0 44 22 a9 3d 5a 45 b9 3d d5 42 5d bc 13 ef ef 3d
       0.08258489 0.09046431 -0.0135047035 0.11715522
0003b0 86 41 49 be 71 39 85 3e 0a a0 c4 3d 78 0a df be
       -0.19653901 0.26020387 0.096008375 -0.43562675
0003c0 94 15 42 bd fe f4 6b bd f5 9e bb be fe 06 f6 3d
       -0.04738386 -0.05760669 -0.36644712 0.120130524
0003d0 b8 ec f1 be 0d e1 9a 3f 31 cb 2f bf 5e 1e e6 3e
       -0.47250915 1.209993 -0.6866942 0.44945043
0003e0 76 3d 0e bf 14 bb 69 40 c2 b9 91 bf 38 29 05 3e
       -0.5556253 3.6520433 -1.1384814 0.13004005
0003f0 a8 fc cb be 8a f3 9c 3e 42 25 a2 bf 64 b2 5c 3f
       -0.398412 0.30654556 -1.266762 0.862097

linear.2.bias f4 [8]
000000 71 a7 a7 bf 00 36 6a 3e 35 df 49 be 66 26 06 bf
       -1.3097974 0.22872162 -0.19714053 -0.5240234
000010 e7 ca 31 bf f1 96 7f 3e 99 3a 94 be 00 37 a9 bf
       -0.6945023 0.24959923 -0.28950956 -1.321991
