Data/model_results_unphased_all_PRS/logistic_regression/onnx_models/final_model_chr20.onnx (onnx, 4192 bytes, 6 tensors)

linear.0.weight f4 [4, 58]
000000 85 ef 20 bf 5f 7c 9a 3c 4c 7e 10 3c 35 da f2 3b
       -0.6286548 0.018858133 0.008819174 0.007411266
000010 21 1a 8d 3f 20 55 2b be fa 70 b8 3d 83 ff d5 bc
       1.1023599 -0.16731691 0.090059236 -0.026122814
000020 91 27 e4 3d ee 52 0b bd 2a cd 38 bd 1e 6e 9b bd
       0.11140359 -0.034014635 -0.045117535 -0.075893626
000030 c2 ab d1 3d 3c c0 97 c0 c0 47 70 3f 67 5f 37 3e
       0.10237838 -4.742216 0.9385948 0.17907487
000040 98 a1 92 3e f6 98 b2 bc 0c 5a ff bd 00 7a b6 3c
       0.2863891 -0.021801453 -0.12468347 0.022274971
000050 37 41 f0 3c 32 08 f8 3d aa 6f 5a be 42 75 a8 3c
       0.029327972 0.12110938 -0.21331659 0.020563725
000060 a7 48 42 3e 41 e5 12 bc ca 4a 13 3d 2f 54 fb bb
       0.18973027 -0.008965791 0.035959996 -0.0076699476
000070 47 66 88 3c 37 ab 14 3e 7a 73 83 3c a3 90 36 3d
       0.016650332 0.14518438 0.016046274 0.04457153
000080 cc 1a 40 3d 5d e4 a9 3e 45 43 05 3e a3 4f 27 3e
       0.046900555 0.3318204 0.13013943 0.16338973
000090 45 b5 82 3d 12 61 67 be 0b 43 c4 3b ee c7 d2 3d
       0.06382231 -0.22595623 0.0059894375 0.1029204
0000a0 19 07 21 3e 45 4b c4 3d 2c bf d2 bc d7 81 b3 3d
       0.15725364 0.09584669 -0.025725923 0.08764999
0000b0 ad a4 19 bd 3c cd b7 3c 6a fb 3b 3d 37 d9 ad bd
       -0.037510563 0.02243673 0.045894064 -0.08488696
0000c0 7c 51 69 bb ca 4c b7 bd 0a c0 55 bc d8 83 db 3b
       -0.0035601547 -0.08950193 -0.013046274 0.0066990666
0000d0 ba bb 1a 3e 73 19 a8 3d 32 fe 46 be 21 23 02 be
       0.15110675 0.08207979 -0.19432905 -0.12708713
0000e0 ca b7 8e 3d ae 3c cb 3d 63 9d 81 3e b6 cd 26 bf
       0.06968649 0.09923683 0.2531539 -0.6515764
0000f0 b9 1c 09 3f 26 fe c3 39 76 73 80 bd 56 62 1c 3e
       0.5355945 0.00037382654 -0.062720224 0.15271887
000100 07 51 aa 3e bb 2b 9e be ba 58 87 3d 0a 9c 92 3e
       0.33264944 -0.3089274 0.0660872 0.28634673
000110 ae 17 85 3d 7a 66 98 be e2 4f a2 bf 45 3d 10 bf
       0.06498657 -0.29765683 -1.2680628 -0.5634349
000120 b6 b3 83 3d a8 3c 83 3e 0c 43 4f 3e e1 28 47 bd
       0.064307615 0.25632215 0.2024042 -0.04862297
000130 02 36 b9 bd 6f 72 62 bf 5b 46 d9 3e 17 6f 00 c1
       -0.09043504 -0.8845586 0.4243649 -8.027122
000140 7c e9 86 c0 cd b9 de 3e e1 2e 0d bf dc 4a c2 ba
       -4.2160015 0.4350113 -0.55149657 -0.0014823335
000150 78 8c 9f c0 c4 c2 aa c0 67 70 09 bf de f9 ab c0
       -4.985897 -5.336275 -0.5368714 -5.3742514
000160 19 e7 57 3e 38 75 51 bd a3 06 a3 3d 8b 46 3a 3f
       0.2108425 -0.05113718 0.0796025 0.7276389
000170 49 fb 44 3f 84 c9 49 bf 7f 1b 75 bf 79 0d 12 3f
       0.7694593 -0.78823113 -0.9574508 0.5705181
000180 c5 28 e8 bf 78 5b 53 3e cd 9a 74 3e 13 83 24 bb
       -1.8137442 0.20640361 0.23887177 -0.002510254
000190 e3 75 07 3e c2 14 41 3f cf 71 22 3f 60 04 a9 3e
       0.13228564 0.754223 0.6345491 0.3301115
0001a0 a7 6d 10 3e 2d 96 31 3e cc c9 36 3e 6b 28 0e 3f
       0.14104329 0.17342444 0.17850417 0.5553042
0001b0 e8 cb 3d bf 19 f7 ed 3d ea 26 9f 3b 98 a5 fe be
       -0.7413926 0.11619396 0.004856934 -0.49735713
0001c0 b6 9b 74 39 a1 b4 c3 3d a2 5d a7 3e 44 10 79 bf
       0.0002332766 0.095559366 0.32688624 -0.97290444
0001d0 be 3a d6 b8 c0 c8 53 b5 80 f4 76 b5 2e 59 29 b9
       -0.00010215257 -7.8895755e-07 -9.1997936e-07 -0.00016150318
0001e0 e8 7a e7 37 ec d6 0c bc 99 47 b7 be ba 26 2f be
       2.7594579e-05 -0.008596163 -0.35796812 -0.17104617
0001f0 e0 e2 11 b7 b0 b7 90 38 b5 96 41 be fc 83 11 b9
       -8.695497e-06 6.9006695e-05 -0.18905146 -0.00013877446
000200 94 06 b7 b8 78 56 f5 37 68 9e c6 bd e1 91 9b be
       -8.727345e-05 2.9246541e-05 -0.09698182 -0.30384734
000210 76 c2 d3 b6 d2 dd b1 bd c4 d4 b8 38 2f 9a 8c b7
       -6.3109283e-06 -0.08684887 8.8134344e-05 -1.6761098e-05
000220 3a 5d 2d be dd b4 50 b9 13 4c da b7 af 1e 67 be
       -0.16930094 -0.00019903803 -2.602305e-05 -0.22570299
000230 4e a0 f0 b7 08 a5 06 ba 7b 5f 10 be ee e9 15 37
       -2.8684877e-05 -0.0005136286 -0.14098923 8.935558e-06
000240 18 d1 b2 b8 e1 43 3e be f8 34 21 b8 de ab 41 b8
       -8.526648e-05 -0.18580581 -3.8434722e-05 -4.617485e-05
000250 8a fb 16 38 0b 3d 29 39 6c 0b de 38 4c aa 5c bc
       3.599705e-05 0.00016139836 0.000105879124 -0.013468336
000260 9c f7 2f be de e0 c4 be 14 53 ec 37 02 27 30 b8
       -0.17184299 -0.3845281 2.8172079e-05 -4.1998e-05
000270 3d 6a 72 be 1f 84 85 b9 8e 22 0e be 18 56 d7 b9
       -0.23673339 -0.00025466175 -0.13880369 -0.0004107214
000280 31 3c a8 be 6c c1 92 be 4b 7a 88 bd 0c a3 14 ba
       -0.32858422 -0.28663194 -0.066639505 -0.0005670048
000290 75 f4 a5 be 40 eb 87 b9 cc 9e 81 b9 fb 37 31 be
       -0.32413068 -0.0002592448 -0.0002472311 -0.17306511
0002a0 f6 1f 89 38 23 67 8f bc 34 bd 23 ba 16 be 39 bd
       6.538622e-05 -0.017505234 -0.000624615 -0.045347296
0002b0 de f3 8d be 5f 00 14 be 7d c3 88 3e c5 75 cf bc
       -0.27725118 -0.14453267 0.26711646 -0.025324712
0002c0 b4 55 d0 3d e4 a4 57 3e fd 7a f8 3d 64 96 91 3d
       0.101725966 0.21058995 0.12132833 0.07108763
0002d0 f2 fd 00 3e e0 11 c5 bd 83 28 02 3d 59 21 a4 3e
       0.12596872 -0.0962255 0.031776916 0.32056692
0002e0 0f 66 71 3e 90 6f f9 3e 1b e4 bb bd 9b 9f e1 be
       0.23574089 0.48717928 -0.09174367 -0.44067082
0002f0 5e a8 20 bd 60 f6 90 3e ca 34 85 3e 96 d0 ab 3c
       -0.039223067 0.2831297 0.26016837 0.020973485
000300 f9 17 d1 3c ca b3 b2 bb 43 b1 3f 3e 9b 2d 8d be
       0.025524126 -0.0054535614 0.18719964 -0.27573857
000310 bf d9 60 bc 65 4f 04 be cf 13 8b 3e 9c ab 90 3d
       -0.01372379 -0.12920912 0.2716355 0.07063982
000320 15 d2 01 bd 8f ba af bd 04 f6 b4 3e ba 68 b3 bd
       -0.03169449 -0.08580505 0.35343945 -0.087602094
000330 d9 33 14 3f 24 fb 27 3b f5 2b 5b be ea b4 43 be
       0.57891613 0.002563187 -0.21403487 -0.19111982
000340 08 6a 51 3e a1 44 a8 3e cb 13 6e 3e 6b b0 06 3d
       0.20450604 0.3286486 0.23249738 0.03288309
000350 51 d3 91 3d 22 a0 0e bd 5e 43 98 3d f9 74 80 be
       0.071203835 -0.034820683 0.07434724 -0.25089243
000360 cf d0 e5 bb 51 dc 6f be 94 4c fa 3d f6 4d d2 3d
       -0.0070134173 -0.23423888 0.12221637 0.10268776
000370 0c a0 65 bc 2c 44 79 be 6e 39 9b bd b8 f7 20 3e
       -0.014015209 -0.24342412 -0.07579313 0.15719497
000380 89 b4 02 3f d4 80 f3 bd 6f 74 04 3e d9 2b 89 bd
       0.51056725 -0.118898064 0.12935041 -0.066978164
000390 34 df ca bd 4b e0 b0 bc 6c cf 2d 3e 1d 7d 30 3d
       -0.09905854 -0.021591326 0.16973656 0.043088067

linear.0.bias f4 [4]
000000 83 c2 43 bd 46 d2 b6 3e 90 a5 cd be ca 44 e2 3e
       -0.047792923 0.357073 -0.40165377 0.44193107

linear.1.weight f4 [4, 58]
000000 2e f7 a2 3d d7 58 8d 3e fb 24 93 3d 2f b7 df 3d
       0.07957302 0.27606842 0.07184788 0.109236114
000010 ba bc 7a be c5 93 8a 3c 6c 1b c3 3b 47 3c dd 3d
       -0.24486056 0.016916165 0.0059541967 0.108025126
000020 6e 0b c0 3b 50 ec 1a bd ac 9f 95 3e b4 f5 21 3e
       0.0058607375 -0.03782302 0.29223382 0.15816385
000030 00 9b 6a bb 27 81 82 3f 95 58 88 be 2b fe ff bd
       -0.0035797954 1.0195664 -0.26630083 -0.124996506
000040 5b d1 0e 3d 18 fd 18 be 54 3b 12 3e 45 3a a9 bd
       0.034867626 -0.14940298 0.14280444 -0.08263067
000050 38 e9 1b bd 42 ae 11 bd d7 71 39 3e e1 70 60 be
       -0.03806421 -0.035566576 0.18109833 -0.2191806
000060 44 d4 d5 bd 2d 90 32 be 49 90 a1 bc c8 eb b1 3d
       -0.10440877 -0.17437811 -0.01972212 0.0868755
000070 40 dc 0a bc fe 6f 1f 3d 49 14 63 3d 6e 3f bb 3d
       -0.008475363 0.038925163 0.055439267 0.09142958
000080 a8 bf e4 bd e8 30 81 be 88 90 95 3c 44 a1 95 3c
       -0.11169368 -0.25232625 0.018257394 0.018265374
000090 ce 90 6a 3c 2c 76 36 3d cd f1 8b bd 43 3e 0a be
       0.014316751 0.04454629 -0.06833229 -0.13500313
0000a0 a2 40 82 bc e6 f5 15 3c 62 cd a9 bc 3e 3c 7b 3e
       -0.01589996 0.009152865 -0.020727817 0.245347
0000b0 9b b5 9c 3d 43 50 43 be 6a 9c da 3c 17 2d 8e 3e
       0.07651826 -0.19073586 0.026685912 0.27768776
0000c0 4d 5a a7 3d 03 ff 0d 3e 31 72 a0 be 8a d7 1d 3e
       0.081715204 0.1386681 -0.3133712 0.15414253
0000d0 65 ea 6a bd 85 26 93 bc 4f 58 01 bd e6 58 77 bc
       -0.057352442 -0.017962703 -0.03157836 -0.015096879
0000e0 f7 95 7a 3d cd d5 ca bd 8e 08 67 bb 63 47 06 be
       0.061178174 -0.099040605 -0.0035252902 -0.1311317
0000f0 9e f3 41 3d 20 b4 8b be ef 9f 42 3e 40 19 43 3d
       0.047351472 -0.27285862 0.19006322 0.047631502
000100 49 2d b9 3d 2e da 04 be ad ad 75 bd 49 96 0e ba
       0.090418406 -0.12973854 -0.059980083 -0.00054392644
000110 37 06 e5 3d 79 6f 6a 3d df 63 15 bd 3e 71 26 be
       0.11182826 0.057235215 -0.036472198 -0.16254136
000120 7d c8 00 3e 47 f3 76 3e 0b 14 8a 3d a9 c2 94 bd
       0.1257648 0.2411624 0.06742104 -0.07263691
000130 34 bc 3c 3d 71 5f 35 be ee 7a 4d 3e 07 cc 40 c0
       0.046077922 -0.1771219 0.20066425 -3.0124528
000140 89 86 fd be a5 c2 50 3d 1f 62 ca be 86 fd 5d 3f
       -0.49516705 0.050966877 -0.39527985 0.8671497
000150 16 a8 11 c0 53 09 13 c0 17 7d 86 bd 99 b4 7b bf
       -2.2758842 -2.297444 -0.06566828 -0.98322445
000160 57 7b 16 3e ae 9a ad 3d 7e 81 cb be 1c 24 77 b9
       0.14695488 0.084767684 -0.39747232 -0.00023569207
000170 c9 63 fc 3d 61 b8 06 bd de cc 89 3d a3 ea cf 3e
       0.1232372 -0.03289068 0.067285284 0.406087
000180 66 df fe bd 67 12 95 be e9 1d a6 bd 6c ae 0c 3c
       -0.124449536 -0.29115602 -0.08111174 0.008586507
000190 d6 04 29 3e 6e 96 49 3f 67 20 b5 3e cb db 86 3e
       0.16505751 0.7874516 0.35376284 0.26339564
0001a0 84 68 67 3e 87 e1 a5 3d 9f 24 2c bc 62 3f 34 be
       0.22598463 0.080996566 -0.010506778 -0.17602304
0001b0 2e 23 f4 3a b4 b7 24 3e 19 10 b0 bd 48 24 36 be
       0.0018626207 0.16085702 -0.085968204 -0.17787278
0001c0 98 a8 b2 bd 2b d0 9e 3d 0b 82 18 bc e6 f7 14 3d
       -0.08723563 0.07754549 -0.009308348 0.036369227
0001d0 17 7b 8b bd 0b 34 b2 be cb ce d8 3d 78 53 34 bd
       -0.06810587 -0.3480533 0.10586318 -0.044024915
0001e0 5a 27 ea be 3b 43 67 3d 19 f6 93 be 40 6c 8d 3d
       -0.45733148 0.0564606 -0.28898695 0.06905413
0001f0 c1 48 83 3e ee 1d 4a 3e c7 2a af 3e 91 87 e0 3e
       0.25641444 0.1973798 0.34212324 0.4385343
000200 25 6d 12 3f 21 17 6b bf f3 be 73 bd eb 04 dd 3d
       0.5719779 -0.91832167 -0.059508275 0.10791954
000210 2c 95 05 bb 50 f9 90 3e a5 0c 28 bc 11 71 b5 be
       -0.0020383103 0.2831521 -0.010256921 -0.35437825
000220 66 83 2e 3c de c0 74 be 78 9f 05 3f 9e 17 d4 3e
       0.010651445 -0.23901698 0.52196455 0.41424268
000230 ef 2c ad be 4c ff 21 3f 55 72 da be 2d 7e 00 be
       -0.33823344 0.6328018 -0.42665353 -0.12548132
000240 63 f4 b7 3e 1f c9 dd be ef 8b 4a bf 89 65 da be
       0.3592864 -0.43317506 -0.7911977 -0.4265559
000250 da a6 16 bf 8d 87 e2 be 69 7f 79 3d 94 9c 48 39
       -0.58848345 -0.44244042 0.060912523 0.00019131816
000260 12 42 99 3b 9b 81 14 3d 8e ba e3 3e a0 a9 dd 3e
       0.0046770656 0.036256414 0.44478267 0.43293476
000270 a8 98 1f bf 77 7b a2 bc 4b a2 39 bd a4 63 e7 3f
       -0.6234231 -0.019834263 -0.04532079 1.8077283
000280 7d 25 65 bf 64 17 a0 be 6b 1b 36 bc 34 43 33 3e
       -0.8951033 -0.31267846 -0.011114935 0.17506105
000290 78 c9 d2 be 13 ea 07 be 4f 0f 30 40 01 de 7b be
       -0.41169333 -0.13272886 2.7509344 -0.24596407
0002a0 fe a7 13 be 4c d7 c0 3c 21 46 82 3f bc 48 87 3e
       -0.14419553 0.023540162 1.0177652 0.2642268
0002b0 b3 a7 9a be f4 4c cb bd dc e1 c8 3d 37 13 93 be
       -0.3020607 -0.09926787 0.09808704 -0.28725597
0002c0 58 2b ec bd e2 a9 8b bd e8 89 90 bd 7a 8d 9f 3d
       -0.11531705 -0.06819512 -0.070575535 0.077906564
0002d0 37 a3 19 bd 4e 14 c8 3d 61 f7 82 3e 04 43 8a be
       -0.03750917 0.09769498 0.2557936 -0.27004254
0002e0 bd d2 b5 be 19 e0 b7 be 9d 4c 69 be 27 40 30 3e
       -0.35512343 -0.3591316 -0.22783132 0.17211972
0002f0 42 b5 60 3e d0 76 aa bb 61 c4 36 be 90 c0 82 bd
       0.21944144 -0.005202152 -0.1784835 -0.06384385
000300 ef 00 26 bd 3f 6a 19 3e 87 ac 98 be b5 d1 7f bc
       -0.040528234 0.14981936 -0.29819128 -0.015613963
000310 76 b2 af be a3 a1 74 bd 85 55 60 be 4a 54 88 3b
       -0.34315842 -0.05972446 -0.21907623 0.0041604387
000320 16 86 d1 3d 26 92 12 be 9e e9 8a bd 61 4c 26 3e
       0.10230653 -0.14313564 -0.0678284 0.16240074
000330 bf be 8e be b6 18 c0 3d 20 73 fc be 0d c7 ab 3e
       -0.27879903 0.09379713 -0.49306583 0.335503
000340 89 c8 99 bc 47 e4 07 3e 57 76 82 bd 36 e9 b6 bd
       -0.01877238 0.13270675 -0.06370228 -0.089312
000350 b2 d4 1c 3d 9a ca 82 be ee e8 18 3e 5e 4e 08 3f
       0.03828878 -0.25545198 0.14932606 0.5324458
000360 d9 3d f1 bd a5 ab d5 3e b8 5a bf bd ee 03 60 be
       -0.11779375 0.41732517 -0.09343475 -0.21876499
000370 0f a7 7d 3e 78 ec 09 bc d4 d9 81 3d 00 db d1 bc
       0.24770759 -0.008418195 0.063403755 -0.025617123
000380 5c 6b a8 be 85 16 6a 3e da 85 63 bd 8d 5f 07 3e
       -0.3289441 0.22860153 -0.055547573 0.13220043
000390 8f d2 17 3e e0 90 33 3e ea 21 d8 bd f6 bf 94 bd
       0.14826415 0.17535734 -0.105533436 -0.07263176

linear.1.bias f4 [4]
000000 bd d4 16 3e 14 dd b3 3f d6 77 83 3e 08 b3 90 be
       0.1472959 1.4051843 0.25677365 -0.2826159

linear.2.weight f4 [4, 58]
000000 3f a6 23 3f 8e 70 16 bf 73 08 8f be 22 9a be be
       0.63925546 -0.58765495 -0.27936134 -0.3722697
000010 ed 3c 94 c0 03 bb ee 3d ca c9 86 be 8d cf 4c be
       -4.632437 0.116567634 -0.26325828 -0.2000105
000020 63 a6 62 bd b1 4e 5a be 91 19 17 bc e3 c4 a1 3d
       -0.05533446 -0.21319081 -0.009222404 0.07898881
000030 66 c9 8b bd f3 78 05 40 fa 10 c5 bf 29 12 07 bf
       -0.06825523 2.0855072 -1.5395806 -0.52762085
000040 bd 72 3c be 6e b6 d1 3d 91 b7 99 3e 03 c2 24 3c
       -0.18403144 0.10239874 0.30022863 0.010056022
000050 02 28 1d bd ee d5 d5 be b9 0e eb bb c3 a1 91 3c
       -0.038368233 -0.41764778 -0.007173386 0.01777733
000060 8f 29 98 bd c6 f3 a2 3e 95 a8 45 3e 66 ab b9 3d
       -0.07429802 0.3182661 0.1930259 0.09065895
000070 1b a6 c7 bd 44 97 86 bc 35 84 10 be cb 5f 48 bd
       -0.09748479 -0.016429551 -0.14112933 -0.04891948
000080 60 d1 4c 3e b8 d4 40 3b 8f be 73 be c0 2a 92 be
       0.20001745 0.0029423665 -0.23803161 -0.2854824
000090 91 63 ca 3d ba c6 8d 3e 4a 24 b2 3d 4a 8b f0 3d
       0.09882272 0.2769068 0.08698328 0.11745317
0000a0 8f 37 1c be 3d cb 62 3d 39 24 4c be 3f e2 3d bf
       -0.15255569 0.055369604 -0.19935693 -0.7417335
0000b0 17 f3 ac bd e8 4b 56 3d 63 ef ef 3c dc 48 81 be
       -0.08444803 0.052318484 0.029288953 -0.252509
0000c0 fb 5c ef 3c 62 2c ed 3d 81 1f 0e 3f 57 d6 97 bd
       0.029219141 0.11580731 0.5551682 -0.07413929
0000d0 63 0d 1f 3e bf 1d 86 bc 06 90 90 3e 7d cf ae 3e
       0.1553245 -0.016371606 0.2823488 0.34142676
0000e0 11 4c 7c be f4 88 3e 3e e7 af 9c be 05 af 85 3e
       -0.24638392 0.18606931 -0.30602953 0.26110092
0000f0 89 cc 79 be f9 60 bc 3e ef d5 f1 bd 1d 50 30 be
       -0.2439443 0.36792734 -0.11808383 -0.17218061
000100 5d cc 3e be 60 cc fc 3d de ae 70 bd 63 e9 3d be
       -0.18632646 0.12343669 -0.058760516 -0.18546061
000110 3d 19 a1 be d8 eb 05 be 15 aa 09 3f a4 48 cf 3e
       -0.31464568 -0.13078249 0.5377515 0.40485108
000120 d8 c7 94 bd 42 5c 0d be 41 24 3a be b6 43 15 3d
       -0.0726468 -0.13804725 -0.18177892 0.036441527
000130 de af 10 3b 81 d1 c2 3e f2 3c 94 be 4d 11 93 40
       0.0022077481 0.38050464 -0.28952748 4.595862
000140 54 b7 a3 3f 38 d6 6e be c6 a1 dc 3e 0d fc 4d bf
       1.2790322 -0.23323905 0.43092173 -0.80462724
000150 af c4 48 40 ee 8f 54 40 6c 08 c5 3e 8c c8 f3 3f
       3.1370046 3.3212848 0.38482988 1.9045577
000160 f1 34 3e bf 9e 66 33 bd 22 d9 69 3d f2 1f ac be
       -0.7429953 -0.043799035 0.05709184 -0.33618122
000170 b2 00 10 bf 7c 81 9d 3e 4f a7 78 3e f8 b1 35 bf
       -0.5625106 0.3076285 0.24282573 -0.70974684
000180 d5 12 1f 3f 32 cf 1e 3e 46 b9 26 bd b2 1d ea bd
       0.6213811 0.15508726 -0.040704034 -0.11431445
000190 17 72 b1 bd c8 bd a4 bf 32 00 10 bf d7 ef a0 be
       -0.08664339 -1.2870417 -0.562503 -0.31432983
0001a0 63 fe 83 be 33 b2 22 be 57 6c ba bd cd f9 96 bc
       -0.2578002 -0.1588829 -0.091026954 -0.018429661
0001b0 26 1e d5 3a ee a4 6c be 57 8b b7 3d 19 0d 65 3e
       0.0016259595 -0.2310979 0.08962124 0.22368278
0001c0 0d 35 b9 3d 57 34 62 be 02 11 11 be a2 93 b2 3e
       0.09043322 -0.22090279 -0.14166644 0.3487826
0001d0 86 80 34 3d 6c e6 c8 3e 57 4d 11 bd e5 75 44 3e
       0.044067882 0.39238298 -0.035474148 0.19185598
0001e0 8b c6 0c 3f da 5f 60 39 b9 dc 0f 3e 67 8b 0f bd
       0.5499045 0.00021398012 0.14049043 -0.035045054
0001f0 ba f9 75 be 96 4f 19 3b 6c 71 52 be e1 c5 d7 be
       -0.24021044 0.0023393384 -0.2055108 -0.42143157
000200 a6 58 c4 be 70 3e 3b 3f 0f 59 79 3e a7 38 94 bd
       -0.38348883 0.7314215 0.2435038 -0.07237368
000210 55 fc af 3b 1d 20 84 bd 64 c6 dd 3c 25 08 c6 3e
       0.0053706565 -0.064514376 0.02707214 0.3867809
000220 fd 97 86 bb c8 71 9f 3e ec 67 eb be 2b 93 9b be
       -0.004107474 0.31141496 -0.45977724 -0.30385718
000230 d5 35 fd 3e c7 67 01 bf 62 27 b0 3e 54 4e 80 3e
       0.49455133 -0.50548977 0.34405047 0.2505976
000240 93 27 9f be b4 3e 88 3e 64 70 47 3f d8 40 c4 3e
       -0.3108488 0.2661034 0.7790587 0.38330722
000250 33 57 0e 3f 0a 0d d4 3e 39 8e 07 bd 31 88 b1 3b
       0.55601805 0.41416198 -0.03309462 0.0054178466
000260 f1 88 dc ba a0 3a 53 3e 1a fc c8 be 95 c5 7b be
       -0.001682548 0.20627832 -0.39254838 -0.2458709
000270 d3 bf 23 3f 97 a1 4c 3d 2f 34 6a 3d 01 8c e5 bf
       0.63964576 0.04995879 0.057178672 -1.7933351
000280 d8 ab 4a 3f 93 9e 55 3e 30 6c 03 3d 3d 8d 77 be
       0.7916846 0.20861273 0.032085598 -0.24174972
000290 16 f3 c9 3e 53 79 43 3d f1 89 33 c0 25 7e 0a 3e
       0.39443272 0.047723126 -2.8052943 0.13524683
0002a0 43 a5 95 3e e1 c8 2d 3e 46 4f 39 bf 0e e3 2f be
       0.29227647 0.1697116 -0.72386587 -0.17176458
0002b0 98 9a dc 3e 01 88 34 3e 9e dc 00 c0 6c 34 09 3f
       0.43086696 0.17630006 -2.0134654 0.53595614
0002c0 85 d5 16 3e 0c cd a0 3d 15 89 71 bf 3e a8 8c bf
       0.14729889 0.078516096 -0.94349796 -1.0988843
0002d0 00 35 52 be 1d fe 9a 3e ed cd ae bf dc 29 e0 bf
       -0.2052803 0.30271998 -1.3656594 -1.7512774
0002e0 aa 19 12 3d 1c a6 cd be 5b ed 70 3f 30 1f 02 3f
       0.035669006 -0.40165794 0.94112176 0.5082884
0002f0 b4 63 06 bf cf af 83 be 6d 99 6a bd be 74 93 be
       -0.52495885 -0.2572007 -0.057275224 -0.28800005
000300 2f 64 1c bf 15 54 85 bf d9 1c 95 3e 68 ae e8 3e
       -0.6109037 -1.0416285 0.29123572 0.4544556
000310 c3 7d 1d 3f 92 6d 36 3e d7 25 4b be 8c e6 c5 bb
       0.6152002 0.17815235 -0.19838654 -0.006039446
000320 cf fa 2d be 45 09 93 3e 56 ac 79 bf 2d 0b 36 be
       -0.16990207 0.2871801 -0.9752859 -0.177777
000330 78 b2 cd 39 38 7c 8e be 73 50 88 3f 18 e4 74 3a
       0.00039233617 -0.27829146 1.0649551 0.000934185
000340 2c a2 ea bf e2 2c 10 c0 b4 0d 62 bf 7f 31 89 3d
       -1.8330741 -2.2527394 -0.8830216 0.06698894
000350 7e e9 8f bf d4 69 2c 3f 41 0a aa bd e1 e9 c3 bf
       -1.1243131 0.6734898 -0.08302737 -1.5305749
000360 b0 ce f4 3d f4 01 b3 bf 37 5c bb bc a0 1a 8e be
       0.11953485 -1.3984971 -0.02287112 -0.27754688
000370 a1 25 4f be 85 48 8b 3f 7a b4 91 3e d5 dd bd bb
       -0.20229198 1.0881506 0.28458005 -0.0057942667
000380 d8 52 9f bf ce 80 72 be f9 78 b2 3a f0 db dd 3c
       -1.2447157 -0.23681948 0.0013616375 0.027082413
000390 2c ef a5 bf ba da 16 be 26 b7 cf 3d 34 64 96 3b
       -1.2963614 -0.14731875 0.10142355 0.004589582

linear.2.bias f4 [4]
000000 92 82 7c 3d 09 db c3 bf a5 ef eb 3c 1b 97 8b be
       0.06164796 -1.5301219 0.028800795 -0.27263722
