Data/model_results_unphased_all_PRS/logistic_regression/onnx_models/final_model_chr18.onnx (onnx, 30417 bytes, 6 tensors)

linear.0.weight f4 [9, 268]
00000000: 5b3f 363e 1986 d83c f79d bd3e ede0 ccbf
00000010: c50b b7be 629f 0d3e e927 b5bd 4f13 66bf
00000020: 3671 a1bf 7ab7 e73c e2ef 5e3d 4a35 81be
00000030: 3dc3 cabb 0ffe d1bf 03ef b03e 87e6 1fc0
00000040: 72d5 cfbf 9335 6d3c 50fd fcbc 0aa8 72bf
00000050: 789d 81bc 9b6d 6ebf 4297 afbf b039 063d
00000060: 3a84 f3bf 22dc d73d 82bd 95bd 74c7 3f3c
00000070: ec8d fabd eefa cebc 20aa 553e d759 99bf
00000080: 8d89 223e c92a e6be eff4 8a3e 7dd6 a53d
00000090: 43e9 2b3e 3b37 093e 816a 0fbe c7cc 163d
000000a0: 303c 243e a8b5 833b 66e9 c73e 92d1 873c
000000b0: bae0 91be 17d7 2a3e d089 6b3e 3c6a 783e
000000c0: 43ea 4a3e 6acd aa3d 3bb6 bdbd 8c77 bb3d
000000d0: b6ad d9bd cea1 79bc f708 c03d 5b88 b53e
000000e0: 05a6 5e3e 055e 123e 619b 2f3d 5291 6bbf
000000f0: ef7c a83e 21c5 923e 943b 473c 9322 82bd
00000100: 633c f7bc e149 e83d 2bf1 d03d d9ec 8f3d
00000110: a005 f0bd ee8c b3bd c6e6 383e e35e a2bd
00000120: 9922 6dbe 1657 6a3e 5cb7 59be 13a4 37bb
00000130: b1c1 fd3d bc14 033e 867f bf3c 46de 3c3e
00000140: 2578 5d3d 502a 78bc b875 d33e f585 eb3d
00000150: abb3 ab3d 0659 c93d 8f29 b3bd 5f1e 0c3e
00000160: cf87 dbbd 82e1 15bf b3c6 fc3d ea04 a33e
00000170: 08f1 7b3a 0149 303e 1f2b 46bc 3064 d83e
00000180: e7e5 00bf f267 90bd df9a ae3e 59c6 9f3e
00000190: b846 fd3d 04b6 363d 0b19 76bd 7e4a 193e
000001a0: 69e9 b23d 085b 763e 3e0d 1dbd 12c4 cfbc
000001b0: 5715 0b3e c16e a73c 59bb 933e 145a 37bf
000001c0: cc74 b8bc bce9 3d3f aff6 353e 66b7 bd3b
000001d0: e31a 9a3c 0807 b03e 0243 e13d 1510 d63d
000001e0: cf9d 953e a58b 473e a139 043f 5e5d 203d
000001f0: 3447 213d 57b5 8b3c a125 2f3b a051 063e
00000200: 5a98 4f3d 16bb 5a3d ad7a e33c 497d 4f3e
00000210: 5d47 80be aa30 a8bd 2683 6a3d 7c69 69bd
00000220: f397 953c d344 3e3e 4a3d 643e 24dd 873f
00000230: 97b7 043e b037 2e3e 0b7e eabd 554d dabe
00000240: 99c0 213e 664e a63a f2f5 8b3d 67bc d13d
00000250: 4eed 07bf e1a0 ebbe a4c3 503e 6e4c 663f
00000260: 77d5 183e 7788 89bd b63b 933b 70ab 803d
00000270: ce06 ec3d 14ba 8f3e 7af7 d7bc e6c1 ad3d
00000280: 4a21 a2bd c56d 2e3e 1e61 2c3d e087 9b3d
00000290: 77d6 073d 7e03 1b3e 0415 153e d2ac 10bf
000002a0: f2da 983e 583d b7be 15fe 6fbd a656 05bd
000002b0: 8e44 0d3e aad3 6d3d 2abc 2f3e 48e5 223e
000002c0: dba5 86bd a86e 1c3e a265 7e3c 5fed 103e
000002d0: 37ad 303c 752f 8f3e 1406 973e 4260 0d3e
000002e0: 6556 623e fec2 033c e935 023e 315e 14be
000002f0: 4acc a7be 5708 1b3e 376a 643d ac50 19bd
00000300: 643e d8bd 0e91 6a3d 6e48 6d3e f338 94bc
00000310: db4d 46be e22a 29bd 3ebd ee3d 2dff 9b3d
00000320: 2189 8a3e 12f1 6abe d584 873d d051 1b3e
00000330: 0a85 06be 12ab 07be f3f7 633f 39d9 8b3d
00000340: e3e5 d73e 3fc3 94bd 04bc 9abd 04a9 973d
00000350: 9616 3c3d d160 96be e043 67bc e081 febc
00000360: bf8e 833f 4cb2 873d 16aa 473f cb05 0e3f
00000370: 5484 ef3d 73a6 bc3d eea2 613c d73c 4b3f
00000380: d28d 14bf bf84 1a3f 1d22 073e 5091 7639
00000390: 3d71 813f a7d6 80be 27dd 30bb 4f7a c6bc
000003a0: 8e7c b13e d18f 293e 7915 9e3e 419f 033e
000003b0: 31e2 5f3e e8ef 8ebc 561d b33e 6ccb bc3d
000003c0: 43de 10be 26ff 933e 27f6 f43d a0d7 8c3e
000003d0: 7fc7 d83e 5443 343f b2da b13d fe32 2b3e
000003e0: 3de1 b73e 0f74 1fbd ca5a bb3e 51b9 e53d
000003f0: cec6 0ebe c0f5 a6be e9b2 773c e921 a53e
0.17797606 0.02643113 0.3703458 -1.6006142 -0.35751167 0.13830331 -0.08845503 -0.8987321
-1.2612674 0.02828573 0.05442799 -0.2523597 -0.006187825 -1.6405658 0.3455735 -2.4984453
-1.6237013 0.014478105 -0.030882508 -0.9478766 -0.015822157 -0.93135995 -1.3718035 0.03276986
-1.9024727 0.10540034 -0.07311536 0.011705268 -0.12234101 -0.025266137 0.20865679 -1.1980542
0.15872784 -0.44954517 0.27139995 0.08097551 0.16788201 0.13399975 -0.14005472 0.036816385
0.16038585 0.004019458 0.39045256 0.016579423 -0.28491765 0.16683613 0.2300179 0.24259275
0.19815926 0.08339961 -0.09263273 0.09153661 -0.10628836 -0.015236331 0.0937671 0.35455593
0.21743019 0.14293678 0.04287279 -0.92018616 0.32907817 0.28666022 0.012160201 -0.06354251
-0.030180162 0.11342216 0.10202249 0.07027597 -0.11719823 -0.087671146 0.18056783 -0.079282545
-0.23157729 0.22884783 -0.21261352 -0.002802138 0.12390459 0.12800878 0.023376238 0.18444166
0.054069657 -0.015146807 0.4130075 0.1150016 0.08383878 0.09831433 -0.08748161 0.1368346
-0.10719263 -0.5854722 0.12342586 0.31839687 0.00096108066 0.17215349 -0.012095242 0.42263937
-0.50350803 -0.07051076 0.34102532 0.31206015 0.12367004 0.044607177 -0.060082477 0.14969823
0.08735926 0.24058163 -0.038342707 -0.025362048 0.13582359 0.020438554 0.28853872 -0.71621823
-0.02251663 0.74184775 0.17769884 0.005789685 0.018811649 0.34380364 0.10999109 0.10452286
0.2922196 0.19486864 0.51650435 0.039151542 0.039374545 0.017054243 0.002672531 0.13117075
0.050682403 0.053401075 0.027768457 0.20262636 -0.25054446 -0.08212407 0.05725398 -0.056985363
0.018260932 0.18580942 0.22289005 1.0614362 0.12960659 0.1701343 -0.11449822 -0.42637125
0.15796126 0.001268816 0.0683402 0.10241013 -0.53096473 -0.46021178 0.20387131 0.8996037
0.1492518 -0.06715482 0.004493202 0.06282699 0.115247354 0.28071654 -0.026363123 0.08484249
-0.07916506 0.17034061 0.042084806 0.075942755 0.033163514 0.15138051 0.14558798 -0.565137
0.29854542 -0.3578899 -0.05859192 -0.032553338 0.13795683 0.058063187 0.17161623 0.15907776
-0.06574603 0.15276587 0.015527161 0.1415305 0.010783485 0.27965894 0.29496825 0.1380625
0.2210327 0.008042095 0.12715878 -0.14489056 -0.32773048 0.151399 0.055765357 -0.03743045
-0.10558775 0.05726724 0.23172161 -0.018093562 -0.19365637 -0.04130066 0.11657189 0.0761703
0.27057746 -0.22943524 0.066171326 0.15167928 -0.13136688 -0.13248852 0.89050215 0.06828541
0.42167577 -0.07263803 -0.075553924 0.07405284 0.045919977 -0.2937074 -0.014115304 -0.031067789
1.0277938 0.06625804 0.77993906 0.5547759 0.116951615 0.09211435 0.013771756 0.7938971
-0.580289 0.60358804 0.13196607 0.00023514521 1.0112683 -0.25163767 -0.0026987286 -0.024228243
0.3466534 0.16558768 0.30875757 0.1285372 0.21863629 -0.01744838 0.3498332 0.09218487
-0.14147286 0.289056 0.11961012 0.2750826 0.42339703 0.70415235 0.08684291 0.1671867
0.3591403 -0.03892904 0.36592704 0.11216987 -0.13943025 -0.32609367 0.015118339 0.32252434

linear.0.bias f4 [9]
00000000: 8fd7 6d3e 4f61 923c 5c49 153e 019d 71be
00000010: a484 86be f475 d63e b28d 903d fe06 2a3e
00000020: 0c75 9fbe
0.2322676 0.017868666 0.14578766 -0.23595048 -0.26273072 0.41886866 0.07058276 0.1660423
-0.31143987

linear.1.weight f4 [9, 268]
00000000: e65a 363e 41c3 b8bd 5669 dabe 7b76 a03f
00000010: a32a c33e f64c 77bd 6f4c a43e 7d0f 563f
00000020: 86b7 6e3f 1567 043e ab5d 4a3e 33af a93e
00000030: 5427 f9bc 7d7a 893f 1430 113e 052b 1040
00000040: cdc4 963f 8a8b 893e 0cad 853d da84 393f
00000050: c3e6 d0bd 7ddb 023f f72d 843f ba7c 97bd
00000060: 5e3b b93f c452 93bd 7ee1 92bb 0b75 2d3b
00000070: 1ae5 ee3c 23d8 96be 4936 2ebe 8547 a73f
00000080: a247 eabe ba1a 0b3f bc98 72be 77f6 2e3d
00000090: 3512 05be a2ab 36be 5b2a b93e d1ea 173d
000000a0: 361a 823b 8aa2 673d 9ada aabe 5198 983e
000000b0: 69a3 253f de3b 80be a4e9 b23d 354a 76bb
000000c0: daad 38be 834a 6ebe 4cbb ae3e d80a 01be
000000d0: bf24 10be 3fc7 343d 4d7c 88be 41fb 31be
000000e0: 22fa 34be c788 dabf ed64 513c 7184 8c3f
000000f0: 8af1 0fbf 94b6 22be cf6e 4b3e 3d86 263f
00000100: 7a96 d1bd e5c7 b0bd f70a 29bd f531 8b3d
00000110: 3df7 9d3e b918 603d 5e02 48be 57ab 1b3e
00000120: 7475 f33d 0b72 ccbc 4963 503e a01b 333f
00000130: f8c9 8bbd 8615 7b3e b673 1d3e 244e 2cbe
00000140: 2265 d53d d727 7b3e e59f 52be 0eb7 243d
00000150: 7948 c53e 3e06 e1bd dc95 a0be 5982 55bd
00000160: 9b2c 063e 27f5 883f 18be 4abe 7a11 babd
00000170: 5914 343e 7738 46be 0eee 413e b2e3 42be
00000180: 0fae 073f 44e6 3ebd 7803 efbe e1e5 f6be
00000190: 8052 243e 5517 c3bc fc1e 3cbb 6bc4 833d
000001a0: 5b2e 4bbe 6e81 4dbe 2bac 633e 2c63 6f3e
000001b0: 8dff 8d3d 3de5 a43e 0a20 6ebe a352 723f
000001c0: 6880 cc3d 9c38 56bf d99d 98be fc72 ce3d
000001d0: 8db4 bfbd f908 a6be 4649 ebbe eb39 5ebd
000001e0: 7a3c 3abe a20a c5bd 3d4b b6be 8846 cc3c
000001f0: f045 8d3d 00a5 d53d 6ed8 7f3e acee 68bb
00000200: 51eb b8bd df0d 423e 3840 16be a5db 83be
00000210: f734 dc3e 1acd a63d e644 073d cecc 813e
00000220: 5977 c03d 5ce1 39be 437b c8bd 9fc7 cbbf
00000230: 1f16 b5bd 91cd ecbd 6f2b d83e 4da9 b93e
00000240: 8c87 8fbe c253 3c3e 30f6 68bd f89d a83b
00000250: 0a08 873f 4583 c23e 973d 09be 68eb acbf
00000260: d7c6 5dbd 5480 0a3e c5e4 ca3c 01b2 683e
00000270: 4fc1 a7bd 3c1e efbe 8233 853d 867f 093d
00000280: 9817 913d 5f47 37be 9f40 8c3d 4dbb 2cbd
00000290: 46b5 7e3d 8331 a23c 4660 3abe 8782 383f
000002a0: 6e5c 8fbe a28c 8d3c ffbf 8f3e 9285 b03d
000002b0: 6855 64bd 510b 42be c86f 83be ebc3 0fbe
000002c0: d082 753e b614 77be 65a3 223e 56ad 2bbe
000002d0: 567f fd3b b29c 9d3d 2b3e 8dbd 0f72 10bd
000002e0: 92b9 c9be d87e 9cbd d5d4 e43d 576e d53e
000002f0: 0bab 593e 4fbd babc aa20 213e e46f 9cbe
00000300: 390e a63e d656 5c3e 6231 9abe e217 4ebe
00000310: 47ab f53d 72b4 ac3d 20c5 c7bc 4e0d efbb
00000320: 199c a0be dd43 b43e fab3 15be 1f8f 1fbe
00000330: a5f5 34be 0099 ca3e d985 8cbf aa38 0a3d
00000340: 53cd 08be d50d a03d e334 9bbd a42e 18be
00000350: e285 9f3d cac2 373f b574 bfbd 36ed f33c
00000360: 71d4 85bf 7d83 35be fdfc 2ebf e09b 03be
00000370: 0df0 5bbd 1ac3 bebe d8e6 2a3e e7a5 6dbf
00000380: 31fd 653f 4289 3abf 9722 0abe 871d 2fbe
00000390: 6bcd abbf 750b 713e 44a8 e2bd b658 b9be
000003a0: 9369 b9be 9bf7 083d 75b7 50bd 2c4e b2bc
000003b0: 3b2a e8bc 29e2 b83d 9d11 81bd da0b 22be
000003c0: e912 06bd 60f6 12bf 5239 bb3d 532a 1bbf
000003d0: c750 5fbe a49a 88bf f49f 9bbd fd3c 153e
000003e0: 2af5 f0be ef22 7f3e e302 21bf 755e d0bd
000003f0: 4e71 e23d 80b1 d23e 0aeb 6abe 68a8 86be
0.17808113 -0.09021617 -0.4265849 1.2536157 0.38118467 -0.06037613 0.32089564 0.83617383
0.93248785 0.12929948 0.19762294 0.3314148 -0.03041426 1.0740505 0.14178497 2.2526257
1.1778809 0.26864272 0.06527147 0.7246834 -0.10200264 0.5111616 1.0326527 -0.073968366
1.4471242 -0.07193521 -0.004482447 0.0026467468 0.029161979 -0.29461774 -0.17012896 1.3068701
-0.45757776 0.54337656 -0.23691076 0.042715516 -0.12995227 -0.1783891 0.36165127 0.037089173
0.0039704097 0.056551494 -0.33369905 0.29803708 0.6470247 -0.25045675 0.0873597 -0.0037580852
-0.18035069 -0.23270611 0.3412727 -0.12601793 -0.14076518 0.04413533 -0.26657334 -0.17381002
-0.17673543 -1.7072991 0.01278041 1.0977918 -0.56227934 -0.1588996 0.19866489 0.6504858
-0.10233779 -0.08631877 -0.041270223 0.06796638 0.3085269 0.054711077 -0.19532153 0.1520208
0.11887637 -0.024956724 0.20350374 0.6996403 -0.06825632 0.2451993 0.15376171 -0.16826683
0.1041968 0.24526916 -0.20568807 0.040213637 0.38531855 -0.10987519 -0.31364334 -0.052126262
0.13102953 1.0699815 -0.19799078 -0.09085365 0.17585887 -0.19357477 0.18938467 -0.19032171
0.5299997 -0.046606317 -0.46682334 -0.4822226 0.16047096 -0.023814837 -0.0028704992 0.06433948
-0.19841902 -0.20068905 0.22233646 0.23377675 0.06933508 0.32206145 -0.2325441 0.94657344
0.09985429 -0.8368013 -0.29807928 0.10080525 -0.09360609 -0.3242872 -0.4595434 -0.054254454
-0.18187132 -0.09621169 -0.35604277 0.024935976 0.06898105 0.10431862 0.24984905 -0.003554265
-0.09029258 0.18950604 -0.14672935 -0.25753513 0.4300916 0.08144589 0.03302469 0.25351566
0.09397764 -0.18152374 -0.09789135 -1.5920295 -0.0884211 -0.11562646 0.42220637 0.3626198
-0.28033102 0.18391326 -0.056875408 0.0051457845 1.0549328 0.37990776 -0.13402401 -1.350934
-0.054144707 0.13525516 0.024767289 0.22724153 -0.081911676 -0.46702754 0.06503965 0.03356888
0.07084578 -0.1789832 0.06848263 -0.04217081 0.062184595 0.019799 -0.18200788 0.7207417
-0.28000206 0.017278973 0.2807617 0.086192265 -0.055745512 -0.1894963 -0.2567122 -0.1403958
0.23975682 -0.24128994 0.15882643 -0.16765341 0.007736127 0.07695903 -0.06896623 -0.035265025
-0.3939939 -0.07641381 0.11173407 0.41685745 0.21256654 -0.022795347 0.15735117 -0.30554116
0.32432726 0.215175 -0.301158 -0.20126298 0.11995559 0.08432855 -0.024385989 -0.007295287
-0.31369093 0.35208026 -0.14619437 -0.1558194 -0.17671831 0.39569855 -1.0978347 0.033745445
-0.13359575 0.07815138 -0.07578447 -0.14861542 0.07789208 0.717816 -0.09348432 0.029776197
-1.0455457 -0.1772594 -0.6835478 -0.1285243 -0.053695727 -0.37258226 0.16689622 -0.9283127
0.89839464 -0.7286569 -0.13489757 -0.17101108 -1.3422064 0.23539527 -0.1106725 -0.36200494
-0.3621336 0.03343926 -0.05095621 -0.02176579 -0.02834045 0.090275116 -0.063021876 -0.15824834
-0.032732878 -0.5740719 0.09141792 -0.60611457 -0.21808158 -1.0672193 -0.07598868 0.14574046
-0.47062045 0.2491567 -0.6289503 -0.10174266 0.110567674 0.41151047 -0.22941223 -0.2630036

linear.1.bias f4 [9]
00000000: 48ed d0bd 5fd7 6b3e 0cdd 913d 0cf6 1abe
00000010: 5a4c 1e3e 3d2d 3fbe 1bb0 003e e9d8 f03d
00000020: 3dee 2e3e
-0.10201508 0.23031376 0.071222395 -0.15132922 0.15458813 -0.18669601 0.12567179 0.11760122
0.17083068

linear.2.weight f4 [9, 268]
00000000: 3d7a 8fbf 8f68 bd3d ff53 e6bd 15d9 b33f
00000010: b222 3d3e d9fd 0cbe 0dd3 0fbe 5aef c03e
00000020: c160 963f 6499 91bd 3f8d 09be c62c 6ebe
00000030: 2dd4 603e 7446 c23f 6278 7fbf dbc4 bb3f
00000040: 8d1f ad3f b036 95be 6f4c 453c c3ff 4c3f
00000050: b5c6 cf3e c5ec 7a3f 1e7f 8a3f 36ff 4abc
00000060: 196f c73f e7ee 14be 92ef 5c3e 1600 cabd
00000070: 0786 653e 4dac 203f 5d65 46be b508 82bf
00000080: 8e5a bd3e ec41 04be 717e 0fbe d283 c9bd
00000090: df7f 59be 3d15 953d b381 c6bd 59f6 debd
000000a0: 43c7 50bd 9cb9 47be 6da6 d1bd 931f c8be
000000b0: 7bff b1bf c6ae 99bd 7d75 f1be 0328 a2be
000000c0: 02f8 eabd 275e d63e dc60 5fbe a05f 14be
000000d0: 33c6 e03e 6cc5 93bb f7df 243e 3e09 bfbe
000000e0: ce69 17be 190a c23f c667 0ebd 14c7 5ebe
000000f0: 3198 60bd 553f debd a25d 11be daf2 83bf
00000100: fecf ea3d 9d5c a83c cc40 4cbe 6305 04be
00000110: f10e 5ebd 91f2 733e 07b5 0bbe 7e37 303e
00000120: 1dc5 4a3e d5a0 ffbe 2a6d d93c 1533 31bf
00000130: e3a7 d5bd 62ff 01bf 400e 03be 6dbb 35be
00000140: 9bd2 11be c0bf 70be 788b 85be 919f bfbd
00000150: 88d4 d5be 52e9 8fbd e42b c63e 6512 56be
00000160: 1633 9b3c 4cc3 b0bf c866 d13e ce7e 8abe
00000170: 9918 c6bd 5567 ccbd 6a2a 46be 8ffe f3be
00000180: 96ec 9cbd a7ad eb3d f573 823e 8510 063f
00000190: 9296 7ebe 84fe a83c 9c52 8e3d 5d58 79be
000001a0: 468f 003e a425 27be 427b fbbe 1c6f 99be
000001b0: 1804 64be 7738 02bf 165b 2bbe d2a5 18be
000001c0: 2f8e a23d 3058 5cbe 750f b3bc 9783 d93c
000001d0: b9b2 e43d 4825 35be df2f 813d a922 37be
000001e0: caa7 84be 69b0 80be 34ae c8be c94e 9fbd
000001f0: 8f47 23be c1fd f6bc a3f0 8ebe ce8a f7bd
00000200: 59d9 293c eb36 cfbe b99b 13bc 4480 86bd
00000210: b0d2 80bd df01 0d3d c795 b8bd f211 bbbe
00000220: 4bee 18bd 0f28 30be deef 9bbe 4823 38bd
00000230: 7e24 0cbe 9d54 14be 35d2 3abe 97ef 943e
00000240: d67f e4bb 03ea 0cbc 6c0a f7bd 1712 37be
00000250: e5de 5ebe 0273 703e 32cd 0ebe ba17 1bbe
00000260: b72b 9fbd 6966 9a3c 0e63 a9bc ad61 d5be
00000270: 8d5f abbd f7e6 b23d f3e1 f23d 9e18 2dbe
00000280: 9536 273d 0f88 21be b363 ddbd 5b3e 05be
00000290: 1dd5 efbd 7bb4 1fbe ff61 4abd 6d15 7dbd
000002a0: 3cc2 08bd 0398 db3e ef9b 46bd 5d48 57bd
000002b0: 5ee8 9ebd c0d8 653d ff17 f43d 9b1c d1bd
000002c0: ff67 5bbe 56e8 a03c 3dcf 36be 0f36 243d
000002d0: d15c bbbc bdba 08bf 09c6 f3be a9d3 b9bd
000002e0: 1bc4 993d 8bf9 423d 1ded 2bbe 66e3 a0be
000002f0: 8acd 6e3e 8e41 85be ec7c 65be f8bc c13e
00000300: 9600 c0bd 91c6 32bf d497 90bd 62d1 193f
00000310: fb72 313e 8dc5 34bc 7754 13bd 4415 15be
00000320: bbbe b6bd 253e d0bc 5407 c0bd 8d6c 25be
00000330: 8f20 023f b343 82be 0c11 b2be 5051 89be
00000340: d2ef cbbe 0c58 6e3e 3d8d 623e 725a 0b3e
00000350: 1a74 13be 60b4 57be 1da5 d53d 5e0f 2f3d
00000360: 960c 64be 30e4 f43b e04a 1bbf 25a9 93bf
00000370: 7dbf d8bd 5ae9 153e dfd7 21be 393a 173f
00000380: c831 47be 3841 a8be 1a86 68bd 6b11 6b3e
00000390: fa71 36be fb4b c63d b8fa 063b c567 323f
000003a0: 7869 8c3c ae3f 1cbe 6d73 a3be a83a 3dbe
000003b0: e002 04bf 503f 1dbd 0f8c 16bf 18ee 00bd
000003c0: a498 d43e 2b8e a63e 5488 84be 595f 153f
000003d0: bcae f9be c153 c1be 2c99 b4bd 7c91 afbe
000003e0: 85b5 d63d acfd aabe ddd6 1c3e d844 8ebd
000003f0: ab7a 4b3d d9ed 213e 17df 893e f148 39be
-1.1209179 0.092484586 -0.1124649 1.4050623 0.18470266 -0.1376871 -0.14045353 0.3768261
1.1748277 -0.07109335 -0.13432787 -0.23259267 0.21955939 1.517775 -0.99793065 1.466945
1.3525254 -0.29143286 0.012042149 0.8007776 0.4058129 0.9801753 1.0820043 -0.012389949
1.5580779 -0.14544259 0.21575764 -0.09863298 0.22414409 0.6276291 -0.19374605 -1.0158907
0.3698315 -0.12915772 -0.14013077 -0.09839596 -0.21240185 0.072794415 -0.09692707 -0.10886831
-0.05097128 -0.19504398 -0.10236821 -0.3908659 -1.3906091 -0.075040385 -0.4715995 -0.31671152
-0.11473085 0.41868708 -0.21814293 -0.14489603 0.43901214 -0.0045096185 0.16101061 -0.3731174
-0.14786455 1.5159332 -0.034766935 -0.2175563 -0.05483264 -0.108519234 -0.14195874 -1.0308487
0.114654526 0.020551974 -0.19946593 -0.1289268 -0.054213468 0.23823 -0.13643275 0.17208669
0.19801755 -0.49927393 0.026541311 -0.6921857 -0.104324125 -0.5078031 -0.12798405 -0.17747279
-0.14240496 -0.23510647 -0.2608297 -0.09356607 -0.4176371 -0.07026924 0.3870536 -0.20905454
0.018945258 -1.38096 0.40898728 -0.2704987 -0.096726604 -0.099806465 -0.19352117 -0.4765515
-0.07662313 0.11507731 0.25479093 0.52368957 -0.24862126 0.020629175 0.0694935 -0.24350114
0.12554654 -0.16322953 -0.49117476 -0.29967582 -0.22267187 -0.5086741 -0.16733965 -0.14907005
0.079372756 -0.21518016 -0.021857956 0.026552005 0.11166901 -0.17690003 0.06307959 -0.17884316
-0.25909263 -0.2513459 -0.39195406 -0.07778699 -0.15945266 -0.030150296 -0.27917966 -0.12087022
0.010366761 -0.40471587 -0.009009295 -0.065674335 -0.062901855 0.034425613 -0.09012943 -0.3653713
-0.03733663 -0.17202781 -0.30456442 -0.04495552 -0.13685796 -0.14485402 -0.1824425 0.29089043
-0.006973247 -0.008600715 -0.12062535 -0.17877994 -0.21764715 0.23481372 -0.13945463 -0.1514577
-0.0777201 0.018847661 -0.020677116 -0.41676083 -0.08367834 0.08735459 0.11859503 -0.16903922
0.040823538 -0.15774558 -0.10810032 -0.13012068 -0.1171057 -0.15596192 -0.049409863 -0.06178801
-0.03338836 0.42889413 -0.048488554 -0.052559245 -0.07759164 0.056114912 0.119186394 -0.10210534
-0.2142639 0.019642036 -0.17852493 0.040090617 -0.022871407 -0.5340994 -0.47612026 -0.09073574
0.07508107 0.047601264 -0.1678967 -0.3142349 0.23320594 -0.26026577 -0.22410935 0.37839484
-0.09375112 -0.6983424 -0.07060209 0.6008512 0.17329018 -0.011033428 -0.035969224 -0.14558893
-0.08923098 -0.025420258 -0.09376398 -0.1615469 0.5083093 -0.25442275 -0.3477863 -0.2681985
-0.39831406 0.23275775 0.2212419 0.13608721 -0.14399758 -0.21064901 0.104318835 0.042739265
-0.22270426 0.007473491 -0.60661125 -1.1535994 -0.105833985 0.14639798 -0.15805005 0.59073216
-0.19452584 -0.32862258 -0.056768514 0.22955863 -0.17816916 0.09682461 0.0020596217 0.6968959
0.017140135 -0.15258667 -0.31924 -0.18479407 -0.51566887 -0.038390458 -0.5880746 -0.031477064
0.41522706 0.3253034 -0.2588526 0.58348614 -0.48766124 -0.37759212 -0.08818278 -0.34290683
0.10483841 -0.3339666 0.15316339 -0.06946725 0.049677532 0.15813388 0.26928017 -0.18094231

linear.2.bias f4 [9]
00000000: cee2 1fbe a6fa 82be cc0a 39be 41b0 2d3e
00000010: 2393 213e b6d2 d1be 2060 ccbe 0dd8 8ebe
00000020: 7b1e 9cbc
-0.15613863 -0.25581855 -0.18070525 0.16961767 0.15778784 -0.40981072 -0.39917088 -0.2789921
-0.019057503
