Data/model_results_unphased_all_PRS/logistic_regression/onnx_models/final_model_chr22.onnx (onnx, 58527 bytes, 6 tensors)

linear.0.weight f4 [11, 432]
00000000: 10f3 ad3f 5639 bc3e 6011 d93e 564b 36bd
00000010: 03e9 073f 3363 60c0 e05b a4bc 0221 28bf
00000020: 870e 2fc0 f5d8 7dbe f943 2bbd e573 cfbd
00000030: ea9e fc3a 465a 113f 15f1 81be 861d b5bd
00000040: 6e18 493d ccd5 5ebc c5f8 6cbe d112 61bf
00000050: c492 203f 5f5f bb3d 872a a03d 73ad 8d3e
00000060: a515 bb3e f7d2 60bf c508 85bd e552 c73e
00000070: 63c7 7dbd ec45 a33e 4f54 82bf 6004 22c0
00000080: 44f9 d9bd 1875 1ebf 3a88 acbd 11fa 923e
00000090: cd86 b03e 6c9c a43f ac6d 7dbe 4372 8fbe
000000a0: 4a1d 19bf d6a1 72be bcf9 a13c 4e36 59bc
000000b0: 0cc6 b6be 1058 86b8 ab72 3dbe 0b2b 00be
000000c0: cf96 343f d99c 483e 2547 df3e 10c9 bfbe
000000d0: 6d48 8dbc 97b2 443e c8d6 823e 9b01 073e
000000e0: 56c7 1c40 8450 01bf 7843 3cbe 1846 f23d
000000f0: 18af 1fbd 7fea 683e 55c5 22bf 4f11 ccbc
00000100: 9006 13be 6ba7 be3b b66e 123e 644f ad3f
00000110: e393 123f d3ab 62be 1486 083f 3c4d 5340
00000120: 408e a4bd 652e 6abe 2f2f 35bf 1e4c 0740
00000130: 4f98 583e 6a57 39bd d863 e63e a8e3 5c3f
00000140: d1a5 c33f cc60 1fba 6ff9 653e bffa 323e
00000150: 1c65 8bbe 252a adbf 2480 b83b e05c 8d3f
00000160: 77a8 ca3d 085b c2be 214f 28be 86dc ce3e
00000170: 82f2 393e 0042 6a3f 78a4 c13d e09f 6abe
00000180: fdfc b0bf a077 753e 531f 51be 152d b83e
00000190: e80f 553d bb9c 113f cdf6 3bbf ed72 0c3e
000001a0: c77b 0f3e b420 22bf b7f4 09bb 81d6 343f
000001b0: 8641 55be d552 12be 1ff9 ccbd d912 f3be
000001c0: c5e1 3b3d fb2c a5bd ac4d 54bf 97f8 aa3e
000001d0: 9cf2 66bc 5a89 6b40 8a68 04bf b10f fc3d
000001e0: d960 043f d3ae 4cbe 8d2b 063e 28c9 2640
000001f0: a5a3 7a3c 658d 9abe 93a7 9c3e 5385 f13e
00000200: ad08 763f 9543 33c0 011f ac3d bb03 79be
00000210: 3339 47be 55a2 47bf 8685 153d c0d4 e0be
00000220: aa5f 7039 e6dd 4d3e 8452 23bf 3d82 1ebe
00000230: 2a46 17be ac9f 2c3f 2920 db3c cec4 693f
00000240: 93b6 793e 9948 40bd 5ff1 573d b7fb 00c0
00000250: 2eaa 05bf 2f45 25bd a5ff a9be 3f57 32bf
00000260: 6269 71bd 9111 873f 25fd f8bd 7d3f 61be
00000270: cd85 2340 0398 0cbc 18f0 ce3d 8467 6fbe
00000280: 599f 3a40 d43c 6b40 9b12 dc3e e41e 21bf
00000290: 8688 f3be 467a aebe 77a9 bc3e d722 9ebe
000002a0: cdaf 3d3d 6aee 0540 2f8f b13e 45d0 4a40
000002b0: deb6 fbbe 3f2e 73bf f1e2 8c3e 71b6 ba3e
000002c0: 45c4 31bd 6bd9 e33e 8fbb 90be 91cf 4940
000002d0: a642 cc3e 2931 12be 1fdd 0bbf 922b d5be
000002e0: 666c 4ebf 2d69 0cbb b1e6 b0bc 88b8 3ebf
000002f0: c7d8 2c3f 3731 45c0 69b5 22bf f63a 3d3f
00000300: 0ae6 923e ae81 23bf 5cb0 f13d 084d 043c
00000310: 1e2d 063f dce3 5240 7d49 f8be 93cc 75bf
00000320: f1bd a8bc ea53 663f 152e cfb8 06d5 96be
00000330: c769 af3f 6453 6bbe 8260 87bf 925b 8b3d
00000340: 163f 9f39 fe75 4a3e 4cf6 86bc 6c4c 0c3d
00000350: 1a59 a039 c5fc 87be 5f47 0fbf 62a5 01be
00000360: 8cf9 343e 0811 dabf a629 aa3e 9223 8c3f
00000370: 6eaf 9639 e309 c73e 63dc 8040 9271 e63e
00000380: 067c 75be e213 10bf 7acc 68bd 89cd 30bf
00000390: aa01 283f 884c 16bf 66f2 1f40 03f3 d13d
000003a0: 07bd 69bf a94c 69bf 5c89 613e 1e18 5ebe
000003b0: f8e1 bd38 af6f 363c 9667 253f ec35 e3bc
000003c0: 0236 803c 3d1a 823e 32f5 bbbe 4d4d 5bbe
000003d0: 1cfc b1b9 1322 a4bf dfc7 933e 8766 45bd
000003e0: e505 eabd 4cfc 58be d5eb b2bd 239d 1dbd
000003f0: 4299 cbba f70e b63e a551 063f 9696 5cbf
1.3589802 0.36762494 0.4239607 -0.04450544 0.5308992 -3.5060546 -0.02006334 -0.65675366
-2.7352617 -0.24789794 -0.04181287 -0.10129527 0.0019273434 0.5677837 -0.25379243 -0.08843522
0.049095564 -0.013600778 -0.23141773 -0.87919337 0.62723947 0.0914905 0.078206114 0.27671394
0.3653995 -0.87821907 -0.06495813 0.3893043 -0.061957728 0.31889284 -1.0181979 -2.531517
-0.10643247 -0.6189742 -0.08424421 0.2870641 0.34477845 1.2860236 -0.24748868 -0.28016862
-0.59810317 -0.23694548 0.019772403 -0.013257576 -0.35697973 -6.406021e-05 -0.18500774 -0.1251642
0.70542616 0.19591083 0.43608966 -0.37458086 -0.01724645 0.19208752 0.2555449 0.13184206
2.4496665 -0.5051348 -0.18385112 0.118297756 -0.03898534 0.22745703 -0.63582355 -0.024910597
-0.14357972 0.0058182976 0.14300045 1.3539853 0.5725691 -0.22135858 0.53329587 3.301589
-0.080349445 -0.2286926 -0.7077512 2.1140208 0.21151851 -0.04524938 0.4499805 0.86284876
1.5284978 -0.00060797925 0.22458433 0.17478465 -0.27225578 -1.3528486 0.00563051 1.1043968
0.09895413 -0.37960076 -0.16436435 0.4040262 0.18158916 0.9150696 0.09455198 -0.2291255
-1.3827206 0.23971415 -0.20422105 0.35971895 0.052017123 0.56879777 -0.73423463 0.13715716
0.14012061 -0.6333115 -0.0021050402 0.70639807 -0.20825776 -0.1428941 -0.100084536 -0.47475317
0.045869607 -0.0806522 -0.8293102 0.33392784 -0.0140959285 3.6802583 -0.51722014 0.123076804
0.5171028 -0.19988565 0.13102551 2.6060276 0.015297805 -0.30186 0.305966 0.4717203
0.9610699 -2.8009999 0.08404351 -0.2431783 -0.19455414 -0.77982074 0.03650429 -0.43912315
0.00022923821 0.20104179 -0.63797784 -0.1547937 -0.14772859 0.6743114 0.026748734 0.91315925
0.24386053 -0.046944235 0.052720424 -2.0153635 -0.522128 -0.04034918 -0.33202854 -0.69664377
-0.05893839 1.0552236 -0.121576585 -0.21996875 2.5550416 -0.008581164 0.10104388 -0.23379332
2.9159758 3.6755877 0.42982945 -0.6293776 -0.47565097 -0.34077662 0.3684804 -0.30885956
0.046310235 2.0926766 0.34679553 3.1689618 -0.49162954 -0.9499244 0.27516893 0.36467317
-0.043400068 0.44501814 -0.28268096 3.1532938 0.398946 -0.14276566 -0.5463428 -0.41634804
-0.8063415 -0.0021424994 -0.021594377 -0.7450032 0.67518276 -3.0811288 -0.6355806 0.7391809
0.2869113 -0.6386975 0.11801216 0.008075006 0.52412593 3.2951574 -0.48493567 -0.9601528
-0.020598384 0.8997179 -9.8791126e-05 -0.294594 1.3704156 -0.2298103 -1.0576327 0.06804575
0.00030373846 0.19771573 -0.016474865 0.03425257 0.00030583964 -0.26560035 -0.5596828 -0.12660745
0.1767332 -1.7036448 0.332349 1.0948355 0.00028740935 0.3887473 4.0269027 0.45008522
-0.23973092 -0.5628034 -0.05683563 -0.6906362 0.6562754 -0.5871053 2.4991698 0.10251429
-0.9130406 -0.911326 0.22025055 -0.21688887 9.054312e-05 0.011135026 0.64611185 -0.027735673
0.015650753 0.25410643 -0.36710507 -0.21416207 -0.00033947907 -1.2822899 0.28863427 -0.04819348
-0.114269055 -0.21189994 -0.08736388 -0.038479935 -0.0015533345 0.35558292 0.5246833 -0.86167276

linear.0.bias f4 [11]
00000000: b430 8abe 4645 25bc a780 e63e 2a32 fa3e
00000010: 0b60 c83e 351e 853e 0fd4 1a3e e863 0c3f
00000020: 23e5 debf bf6e 673f 80d8 bf3e
-0.26990283 -0.010087317 0.4502003 0.48866397 0.39135775 0.2599961 0.15119956 0.54839945
-1.7413677 0.9040336 0.37469864

linear.1.weight f4 [11, 432]
00000000: 532b 52bf 28a4 bebc 75a6 d1be 77e5 95be
00000010: d03e 8fbe 6f1b 7c3f 887b 3a3e a8e0 e03e
00000020: 73d1 bf3e fbfd 593d 5b84 833e 191d 723e
00000030: 9a70 76bd 7c3e b33d fc70 4c3e 07b0 b4bd
00000040: b3ae e9bc 4975 bf3b c758 ea3e 265d b83e
00000050: a799 15bf 4621 0fbd 8a5d 05bd 911e 06bc
00000060: e8e3 3bbe bfa5 ef3e 19a9 373a 61e7 88be
00000070: e13e 223d c0a8 56be 6e9b 123f 7ddc 493f
00000080: 0b79 4bbe f62c 1e3f 032c 39bc 9991 c6bd
00000090: 32ad 01bf c73d 3dbf f923 063e ae4c da3e
000000a0: b94c 6b3e 6d71 053e 7ac9 bcbd b287 87bd
000000b0: 9104 bcba e1aa 333e 5470 34bc 8836 f2bc
000000c0: 873f a3be 815f 90bd e6a5 ffbd cd63 aa3e
000000d0: 2431 5b3e 2c9c 88be 4594 54bf c884 a5bc
000000e0: ba76 25c0 520f 933e 561c 1e3e afcb 54be
000000f0: f0fd bb3b 1dfe 3dbc 68f2 d53e 9f7b 313e
00000100: 025c 9b3d e56a 29be 4cd9 0dbe 7453 a9bf
00000110: bb27 07bf 307b c73e 61b0 31bf 23bd 13c0
00000120: 76ff 433e 06fa 94bd 7de8 163f 6ec9 05c0
00000130: aa6d 3cbe a9b6 123e 685c 8fbe fc39 3dbf
00000140: 69a5 d3bf 5a8e 8239 7553 60be fadf a7bd
00000150: 26fc 173e e6c7 683f 41e6 4fbb 9c57 60bf
00000160: a510 693d 35a5 e33e c16d 513e 9470 c0bd
00000170: 9564 3fbf 8b3c 2dbf 5c79 57be be3e ef3e
00000180: a048 b23f 4c55 2bbe 7c90 0b3e 33ac 21bf
00000190: a5df 103e 0500 c4be 31a2 813f d414 8abd
000001a0: 8aa1 f4bc bdbe 433e dc15 17be 5b18 24bf
000001b0: 2729 b33e 0a45 8ebe 2e23 b43e 063c bb3e
000001c0: 7925 87be aa16 823c 1cf1 d83e 2a7f be3c
000001d0: 0668 ee3d 0085 3fc0 2d0f ec3e e583 4ebe
000001e0: d435 2dbf 95a2 253f b2d8 efbe 8984 26c0
000001f0: b47e 6abc 7b44 043f 0945 1dbe a2ed bdbe
00000200: c0b7 a5be 6d86 3340 ba00 e1be e888 553f
00000210: 86dc 83bc 6b04 833e e286 86bd e45f cf3e
00000220: 5980 27b9 6eec ff3d 1ede 553f ebcd a23c
00000230: 27de 3f3e c486 17bf 0333 46bc 8eb4 cabe
00000240: 4fbd 8bbe 0bef 6a3e cef1 f9bc 77fa 0040
00000250: 889d b83e 1919 51bc a876 ab3e a270 c93f
00000260: 11c8 293e 25d1 60bf 58aa 063e 6de4 743f
00000270: 1376 23c0 b667 9cbd e877 87bd a3ec 073e
00000280: 5d29 bdbf 8b3c 6ac0 55f0 fcbd cdee 5a3c
00000290: 0535 ff3e cb4b 813e 2268 00be 059f cfbc
000002a0: 7a1f 09be d499 06c0 3521 02bf f55f 13ba
000002b0: 7648 003f a335 8d3f 741c 11bf a62b 24be
000002c0: 47ec 7fbe 5d56 58bf 56c4 1a3e 7f6d 14c0
000002d0: 01f4 16be 4edc b03a 2ea2 c73e 469e 61bc
000002e0: fe39 0c3f fc13 abb9 9fa6 773a c1b3 493f
000002f0: ca87 6abf c933 4540 33b6 303f ca75 74bf
00000300: 0c18 9dbd 86c4 9b3f 8298 a9bd cacf 32bc
00000310: ec1c 03be 11b6 54c0 961e 6b3f 7b88 af3f
00000320: da0a 073e 089c f6be 4831 5939 11a1 d43d
00000330: 53bd adbf c854 90be 00cc 8f3f 7e8d 143d
00000340: 7436 e9bc 2a7f 4abe 730b a9bf 6df6 f7bc
00000350: 6568 dc39 cc39 f3bc 2f44 873e 0b9d 893d
00000360: 9e61 0cbe bbae da3f 6c16 a7be e1d1 57bf
00000370: 5082 203e 7d88 5bbd b6e4 80c0 3498 e2be
00000380: b1f9 743e 6325 123f 7417 a33d 4ff0 4c3f
00000390: b066 c8bd 79b0 b03e 794f 22c0 1741 01be
000003a0: 41a8 6d3f 6703 793f d081 f4bd 5955 8d3e
000003b0: 3616 3d3a bff4 c9be 033f 19bf c7be 963e
000003c0: 9d8c 39bd 9af1 1ebe 6e22 853d 21cf 0f3c
000003d0: 1d49 e138 c30f dd3e 1b04 22be dc6d 003d
000003e0: 55bf 753e ddc7 b13e 5597 123f e1a3 1d3d
000003f0: 0d2a 423a f228 89be 7a84 ffbe ecc6 863f
-0.8209736 -0.023271635 -0.4094731 -0.2927663 -0.2797761 0.9847936 0.18211186 0.439214
0.37464485 0.05322073 0.25686917 0.23643912 -0.06016598 0.08752152 0.19964975 -0.08822637
-0.028525686 0.005842839 0.45770857 0.36008567 -0.5843758 -0.03494384 -0.03255991 -0.008185999
-0.18348658 0.46806142 0.00070060935 -0.26739028 0.039610747 -0.2096281 0.57268417 0.78852063
-0.19870393 0.61787355 -0.011301997 -0.09695739 -0.506549 -0.7392239 0.1309966 0.42636627
0.22978486 0.1303155 -0.09218116 -0.06617679 -0.0014344623 0.17545654 -0.011013109 -0.029567018
-0.31884405 -0.07049466 -0.124828145 0.33279267 0.21405464 -0.2668165 -0.8303874 -0.020204917
-2.5853715 0.28722626 0.15440497 -0.20780824 0.005737059 -0.01159623 0.41786504 0.17332314
0.075859085 -0.16544683 -0.13852423 -1.3228593 -0.52795 0.38961172 -0.6940976 -2.308419
0.1914042 -0.07274251 0.589485 -2.0904193 -0.18401209 0.14327492 -0.28000188 -0.739166
-1.6534854 0.00024901592 -0.21906836 -0.08197017 0.14842281 0.9093002 -0.0031722935 -0.8763368
0.05690064 0.4446198 0.20452024 -0.093964726 -0.7476285 -0.67670506 -0.21042389 0.46727556
1.3928413 -0.16731757 0.13629335 -0.6315338 0.14147814 -0.38281265 1.0127622 -0.06742254
-0.029862184 0.1911573 -0.14754432 -0.64099663 0.34992334 -0.27787048 0.3518309 0.36569232
-0.26395777 0.015879948 0.42371452 0.023253996 0.11640935 -2.9924927 0.46105328 -0.20167501
-0.6766026 0.64701205 -0.46845013 -2.6018393 -0.014312435 0.5166699 -0.15358366 -0.37095362
-0.32366753 2.8050797 -0.43945867 0.8341203 -0.016096365 0.25589308 -0.065686956 0.40502846
-0.00015974174 0.12496267 0.8354205 0.01987358 0.18737088 -0.5919001 -0.012097123 -0.39590877
-0.27292868 0.2294275 -0.03051081 2.0152872 0.36057687 -0.012762331 0.33488965 1.5737498
0.16580226 -0.8781913 0.13150918 0.9566105 -2.5540817 -0.07636969 -0.06614667 0.13273863
-1.4778248 -3.6599452 -0.12350527 0.013362599 0.49845138 0.25253138 -0.12539724 -0.025344381
-0.13390914 -2.103139 -0.5083192 -0.00056219037 0.50110567 1.1031994 -0.5668404 -0.16032276
-0.24992476 -0.8450678 0.15113959 -2.319183 -0.14741518 0.001349339 0.3899092 -0.0137706455
0.5477599 -0.0003263055 0.0009447131 0.7878991 -0.9161345 3.0812857 0.69028014 -0.9549223
-0.07670602 1.2169349 -0.08281042 -0.010913799 -0.12804002 -3.3236125 0.91843545 1.3713526
0.13187733 -0.48165917 0.00020713091 0.103822835 -1.3573402 -0.28189683 1.1234131 0.03626775
-0.028468348 -0.19775072 -1.3206619 -0.030268872 0.0004203945 -0.029690646 0.26419207 0.06719407
-0.13709113 1.7084574 -0.32634294 -0.84304625 0.1567471 -0.053596962 -4.027919 -0.44256747
0.23923375 0.570883 0.07963458 0.8005418 -0.09785211 0.34509638 -2.5361006 -0.12622486
0.9283486 0.97270817 -0.11938822 0.27604178 0.00072130875 -0.3944454 -0.59861773 0.29442427
-0.045300115 -0.15521851 0.065007076 0.008777411 0.000107424545 0.43176088 -0.15821879 0.03135477
0.23998769 0.34722796 0.57262164 0.038486365 0.0007406779 -0.2678905 -0.4990576 1.0529456

linear.1.bias f4 [11]
00000000: c28a a03e a60b 803d 657d 96be 4371 b4be
00000010: 8e5c cb3e acc6 2cbe f2ad 913d 63e1 99be
00000020: 8f5a 553d 247d f9bd e6cf 38be
0.31355864 0.06252222 -0.29392543 -0.35242662 0.3971905 -0.16872662 0.071132556 -0.3005477
0.052088317 -0.12182072 -0.18048057

linear.2.weight f4 [11, 432]
00000000: dc74 eebf 0fee 62bf 7193 88bd 233d 763f
00000010: b5ba 4dbf 9df7 8e40 1a9e e0be c9d3 623f
00000020: e4d8 3240 5b39 ad3e 32c9 54bf a362 0fbf
00000030: eaac 233e 2403 0cc0 b1b3 4c3e 4ebe 473f
00000040: 0c0b 3dbd efa7 f03d 02d0 5fbf 6205 bc3f
00000050: d784 77be a2c7 68be 809f 18be d22e 84bf
00000060: fb6c e4be a17a 9c3f 22b1 b53c d807 cfbd
00000070: 68da 563e c85f 7fbe 634b 763f 0c44 1440
00000080: 9ee8 873f 359c 84bb a38e 823e 41ae 55bf
00000090: 25fd 073f 836f ebc0 b0b5 833e cc27 53bf
000000a0: 0749 8c3f 0209 0c3f 7244 783d ed4b a13e
000000b0: 1d84 b53f 77a7 fbbe 4d86 083f 20d0 123f
000000c0: ca56 c1bf 23e0 06bf deb6 a2bf 58ff dc3c
000000d0: d49d e3bc f95e d73d e54b 893e e8cc 3aba
000000e0: a586 1739 7a1a fa3e 114a 3c3c f865 073e
000000f0: 1bd3 d03e ea37 19c0 b0f8 f73e da56 79be
00000100: 5d49 513e e841 8ebb dc74 01bb ce0c 033a
00000110: e5f9 96bc c00f 59bf 78bc a23c 8c98 27be
00000120: a763 a7be 2d97 833f 5d47 003d 4166 a039
00000130: 2278 f43b 4cf1 d4be a4ea 3639 50ff 00b7
00000140: a056 e3b7 7590 34ba e70d 8e3b 1796 90be
00000150: e100 133f 72fa 263f 9600 ab39 7c9e e3be
00000160: cb66 41bf 3396 a5be 8246 42be 5453 3ebf
00000170: c1da ea3f fae5 6cb9 efd2 783f 9892 c038
00000180: 7b7f f2b9 fe9a 1a3c bc56 0dbd 2d3b 253f
00000190: e8bc 84bf 70c6 08bb ecc4 a7b9 de47 033d
000001a0: 486c c4be 9061 da39 da00 cf3c 9442 b739
000001b0: dbdd 81bb bd3c ef3f a948 afb9 e01e 8c3c
000001c0: 7e0a 133f f785 b93e 6f7f 0c3f 42aa 2ec0
000001d0: 98ca 7db9 600a fa37 ce9d 683a 567b 8c3b
000001e0: e448 153f d351 e3bf f951 223f 7413 97b8
000001f0: 55e4 78b9 8346 78bf a387 3dbf 8495 ffba
00000200: 4cbf d0be c7dc 803a e42b 853f 9c52 20c0
00000210: 3b0d 253f 99f8 a43f 2bbb 923d dc30 ae3c
00000220: 8eed 213a b39f 8bbf 9c39 1038 ecca 093f
00000230: 0a43 b4ba e7a8 05bd 9db7 6bba 4a48 01c0
00000240: 1319 ad3e 67c9 a9be cca8 033a f48f 8b39
00000250: cc9b c13e b434 613e 6e06 86bc 55f0 89c0
00000260: 1c55 9cbe 4bb4 1fbe 53db b9b9 bdf0 8cc0
00000270: f836 3339 ab6b 113f d6fb 3aba 22f0 c43e
00000280: b8a0 86bf 682a b638 f2c6 61bf 9012 b03f
00000290: c237 1d3a 4b87 b43d 7e08 5fbf eb82 913f
000002a0: eff3 6c3d acc9 bbb9 013b d7bc 60b7 babf
000002b0: 3df2 773c e309 85ba 3fd7 a33f f2cc 50be
000002c0: f79b 6a3f 0018 483f 7858 033f 6b3a 3dc0
000002d0: 0b7d ae39 dc81 0a3d ca3a 523e 58cb bd3f
000002e0: 4db5 903c 7429 d13a 587d cc3e 0a7e 323a
000002f0: f398 b73e a0b3 37b9 40a4 b2b8 1497 8bb9
00000300: 0857 05bb cecd 0bc0 fa6f 16bc dbc7 47b9
00000310: bc0d d6bf 8ca5 86b8 3adc 4ac0 eb34 82c0
00000320: 2dd2 9abe e323 c5bf a8e9 123a 957c 223f
00000330: 5c9c f738 a3ca ff3f 97d4 773a 820e f6be
00000340: dffb 0b3e 4828 91b9 f783 703f 6358 ab3a
00000350: 40d8 ecb8 8c23 993f d790 383c 1384 d03c
00000360: 1e06 00be 8d1e 2a38 5b14 ac3c 46ad 07bb
00000370: 6ba7 d8be 30d0 36bf 6507 c839 c4b2 c2b9
00000380: 635c b7bd b74a ac39 de7a a2bd 6e26 35bc
00000390: 6ba7 f7bf e8c0 033f 3e3f 00ba ecee 373e
000003a0: a031 dfb7 f405 b938 8923 72be e804 73ba
000003b0: e752 a5b9 7c7d fb3f 4800 9bbc d3a1 9dbf
000003c0: 160e 1c3b feef 73b9 7e7f df3e 65c3 333f
000003d0: 763e 47b9 c33b b53f 6162 03bf 2bf9 a23a
000003e0: 5a2d 89bd fa1b b1be fad9 babf cefa 003a
000003f0: 7e9d dbb9 87ec c5be d0a6 3ab9 e60c e438
-1.8629413 -0.886445 -0.06668747 0.9618704 -0.8036302 4.467726 -0.43870622 0.8860441
2.794488 0.3383282 -0.831195 -0.5600988 0.1598393 -2.1876917 0.19990422 0.78024757
-0.046153113 0.11750781 -0.8742677 1.4689143 -0.24171768 -0.22732404 -0.14904594 -1.0326788
-0.44614395 1.2224923 0.02217919 -0.10108918 0.20981753 -0.24938881 0.9620878 2.3166533
1.0617864 -0.0040469416 0.25499448 -0.83469015 0.5312064 -7.3573623 0.25724554 -0.824826
1.0959786 0.54701245 0.06061215 0.3150324 1.4180943 -0.49151203 0.53329927 0.57348824
-1.5104611 -0.52685755 -1.2712057 0.026977226 -0.02778522 0.105161615 0.26815715 -0.00071258703
0.00014450641 0.48848325 0.011492268 0.13222492 0.4078606 -2.3940377 0.4843192 -0.24349537
0.20438142 -0.0043413527 -0.0019753492 0.00049991615 -0.018429706 -0.8478966 0.01986526 -0.16366786
-0.32693216 1.028051 0.031318057 0.00030593763 0.00746061 -0.41590345 0.00017444283 -7.688839e-06
-2.7100847e-05 -0.0006887981 0.0043351534 -0.2823951 0.57423216 0.652259 0.00032616098 -0.4445685
-0.75547475 -0.32341155 -0.18972209 -0.743459 1.8348008 -0.00022592387 0.9719686 9.182579e-05
-0.00046252817 0.009436367 -0.034506544 0.6454342 -1.037015 -0.002087023 -0.0003199944 0.03205096
-0.38363862 0.0004165289 0.02526896 0.00034954085 -0.003963215 1.8690411 -0.00033432737 0.017104566
0.57437885 0.3623502 0.5488195 -2.7291417 -0.00024203432 2.9807154e-05 0.00088736124 0.0042871637
0.5831435 -1.7759346 0.6340633 -7.2038645e-05 -0.00023736183 -0.9698259 -0.7403509 -0.0019499515
-0.40770948 0.0009831422 1.0404019 -2.505042 0.64473313 1.2888366 0.07164606 0.021263532
0.0006177061 -1.0908111 3.438593e-05 0.5382526 -0.0013752889 -0.03263178 -0.0008991899 -2.0200372
0.33808193 -0.3316147 0.0005022406 0.000266194 0.37814176 0.21992761 -0.016360488 -4.3105874
-0.30533683 -0.1559612 -0.0003544936 -4.404387 0.00017091248 0.56804913 -0.00071328634 0.38464457
-1.0517797 8.686335e-05 -0.8819419 1.3755665 0.0005997383 0.088148676 -0.87122333 1.1368078
0.05784982 -0.00035817677 -0.026273252 -1.4587212 0.015133438 -0.0010150041 1.2800063 -0.2039068
0.91644233 0.7816162 0.5130687 -2.9566905 0.0003328103 0.03381525 0.20530239 1.482768
0.017664576 0.0015957789 0.3993938 0.00068089424 0.35858878 -0.00017519156 -8.518295e-05 -0.00026624708
-0.0020346064 -2.1844363 -0.009181971 -0.00019052571 -1.6722941 -6.4204534e-05 -3.1696916 -4.0689597
-0.30238476 -1.5401577 0.00056042755 0.6347135 0.00011807002 1.9983715 0.00094539806 -0.48057944
0.136703 -0.00027686567 0.9395136 0.0013072606 -0.000112936366 1.1963973 0.011265001 0.025453603
-0.12502334 4.055961e-05 0.0210058 -0.0020702644 -0.4231523 -0.7141142 0.00038152482 -0.00037135754
-0.08953168 0.00032862063 -0.07933591 -0.011056526 -1.9347967 0.51466227 -0.00048922363 0.17962235
-2.660678e-05 8.822596e-05 -0.23646368 -0.00092704454 -0.0003153302 1.964767 -0.018921033 -1.231501
0.0023812107 -0.0002326369 0.43651956 0.70220023 -0.00019001387 1.4158863 -0.5132199 0.0012433877
-0.06698103 -0.34591657 -1.4597771 0.00049201853 -0.00041888276 -0.3865702 -0.00017800485 0.0001087429

linear.2.bias f4 [11]
00000000: 3937 40be 0888 7dba 8132 aebe ac9e 03bf
00000010: c14f 66bf 127f 78be a482 03bf ea1a 28c0
00000020: a432 193e 4221 27bf a866 06c0
-0.18771066 -0.00096714543 -0.34022906 -0.5141399 -0.89965445 -0.24267223 -0.51371217 -2.6266427
0.14960724 -0.6528512 -2.1000156
