Data/model_results_unphased_all_PRS/logistic_regression/onnx_models/final_model_chr12.onnx (onnx, 128871 bytes, 6 tensors)

linear.0.weight f4 [17, 624]
00000000: b0b9 a53c 1f05 9fbe ed76 4abd c748 8b3d
00000010: b54e bdbe 0251 b8be 9d72 b0bd ba21 753e
00000020: 6b5a fa3d 522b 6dbe 5c6e 863c 9859 9f3c
00000030: 4c9d 30be bd6f 9e3d c129 3b3e 51a3 a9be
00000040: e43f e13c 0516 db3d 667e a13d 7dbe a83e
00000050: 6919 9cbd dfe8 8fbc 1c8f 0cbe 35be 423d
00000060: fc87 cc3c 1e59 92bd b112 1d3e 6d6c 943d
00000070: c10f d4be f160 113e a44e c53d d5fb 7ebe
00000080: 6888 123e 1c94 273d 6a69 783d b33e 12bf
00000090: 45af 83bc 1e03 353d 5a6d 0fbe cbf4 ab3c
000000a0: cbf5 a33d 60cc 1439 363e 823e fa9f c53c
000000b0: 86d2 143b adb6 223f 3658 bdbe 2e3e d13d
000000c0: ba93 f73d 63c6 293f 6525 76be 2dd3 1bbd
000000d0: 3bf3 a73e ddf9 543e da68 64be 094e 033e
000000e0: 4969 14bf 11e7 4b3f e0b5 923e db98 f63e
000000f0: 0e11 10be 7411 72be ffcb 04be ab22 a3bd
00000100: cfe4 9b3c cb48 d33e 64bc 08bd f4f0 b53e
00000110: 55d8 023e b770 0a3e 5eda 2c3e 82c9 19be
00000120: 5434 22bc dc7a 7a3d b405 4cbe f1e8 8c3e
00000130: 6a67 1d3c e486 b73e 7f0c 743e ba8f 05be
00000140: 9eff 8a3e f9d5 a03e 64ad 12bd 4020 85bd
00000150: bdb5 19bd c376 93be dab2 3cbf 73bc 853d
00000160: 961f 2dbd 9d0b 42be ec6f 4b3e fdc4 b43e
00000170: e7a2 46bc 3c15 92be 7d0a 7abe d41e 0cbb
00000180: 431d 0ebe 1a23 ed3e 9199 30be 911a 6ebe
00000190: 4216 443d 84d1 47be 0685 7d3e 786b de3e
000001a0: 2cb3 9b3a 7bad 3cbe d026 a33c 3954 90bd
000001b0: b2e5 3a3c f3e7 de3d 73f2 dabe 5585 e3be
000001c0: 0826 e13d b021 893e 4cb7 9bbe 85e2 03be
000001d0: f6ac 923c 88c0 f7bd f84d 98bc 1621 79be
000001e0: 7155 953d be13 97bd 4128 df3d 923e 8d3e
000001f0: 4803 3c3f a33e 0d3e 0018 aa3d 5779 babd
00000200: b0b3 f03c ebc5 253e 1361 dabd ffc6 493e
00000210: 4200 9e3e 47a4 d0bd 0a45 913d a936 34bd
00000220: b7be ac3e e33f d5bd 3774 df3d 4994 823e
00000230: 807a a73e 8384 893d fd05 c33d c635 223e
00000240: cae2 debe e59e 62bd 72ee 533e 7887 97be
00000250: 596a e53c ba06 3cbb 1367 2c3e d91b 03bd
00000260: 8aeb d23d c2d3 b3be c8f5 d3bd cc61 313e
00000270: a0af 8d3c 2fa6 a4bd 04db 8dbe 701b d1be
00000280: bb00 813d e9ac 13be da8d f53e dffa da3d
00000290: d5d7 ea3c 0ce3 033d 7c27 023d 357a 793e
000002a0: 22e9 d73d 10ca 68bd b675 eb3b 7b19 71be
000002b0: f530 853e ca9a a1be 9c5e 7dbc f19d 583e
000002c0: 8a74 053a e84f 123f 0215 963e 1c10 74be
000002d0: 79f3 aa3c ceb8 05be 8652 1abc 8bb3 fb3d
000002e0: d941 f03c 8365 813e b4da 1c3c 5039 2dbe
000002f0: 5190 273e 0607 81be c26d 003e 17ed e7bb
00000300: 2ed5 24bf 931a c1be 0494 a2be 8e73 9b3e
00000310: 2afb 76bf d71a 053d c755 e93d 4add 2b3d
00000320: e48a 353d 9b51 9cbd 527a 45bd 4e42 87bd
00000330: a726 d53c 089a aabd c69a 32be 0b2e 1dbc
00000340: 0305 273e 5e78 943b 13b7 a7bd 8924 ca3e
00000350: ba0e bdbd 733c 993d 434e 81be 1ee1 e0bd
00000360: 9dde eebd 97fd 453d e783 853f c34c 453c
00000370: cf43 96be ad0b 2cbe 15ad 67bb f7e6 9f3e
00000380: 9061 82be fb81 16be dbdc 88bd 87e6 9f3e
00000390: e7d4 2fbd 6eec 4c3e 46fa 2a3e 64b5 b03c
000003a0: 51fa 613e aef6 20be db0b 673c 53ad 4d3d
000003b0: 3180 c93d 5c6d 84be 8cec 7e3d 03f8 b5bf
000003c0: a056 5cb9 06f0 19bf 0b30 43bd 22a1 033e
000003d0: 89fe 97bd f393 26bd 143e 2b3e d63b 55be
000003e0: 261c e93c d33b 943e 0a81 28bf a429 cebe
000003f0: acb8 843c 4ea0 ccbd c03a 193e 8402 87be
0.020230144 -0.31058595 -0.049429823 0.068009906 -0.3697411 -0.35999304 -0.08615611 0.23938647
0.12224277 -0.23161057 0.016410045 0.019451901 -0.17247504 0.07736156 0.18277647 -0.33132413
0.027496286 0.10697559 0.07885437 0.3295783 -0.07622034 -0.017567096 -0.13726467 0.047544677
0.024967186 -0.07145904 0.15339161 0.07247243 -0.4141827 0.14197136 0.0963414 -0.24900754
0.14309847 0.040912732 0.060647406 -0.5712692 -0.016074786 0.044192426 -0.14006558 0.02099075
0.08005866 0.00014190516 0.25438088 0.024124134 0.002270849 0.6355999 -0.36981362 0.10216938
0.120887235 0.6631834 -0.24037702 -0.03804319 0.32802758 0.2079844 -0.22305623 0.12822737
-0.5797315 0.79649454 0.28654385 0.48163494 -0.14069006 -0.2363947 -0.12968443 -0.07965597
0.019030003 0.41266474 -0.03338279 0.35535395 0.12777837 0.1351956 0.16880175 -0.15018275
-0.009900171 0.061152324 -0.1992405 0.2752147 0.009607175 0.358451 0.23832892 -0.13043109
0.27148145 0.31413248 -0.03580989 -0.06500292 -0.037526835 -0.28801546 -0.73710406 0.065300845
-0.04226645 -0.18949743 0.19866914 0.3530654 -0.0121238 -0.28531826 -0.24418063 -0.002138068
-0.1387835 0.46315843 -0.17246081 -0.23252322 0.04787279 -0.19513518 0.24757776 0.43441367
0.0011878959 -0.18425553 0.019915968 -0.07047314 0.011407303 0.108840846 -0.427631 -0.44437662
0.10993582 0.26783514 -0.30413282 -0.12879379 0.01790474 -0.12097269 -0.018591866 -0.24329028
0.07291687 -0.073768124 0.1089635 0.275868 0.73442507 0.13793425 0.08305359 -0.09105175
0.029382557 0.16188781 -0.10663047 0.19704817 0.30859572 -0.101875834 0.07093246 -0.04399744
0.33739254 -0.10412576 0.10910838 0.25503758 0.32710648 0.06714728 0.095226265 0.15840825
-0.435324 -0.055327315 0.20696428 -0.29595542 0.028004812 -0.0028690533 0.16836195 -0.03200898
0.10298832 -0.35122496 -0.103496134 0.17322463 0.017295659 -0.080395095 -0.27706158 -0.40841246
0.062989675 -0.14421429 0.47959787 0.10692381 0.02866737 0.03219895 0.031775936 0.24363025
0.105425134 -0.056833327 0.007185663 -0.23544876 0.26013914 -0.31563407 -0.015464451 0.21154
0.0005090913 0.5715318 0.29312903 -0.2383427 0.02086805 -0.13058779 -0.009419089 0.122901045
0.029328274 0.2527276 0.009573627 -0.16916394 0.16363646 -0.2520067 0.1254187 -0.007077824
-0.64387786 -0.37715587 -0.31753552 0.303616 -0.96476996 0.0324963 0.11393314 0.041959085
0.04432191 -0.076327525 -0.048212357 -0.066044435 0.026019407 -0.083301604 -0.17441854 -0.009593497
0.16310506 0.0045309504 -0.081892155 0.39481 -0.092313245 0.07482233 -0.2525502 -0.10980438
-0.11663554 0.048337545 1.0430878 0.012042227 -0.2934861 -0.16801329 -0.0035350968 0.312309
-0.2546506 -0.14698021 -0.0668275 0.31230566 -0.04292765 0.20012066 0.16697034 0.021570869
0.22068144 -0.15719101 0.014101948 0.050214123 0.09838904 -0.25864685 0.062237307 -1.4216312
-0.00021013105 -0.6013187 -0.04765324 0.12854436 -0.074215956 -0.04066844 0.167229 -0.20823607
0.028455805 0.28951892 -0.658219 -0.40266144 0.01620134 -0.09991513 0.14963818 -0.26369107

linear.0.bias f4 [17]
00000000: aee1 4cbd 1d54 ac3d 18ed e13d b77f 4e3d
00000010: fdc2 5d3d 8f91 673c bfd1 a23d 9b8e b53b
00000020: 9efa a53d ba4f 873d 25a1 4abd 5698 e83b
00000030: 85cd 73bd e2bf d13d 6089 123e aea9 bb3e
00000040: 509c da3d
-0.050019912 0.08414481 0.1103155 0.050414767 0.054141033 0.014133825 0.07950162 0.0055406815
0.08104442 0.066070035 -0.049470086 0.007098238 -0.05952217 0.10241677 0.14310217 0.36652893
0.106743455

linear.1.weight f4 [17, 624]
00000000: 4f4e 793d d903 6f3e 7e4a 0bbd 6a22 1cbe
00000010: 8a21 453f 2be0 4c3e 6268 8abd c434 71bd
00000020: 4308 a2be 8f31 1cbe e25c 3fbd 24a3 123e
00000030: cd45 363d 1e28 1bbe 5e5c c0bc 37a5 b83e
00000040: af08 8bbc 5abc f1bd b3d8 0abe bdcd 03be
00000050: 6d78 3d3e ca22 0abd b14d 00bf 3812 a5bc
00000060: 71e0 7cbd 9442 543c 663f 80be d1fa fd3d
00000070: 64c7 8a3e 0fdc e83c 6c7d 103e 2a9c 9f3e
00000080: 5839 f43c 838d 4e3e 29e6 f5bc b645 58bf
00000090: ac81 ae3d 0f42 aebd bde3 253d 0ead 4fbd
000000a0: 511e 94bc 7002 01bc d0ab 07bd 63db 6ebb
000000b0: 0bde 543e fbb8 46bf cedd 883e 3e37 343d
000000c0: 3347 b63d 2441 e2bd 9641 7f3e 9172 18be
000000d0: cb72 40be f2bb 6e3d 94a5 8d3d 02bb 333d
000000e0: a59d 913e bad1 b03d 1400 aebc c277 41bf
000000f0: a7b4 1bbd 4957 59be df93 b63e f798 2a3e
00000100: 4c7a dd3d 8e99 4f3f d708 1cbd 0c4e dbbd
00000110: ac9a 82bf 12b4 70be fad0 fa3d 3b11 143d
00000120: 2182 323e 3698 89bd 5591 123e 10c7 fbbc
00000130: 1088 6bbd 1dba 58be aabc 65be 9c06 803e
00000140: 0f90 963d a9d1 09bf 6d63 ba3e e597 3a3e
00000150: a233 c3bd 2994 883e c96e a3be 5568 d0bd
00000160: ee84 223e 9856 ca3c 333a 8abd 3bf6 8e3e
00000170: 023d b1be 39c7 053f 2eb7 e6be 20ee 8e3e
00000180: f136 fd3c f621 01bf 0d60 aa3d 6c3b 3a3e
00000190: 9ca0 51be cc90 e23e 2fbc 49bf 0f7b b93e
000001a0: eb33 563d 55e2 6e3d 398d b7bd 284c b43d
000001b0: 11e4 a93d 246c 5a3c eb26 b0bd e810 303f
000001c0: eb10 bebd f974 1cbc acb7 073e 6a66 423d
000001d0: a98e 86bd d71a be3d ab6b 513d 5689 2e3e
000001e0: 5e8c e7bd e7c1 1bbd a58f 5cbd ec41 16be
000001f0: e0b8 56bf 1c87 62bc 7ef4 cd3c 2774 a43e
00000200: 57bb 173e 7e78 0dbf 1b56 993d 5a68 84bc
00000210: a43f 31bf 2dbf 983d 8002 e5bc b3e2 7b3d
00000220: 43cd bbbe fa5a 28be 706a c03d ad8e 4bbf
00000230: 1965 b9be cbda ef3d 2023 883d fca5 98bd
00000240: cf57 00be 5003 263e 4926 f7bd 42e7 6cbd
00000250: c9e5 fdbc 536d 5dbd a066 dbbd 5937 663e
00000260: ca9c b7bd 3779 bb3e b5ea ae3e 0236 fcbd
00000270: 15cb 84bd 5c60 953b 00c2 893e 38e7 ae3e
00000280: ca46 f33d e003 cc3d 69b7 0dbe 6650 2d3c
00000290: f562 52be 68d1 e3bd be0b 38bc 6f9d 1cbe
000002a0: 4115 963d 0154 a63d f983 14be c992 773e
000002b0: e9db e73e d38e e4bc 9bbc 89bf 5d30 42bd
000002c0: d6c0 213e d022 7e3d dfeb 48bd 3f92 94bf
000002d0: 8ae9 fcbd a403 013e f352 953d 1d90 4a3d
000002e0: ec57 17bd 7998 a3be 979c cd3d cf35 743e
000002f0: 3103 b53d b8d7 733c 6648 36bd a108 5cbd
00000300: 76d3 2e3f 38ad b23d 5aab 913e a4e9 433e
00000310: 43fd 933f e93e 35be fba0 bebd a415 1a3e
00000320: 25cb 0d3d 7735 24be 71b6 bd3e e373 623e
00000330: 7c13 e1bd 47e5 a3be d213 0f3e 40ac 6bbc
00000340: 2007 133d 22fa 4cbe 4794 663e 5f72 08be
00000350: 500c c5be 66ea 8a3d 54bd 1c3e e99b 84bc
00000360: 6605 02be 1914 77bd f7d1 cc3e a6c9 a3bc
00000370: 48af c1be 2cb9 0d3d 426e dcbd e81f 6abe
00000380: 43d3 9a3e 5b67 3cbe 78dc 523b 47c0 24be
00000390: cc94 2d3e 6cc8 d2bd b91c 35be 72c3 4ebe
000003a0: 13de f7bd 27cb 6abd c7e6 6ebe 2763 3bbd
000003b0: f8fd 9c3d e58b 0ebe 9fcd a0be 40c4 223f
000003c0: c18e 4a3d 385c fabb 1023 05be 1ec5 3bbe
000003d0: 186a 84bf 4f2a aa3e c7e8 01be 2cd3 943e
000003e0: 2e8c 3e3e cf10 50be 997c d0bd a9e6 bf3d
000003f0: 0065 3abd 5ebd 20bc 32ea 2c3c fa6d 163e
0.060865697 0.23341312 -0.03400659 -0.15247503 0.770043 0.20007388 -0.06758191 -0.05888821
-0.31646928 -0.1525328 -0.04671944 0.14320046 0.04450016 -0.15152022 -0.023481544 0.3606355
-0.016971914 -0.11803503 -0.13559227 -0.12871452 0.1850297 -0.033724584 -0.5011855 -0.020150289
-0.06173748 0.012955327 -0.2504837 0.12401355 0.27105248 0.028425245 0.14110345 0.3117383
0.0298125 0.2017117 -0.030016975 -0.8448137 0.08520827 -0.085086934 0.04050039 -0.050702147
-0.018080862 -0.007874116 -0.033122838 -0.0036446683 0.20787828 -0.7762601 0.26731724 0.043997996
0.08900299 -0.11047581 0.24927363 -0.14887454 -0.1879379 0.058284707 0.06916347 0.043879516
0.28440586 0.08633752 -0.021240272 -0.7557336 -0.03801408 -0.21224703 0.35659692 0.16659914
0.10814342 0.8109368 -0.038094368 -0.10708246 -1.0203452 -0.23506191 0.1224689 0.036149245
0.17432453 -0.06718485 0.14313252 -0.030734569 -0.057502806 -0.21164747 -0.22435251 0.25005043
0.07351696 -0.5383554 0.3640398 0.18222006 -0.095313326 0.26675537 -0.3192046 -0.1017615
0.15871021 0.024699494 -0.06749382 0.27922234 -0.34616858 0.52257115 -0.4506163 0.2791605
0.030909987 -0.50442445 0.083191015 0.1818673 -0.20471424 0.44251096 -0.7880277 0.362267
0.052295607 0.058321316 -0.08962483 0.08803588 0.08295453 0.013331447 -0.08601173 0.68775797
-0.092805706 -0.009549373 0.13253659 0.04746095 -0.06570179 0.09282463 0.05112807 0.17044577
-0.1130607 -0.038026717 -0.053847928 -0.14673585 -0.83875847 -0.013826158 0.025140997 0.32119867
0.14817558 -0.5526198 0.074871264 -0.01616304 -0.6923773 0.07458339 -0.027955294 0.061495494
-0.3668004 -0.16440955 0.09395301 -0.7951458 -0.36209944 0.11711653 0.066473246 -0.07453534
-0.12533496 0.16212201 -0.12067849 -0.057837732 -0.03099336 -0.054059338 -0.107129335 0.22482051
-0.08965452 0.36615917 0.34163442 -0.12314989 -0.06484047 0.004558606 0.26905823 0.3416078
0.11878736 0.099616766 -0.13839497 0.0105782505 -0.20545562 -0.111239254 -0.011233268 -0.15294431
0.073282726 0.08121491 -0.14503469 0.24177088 0.45284966 -0.027900135 -1.0760683 -0.047409404
0.15796217 0.06204492 -0.04905307 -1.1607131 -0.123492315 0.12599045 0.07291212 0.049453843
-0.036949083 -0.31952265 0.10039633 0.23848651 0.08838499 0.014882974 -0.04450264 -0.053719167
0.68291414 0.08724445 0.28451043 0.19132096 1.1561664 -0.1769978 -0.09308048 0.15047318
0.03461756 -0.1603602 0.37053254 0.2211452 -0.109900445 -0.32010862 0.13972405 -0.014384329
0.035895467 -0.20017293 0.22517501 -0.13324879 -0.38485956 0.06782989 0.15306598 -0.016187625
-0.12697372 -0.0603219 0.4000394 -0.019993614 -0.3782904 0.03460042 -0.107632175 -0.22863734
0.30239305 -0.18398802 0.0032174867 -0.16088973 0.16951293 -0.10292134 -0.17686738 -0.20191744
-0.12102904 -0.057322647 -0.23330222 -0.045748856 0.07665628 -0.13920553 -0.31406876 0.63580704
0.049452547 -0.007640388 -0.13001657 -0.18336913 -1.0344877 0.33235404 -0.12686454 0.2906736
0.18608162 -0.20318912 -0.10180015 0.09370167 -0.045506477 -0.009810774 0.010553883 0.1469039

linear.1.bias f4 [17]
00000000: 5766 af3d 2b28 d13d b575 873d 0cdd afbd
00000010: 9bb3 a3bd a27d 4d3d b4df ee3c 95a1 29bd
00000020: 6eae 7a3d 120e ab3c 8d47 433d 58e9 823d
00000030: 21ee 3cbc 90d6 2dbd a1f3 c1bd 68c2 80be
00000040: 873a a4bd
0.08564442 0.102127396 0.06614248 -0.08587083 -0.079932414 0.05016864 0.029159404 -0.041413862
0.061201505 0.020880733 0.047675658 0.06392163 -0.011531384 -0.04244095 -0.09470297 -0.2514832
-0.08018976

linear.2.weight f4 [17, 624]
00000000: aaf5 24be a2a0 6a3e faea 333e abfd 323e
00000010: 9f33 4ac0 d963 503e 067a 3b3e 9c0c 4fbe
00000020: b013 9b3e 47c5 163f e047 d33d da8b 88be
00000030: 39ad 8e3e e7c0 013e b4c4 b1be ef9b 613d
00000040: 3a27 6b3d a204 023e 1f3a 4c3e ab83 9abe
00000050: f491 92be 54a8 c63d 666d 703f 0761 a03c
00000060: b119 6ebc f81b 223e 85cb 8d3e 2538 dabe
00000070: 280b 143e 018e 98be 94fa 02bf 4c2e acbd
00000080: 53f2 8bbe 685e 61be 6e4f 03be 853c d23f
00000090: 14d3 2cbd 62be e93d acb7 1a3e 3349 1f3e
000000a0: 27e2 1dbd 43df a03d 0e1f 8cbe 7a4b a63c
000000b0: ba6e c3be fcc2 753e e205 7e3e ffb4 8fbe
000000c0: a07b 60be 9582 bfbf e5d2 85bd a936 c53e
000000d0: db17 35be 5db8 dabe 5634 633e b21a 90be
000000e0: 480c dc3e 8ba8 09c0 db4c 06bf fb82 e73e
000000f0: 86ed b23e 655a 243f 8c23 fcbe 8b80 d3bd
00000100: dfe0 67be c837 3ac0 a6c5 213e f20a c7be
00000110: fe85 a13f 2a28 253e f003 00bf f7c4 953e
00000120: 6a7c aebe 94f5 523d 3a9a d73d 970a efbe
00000130: db0f 0d3e b1b2 2fbe 5962 64bd a1be 6abe
00000140: 4b76 49bf f9b4 b83e e1a2 2cbf e5b1 4dbe
00000150: 782e 9b3e b98d a53c 898f 1a40 54a1 b63d
00000160: 4199 eabd ed9e 3a3e 9ffd 8cbe 87d7 a4bf
00000170: 6c7f f53e 3da0 eebe cd68 803f 4035 0abf
00000180: 1ee3 3d3e e363 cb3d fc58 653e 68e2 883d
00000190: 922f a23e 52ae fdbe 1973 113f 055d e9bf
000001a0: a4f2 1fbe f309 a73e f615 8a3d c836 b9bd
000001b0: a80c 50be b39f 3cbe 4e6f 363f 56d7 babe
000001c0: 7506 b5bd 3ca1 d8be 087b 883e 0dd6 523e
000001d0: 9462 c13b c6c0 c93c f93b 06be 8214 3a3e
000001e0: b7e1 ae3d b5ad 113e dce1 9dbd 932f ffbd
000001f0: 6136 183e 2a45 60be c611 b5bd 53d3 f0be
00000200: 1716 95be 5997 2e3f 5bd1 9e3d 4e10 c2be
00000210: 981a 0e3f bea2 a43d b602 493c 7f6e 143d
00000220: 9aeb b83d 8a68 ee3e 35fd a6be 1be7 6c3f
00000230: 8632 123e 4da8 89be b7e7 88be 2011 c2bc
00000240: cd58 633f 2e94 36be 94d1 fcbd d7a8 223f
00000250: 26ed cf3b 4ff5 be3d 6c73 e8bc 78e1 5fbe
00000260: dc05 8dbd c821 35bc 3295 b3be 2049 1db8
00000270: a002 a0bc 0a82 003e 755d ae3d a554 9c3d
00000280: 11fa 87be 7b4c 6f3d 0892 1ebf ca5e 4dbe
00000290: b923 973e 8bea ba3d 36df 733d da85 d1bd
000002a0: 0cd8 73be 82ad ff3d 097d 923e 250e 49bd
000002b0: bc7a a6bf 43b1 f23e 19f1 b63f 40f4 87be
000002c0: a9f5 80be de63 95bf 2b4c b3be 0735 0540
000002d0: b2d9 2e3e 5ae5 adbd cc0f 04bd f510 acbe
000002e0: b17c b13d d9d0 ff3d 93c2 56be eb67 b1bd
000002f0: e93e 00bf af6b a83e f1f3 40be eb07 823c
00000300: 9607 63bd 3952 f73e 4f3f 59bd 37dc 78bf
00000310: 8c8a 32c0 3380 483e 28fb 963b 7d0a 76be
00000320: 8adc 43bd f6df 183f 116f 0cbf 81b8 68be
00000330: 7058 c23d fc72 203f 157c c73d b750 983d
00000340: bd7c 9ebe 1452 883e 7ada 11be 2500 debe
00000350: a6ff 363f 0429 6abe ffb6 403e 11df 1a3e
00000360: 1936 ae3e 2d8a 8c3c b376 36c0 2ac4 28bc
00000370: c63e 793f d6ad 6d3e 3a75 a53e b088 f1bd
00000380: 2e28 3ebd 5cae f43e 34b6 023e 5640 83be
00000390: c166 82be a52f 13be 3a6f a83d 15c0 e23e
000003a0: ba4c 4abe e1b8 133f 9efd c13e 11a4 0abc
000003b0: 5928 64be 9734 243f 087c f23e a323 a13f
000003c0: bffe c9bd a212 753f 4824 b73e d465 463e
000003d0: 4394 0e40 612c 0dbf ca26 d8bd c5d0 83bc
000003e0: d3a0 d0be 4600 76bd bd63 883f 298c ea3e
000003f0: c767 613d e26e 6a3e 4eb4 95be a977 573e
-0.16109338 0.22912839 0.17570105 0.17479579 -3.1594007 0.20350589 0.18308267 -0.20219654
0.30288458 0.5889477 0.103164434 -0.26669198 0.27866533 0.12671243 -0.34720385 0.05508035
0.057410456 0.1269708 0.19944046 -0.3017858 -0.28626978 0.09700075 0.9391693 0.019577516
-0.0145324925 0.15830982 0.27694336 -0.4262096 0.14457381 -0.2979584 -0.511636 -0.08407268
-0.27333316 -0.2200867 -0.12823269 1.6424719 -0.042193487 0.11413266 0.15109128 0.15555267
-0.038545754 0.07855084 -0.27367443 0.020299662 -0.38170415 0.24000162 0.24806932 -0.28067777
-0.21922159 -1.4961725 -0.065343656 0.38518265 -0.17684881 -0.42718783 0.22187933 -0.28145367
0.4297812 -2.150912 -0.5246102 0.45217118 0.3494684 0.6420043 -0.4924587 -0.10327252
-0.22644375 -2.9096546 0.15798053 -0.38875538 1.2619016 0.16128603 -0.5000601 0.29251835
-0.34079295 0.051503733 0.10527463 -0.46687767 0.1377558 -0.17158009 -0.055757854 -0.22924282
-0.78696126 0.3607557 -0.67436033 -0.20087393 0.3030889 0.02020918 2.4150107 0.0891749
-0.11455012 0.18224688 -0.27537248 -1.2878274 0.47948778 -0.46606627 1.0031983 -0.53987503
0.1854367 0.09931161 0.22397226 0.066838086 0.31676918 -0.49547058 0.5681625 -1.8231512
-0.15619904 0.32624778 0.0674247 -0.09043652 -0.20317328 -0.18420295 0.7126359 -0.36492413
-0.08839122 -0.42310512 0.26656365 0.20589466 0.005901644 0.024628054 -0.13108815 0.18171886
0.085391454 0.1422642 -0.07709095 -0.12460246 0.14864494 -0.21901384 -0.08841281 -0.47036228
-0.29118416 0.6819969 0.07754775 -0.37903064 0.5550933 0.08038853 0.012268713 0.03623819
0.090293124 0.46564132 -0.32615057 0.9254014 0.14277086 -0.26886216 -0.26739284 -0.023689806
0.88807374 -0.17829964 -0.12344661 0.6353888 0.006345409 0.09324133 -0.02837535 -0.21863353
-0.06885883 -0.011055417 -0.35074764 -3.749982e-05 -0.019532502 0.12549606 0.08513919 0.07633332
-0.26557973 0.058422547 -0.61941576 -0.2005569 0.29519442 0.09126767 0.059539042 -0.10230608
-0.23812884 0.12484266 0.2861102 -0.049085755 -1.3006206 0.47400865 1.4292327 -0.26553535
-0.25187424 -1.1671102 -0.3501905 2.0813615 0.17075232 -0.08491011 -0.032241628 -0.33606687
0.08666361 0.124910064 -0.20972662 -0.08662399 -0.50095993 0.32894656 -0.18843056 0.015872916
-0.055427156 0.48304918 -0.05303889 -0.9721102 -2.7897062 0.19580154 0.004607577 -0.24027438
-0.047817744 0.5971674 -0.54856974 -0.22726633 0.09489524 0.6267545 0.09740464 0.0743727
-0.30954543 0.2662512 -0.14243498 -0.43359485 0.7148384 -0.22867209 0.18819807 0.15124156
0.34025648 0.017155731 -2.8509948 -0.010300675 0.9736141 0.23210844 0.32316 -0.11793649
-0.046425037 0.47789276 0.12764817 -0.25635022 -0.2546902 -0.14373644 0.0822434 0.44287172
-0.19755831 0.5770398 0.37888807 -0.008461968 -0.22281016 0.64142746 0.47360253 1.2589
-0.09863042 0.95731556 0.35769868 0.19374782 2.2277992 -0.5514584 -0.105542734 -0.01609076
-0.407477 -0.060058855 1.0655438 0.4581006 0.05503061 0.22893861 -0.29239124 0.2104174

linear.2.bias f4 [17]
00000000: 6d68 2fbd 3589 47be eccd 60be 0b4c 943c
00000010: 6df7 e83c 3859 6bbc 3871 c6bd 0c77 3ebc
00000020: 8de1 1bbe ba5c cebd 128e 95bc 1e52 6339
00000030: 716d 9d3d d362 dbbd a5d6 c7bc 0770 37be
00000040: 9189 acbd
-0.042824198 -0.19485934 -0.21953553 0.018102666 0.028438294 -0.014364533 -0.096895635 -0.011625063
-0.1522276 -0.1007628 -0.018256221 0.00021678998 0.0768689 -0.107122086 -0.024394343 -0.17913829
-0.08424676
