Data/model_results_unphased_all_PRS/logistic_regression/onnx_models/final_model_chr11.onnx (onnx, 206799 bytes, 6 tensors)

linear.0.weight f4 [19, 900]
00000000: e89b 8e3e 1060 ef3d 14b9 9838 4584 c3be
00000010: af43 2ac0 878e 213a 739d cdbf 7b39 19bf
00000020: 8e45 f3b9 d44f 0f40 be29 0e3e c9be 893f
00000030: 2288 dd39 14a2 933e 483b 1b39 e5f6 7e3e
00000040: 5963 a9b8 7223 69c0 24d9 81be e4c7 1fba
00000050: 334c a93e 5bef 973d da18 a0c0 b459 de3c
00000060: ecb1 f1be aafb adbe cd8a 90bf accc 87be
00000070: ba4a 9bb9 e205 c2b8 36f6 403e 4852 713c
00000080: 4d93 43ba 7e00 c6bb f336 033b e0df 47b9
00000090: 8e1c 93b9 0cd7 8ebd 1f3c 283d fa3a ad38
000000a0: 4b35 f83d 5521 7b3e 223d bc3a 03d7 2fbe
000000b0: a2a2 843a b879 b7b8 d37f a4b9 b695 cf3d
000000c0: b064 32b8 fec4 bbbc 4246 3cba 8040 1c3a
000000d0: 76ed 78be a8ca 603a 6089 813a ec1e 1eb9
000000e0: 9b41 8abd 243e 62b9 8e2d 9439 5027 7db8
000000f0: 3052 6c38 1821 cc3a 6738 4c3a b4f9 9a38
00000100: 97b2 933d a847 b5be 5903 fabd 958e 8138
00000110: de9a 153e 5c0d 1a38 642b f6bd 6894 e6ba
00000120: 1ac9 953a 9ebe bbb9 84f2 68ba 7501 193a
00000130: c388 983d 73f4 b139 c2f7 27be 2e04 a939
00000140: 1392 393c bb2e 313e fac0 9cb9 bd6b a53e
00000150: d226 bd3a 2303 77b9 20ee 0e3e f63d 3a3d
00000160: 51d2 e4bb 0c9d a23b 1b4a c0bd f98d 0e3d
00000170: ab1d 23be 5d2b 1b3a 068a 893e c314 53ba
00000180: 2810 753d b4dc 99b9 aee8 80ba 5b5d a6ba
00000190: 9855 073a dc49 693a 59c5 033b d024 cc39
000001a0: 06a5 0eb9 4be1 d33c ab07 ad3d 7dde f239
000001b0: 7f8c 173a 3eb8 d63a 8946 9dbc d655 933a
000001c0: a4b7 cf3d e14e afbc e15d 243b 5102 513d
000001d0: f0ed 7bbd f1e5 813d 7c68 2339 04cb 8b3a
000001e0: 3d9f 0fba 9048 b33a d9e1 f339 6f5c a63e
000001f0: 27f9 143a f7e2 acba e75b b73e 9540 8439
00000200: b8be 61ba b92e ce38 abf5 753d e1a0 0a3e
00000210: 6cdd 95bd 382f b53a f75c b939 a5d0 3c3d
00000220: 8aef 223a 40a6 e1b7 5cec c6bd e2e6 2a3a
00000230: 23d9 d639 6248 1fb9 8e47 17ba 4179 bcb9
00000240: c029 cfb6 7c5e 313a 4e43 2f3e d0f1 d0bd
00000250: 49fc 33be 397a 7039 5054 96b9 be73 0cb9
00000260: fbc2 303e bc96 e539 9a89 c139 1383 153a
00000270: f261 ba3a 0cf3 b43d bbcb 89bd bc6a a73b
00000280: 96cb a8b9 d057 fd39 b27e 9439 a228 d739
00000290: c130 94bd c2dc 2cba 95ad de3a f5cd 9339
000002a0: 02e5 ce38 dea4 e13d a726 abbd 1caf e338
000002b0: 9394 e539 db96 383a aeba cc39 e537 ed3d
000002c0: 86e7 2c3a 5888 2bba 92c9 1f3d f3ca a8bd
000002d0: c092 fcba 4a62 32bd 85a5 a83a 33de 9038
000002e0: 24b0 84b9 ea39 a639 a944 d4bc ee67 d1b8
000002f0: a43d 153a 16af 633e 2a1b 7a39 e92c 7fbd
00000300: 8442 223e 450a 8c3a caee 88bd 3bd0 46ba
00000310: 328b cbb9 f937 ca3a ff61 1eb9 54aa b239
00000320: 644e 00ba d469 d1b9 fc29 013b 8478 713c
00000330: fed7 953d 07d5 9439 df6f 9dbc a81e 9239
00000340: 701b 9c39 4b14 f33c c9af deb9 01bc 13ba
00000350: f9f5 063d 28e9 f13a 800f a738 91fb a93d
00000360: 8803 b73e e0e5 333a 9ed2 c339 197e 473d
00000370: af2c c0bd 90ac aab8 24e5 893a 1961 0b3a
00000380: 4e16 0b39 6a9f c43d 32ec 05b9 d764 cbbc
00000390: c41d 923a e312 b03c 6409 d839 2388 2c3a
000003a0: 7458 0a3e 5349 403a a0a7 b33a c5b3 053b
000003b0: 9ee1 91be 88da f23d a8bb 2bb8 67bc 34be
000003c0: 98ca c939 5ee6 8239 d4bf 42bd 803d 5fb9
000003d0: e46b e039 6b5c f2be f0a1 9239 25aa 37b9
000003e0: f827 a43b 909a 0f3a 3609 85b9 5dac df39
000003f0: e9ab 3a3e 01be 55b8 65f7 debd 0df9 b63c
0.27853322 0.11688244 7.282398e-05 -0.3818685 -2.660381 0.0006162901 -1.6063675 -0.59853333
-0.00046400394 2.2392473 0.13883111 1.0761348 0.00042253832 0.28834593 0.00014804036 0.2489887
-8.077053e-05 -3.6427884 -0.25360978 -0.00060951547 0.33065948 0.074187 -5.0030336 0.027142383
-0.47206056 -0.33981067 -1.1292359 -0.2652334 -0.0002961958 -9.2517366e-05 0.18843922 0.01472909
-0.0007460609 -0.006042539 0.0020021766 -0.00019061519 -0.000280593 -0.06974611 0.04107296 8.260268e-05
0.1211954 0.24524434 0.0014361481 -0.17171864 0.0010119269 -8.748792e-05 -0.00031375754 0.10135977
-4.253228e-05 -0.022921082 -0.00071821 0.0005960539 -0.24309334 0.000857512 0.000988286 -0.00015079573
-0.067507945 -0.00021576189 0.000282627 -6.0356513e-05 5.6343328e-05 0.0015573828 0.0007790387 7.389803e-05
0.07211798 -0.35406232 -0.1220767 6.177757e-05 0.14609858 3.6728903e-05 -0.12019995 -0.0017591836
0.0011427731 -0.0003580944 -0.00088862353 0.0005836704 0.0744796 0.000339422 -0.16403106 0.00032237306
0.011326331 0.17302983 -0.00029898417 0.3230876 0.0014431125 -0.00023556924 0.13958025 0.045469247
-0.0069830795 0.004962569 -0.093891345 0.034803364 -0.15929286 0.00059192424 0.26863116 -0.0008052105
0.05982986 -0.0002934687 -0.0009834969 -0.0012692617 0.0005162596 0.00088992505 0.0020106642 0.0003893734
-0.00013603651 0.025864264 0.08448728 0.00046323604 0.00057811284 0.0016381813 -0.019198673 0.0011240791
0.101424485 -0.021399917 0.002508037 0.0510276 -0.06150621 0.06342686 0.00015583815 0.0010665362
-0.00054787454 0.0013678242 0.0004651684 0.32492396 0.00056828785 -0.0013190199 0.35812303 0.0002522512
-0.0008611488 9.831548e-05 0.06004874 0.13537933 -0.073176235 0.0013823276 0.00035355214 0.046097416
0.00062155037 -2.6899506e-05 -0.09713051 0.00065193896 0.0004097904 -0.00015190386 -0.00057708554 -0.00035948495
-6.173941e-06 0.00067660934 0.17115518 -0.10202372 -0.17576708 0.00022933715 -0.00028673047 -0.00013394558
0.17261879 0.0004379059 0.0003691435 0.00057034305 0.0014219864 0.0883542 -0.06728312 0.0051091593
-0.0003219514 0.00048321346 0.00028323155 0.0004103827 -0.072358616 -0.0006594175 0.0016988987 0.00028191475
9.8655015e-05 0.11017774 -0.08356982 0.0001085682 0.0004378898 0.0007041522 0.00039049 0.11582927
0.0006595779 -0.0006543449 0.03901059 -0.082418345 -0.0019269809 -0.043550767 0.0012866711 6.907843e-05
-0.00025308237 0.00031705137 -0.025911646 -9.985255e-05 0.0005693084 0.22234759 0.00023851977 -0.06229869
0.15845686 0.0010684213 -0.066861704 -0.00075841293 -0.00038822886 0.0015428058 -0.0001510456 0.0003407771
-0.00048944936 -0.00039942435 0.0019708863 0.014738206 0.07316588 0.00028387478 -0.019218383 0.0002787013
0.0002977508 0.029672762 -0.0004247411 -0.000563562 0.03294942 0.0018456327 7.966068e-05 0.082999356
0.35744882 0.0006862562 0.0003735022 0.04870424 -0.09383523 -8.138374e-05 0.001052056 0.0005316898
0.00013264382 0.09600718 -0.00012771858 -0.024828358 0.0011147787 0.02149338 0.00041205727 0.0006581565
0.13510305 0.0007335145 0.0013706572 0.002040134 -0.28492445 0.11858088 -4.0944346e-05 -0.17649995
0.00038488652 0.0002496717 -0.047546223 -0.00021289848 0.00042804994 -0.47336134 0.00027967943 -0.00017515624
0.0050096475 0.00054780487 -0.000253746 0.00042662295 0.18229641 -5.0960112e-05 -0.108870305 0.022335554

linear.0.bias f4 [19]
00000000: 5369 bc3d 7b5f 183e 05b0 253b 5ded 493d
00000010: 363e 883d 1804 593c d147 6e3e 41bf 423d
00000020: 833a 74bc a98b 183e fe05 953e 88ae 7a3e
00000030: dd8a 7b3e edeb 80bd 397b a83e 8128 573a
00000040: 799c 423d bd9e 0e3d 801a 153e
0.091997765 0.14880173 0.0025281918 0.049298633 0.06652491 0.013245605 0.23269583 0.047545675
-0.014906528 0.14897026 0.29106134 0.24480641 0.24564691 -0.06294999 0.3290651 0.00082076347
0.047512505 0.034819353 0.1456089

linear.1.weight f4 [19, 900]
00000000: 23d7 28be 825b 08be eff9 e7ba 677b 2a3a
00000010: d474 cdbc 71f8 cbb9 4d3c 023a 329d 96be
00000020: e993 5139 3f32 b23e 1319 48b9 e28f c338
00000030: 66f7 f3b9 3c62 e23c 2cf7 23bb 66aa f9b9
00000040: 5493 ed37 bafe 1dbc d17f acbd 107f 2b3a
00000050: 1ade 0dbc 2fc1 6bba da1f b4bf 1827 01b8
00000060: 78e7 dd3c a77f dcbd 3041 adb7 4f67 3f3a
00000070: e0fc ed3b d021 2e3a 795e 9e3a 3213 1aba
00000080: 0e45 233e caf7 f73b 5db2 5ebd 9e9c c03a
00000090: 91d5 053d 2205 a339 7ecf d6bd 8803 4638
000000a0: 82ab 00be 5723 9dbd 820b eb38 a8c8 103d
000000b0: c9dd 8d3b 1388 aa3b a315 17bd 3021 7539
000000c0: 785d 9d3d ae73 213e 47f8 5f3a 86c3 093e
000000d0: 4548 fb39 262e 653d a3f6 51be 31a1 c6bc
000000e0: da5a c93d 8ab6 7e3d 0554 173d e920 cc3a
000000f0: 5932 923d 66d6 71bd 3e46 0c3a 627b c6b8
00000100: 7b41 073d 3b78 c73d 804a c037 58a8 8f3d
00000110: bc0e 3d39 3482 e13b c69e 813b f869 df3d
00000120: bcec 88b9 760d 4e3a ffe4 fe3e 8ce2 e73d
00000130: 9c39 4c39 74b2 e2b9 c0ef b13d 12fd d739
00000140: c6e0 b3ba 3e41 8db8 5f2c 4f3a b797 e73a
00000150: c665 2dbc cb1e 90be affe 89b9 2069 4abd
00000160: 3ab7 bc3a 238d 18be f9c0 493a 599f 9ebd
00000170: 7089 8c39 dcb3 77be 1acc c2bd 74cd 8f3d
00000180: baa9 1fbd 949c 00bb 9656 283e 882a d6b8
00000190: a372 853d 5587 d3bc 11a7 c9bb 1a31 95ba
000001a0: c8a2 bcb9 77d1 20bc e95e 74be 23db 1fbb
000001b0: b49f 5fbd f0df 05bd 9055 aa3d 40c9 bbb9
000001c0: 7783 39ba c916 08ba f11c 78ba 0387 6b3a
000001d0: fe1d 273e 1144 ebbd 15ac 45b8 e5a0 68ba
000001e0: d28b 0f3e 5a4c d63c dd39 efbc c4c4 aa39
000001f0: b96c 78be f215 2339 643d f839 79b0 7e3a
00000200: baa4 863e b4e7 1039 607b 1d37 b8b1 7838
00000210: d5cc 9d3c cfee 8a3e 528e c13a e589 9cbd
00000220: a16f 9039 03fd 6d3a b646 97b9 badd c539
00000230: 017a 253a 1231 933b 0e97 a93d 2a75 6b3d
00000240: dee8 94bd f074 97bb 5353 9c39 dacb 233e
00000250: 1943 6bb9 a25d cabc 9fa7 adb9 c803 5d3d
00000260: 8943 8d39 6119 973a 6931 453d 0ff7 bcba
00000270: 65c3 a6b9 0e31 923b 81b2 333d 6a56 a439
00000280: 79a8 9739 5b2c 09b9 a343 b23d 714e 133d
00000290: 064f 3f3e 00f7 0eb5 9981 cebc 04fc 6f38
000002a0: 2757 5e3e f0a1 45be c741 d139 837c aa3d
000002b0: 822e e5b8 b092 0a3a 3843 cf3c 9121 d9bd
000002c0: db4f eabc b094 023d f17a 3fbd 745d 283d
000002d0: 9886 58b9 7b96 b0b9 7381 ccba 85a7 573e
000002e0: 9fa5 423a 96ab 0dbd c83f b7b9 d654 1fbd
000002f0: 8f06 ab39 3489 57ba 9007 163e 7a76 7d3d
00000300: b0ee 933c 658f edbc 283b 083e 1eaa 5839
00000310: 5b61 d73e a25c aebd ae4d a738 7765 f6bd
00000320: 048f c5be 15cc 473a 50af 57ba 5d5b e5bd
00000330: f034 dc38 3556 4f3e 1f27 f03d b6b8 8539
00000340: 9c33 5d3d 6876 24be bb78 d6b9 0ce8 5239
00000350: 9823 c1b8 a4f1 aaba 2728 3a3a 75dd 8eb9
00000360: 8609 edba 9b6a ac3d 307b e939 ce32 9f39
00000370: baf7 873c 87b0 943c 047e 2aba c3b8 af3d
00000380: 9b1b 3a3d 0e67 95bb 0a19 0cbe e0d2 8cb9
00000390: cd2c 913a a893 c838 2005 353d 9233 0e3e
000003a0: 911a 09bd fab2 aebd 0ac5 503a a051 aaba
000003b0: c9aa 453a 9cbe 40b9 7780 07ba 0fbc c73d
000003c0: c8ae ad39 67ad 023b 14e9 8038 29bb c2bd
000003d0: 7526 7ebd 74fc ec3d 7cc1 033e 345c 743a
000003e0: bb18 47be 0bca 4239 581e 7f3d 68f8 373e
000003f0: e6cb 15b9 d4fa 4fba 649f 153e 1963 68bd
-0.16488318 -0.13316157 -0.0017698387 0.0006503374 -0.025080122 -0.0003890428 0.0004968092 -0.29416806
0.00019986894 0.3480396 -0.00019082827 9.325125e-05 -0.00046532898 0.027634732 -0.0025019152 -0.00047619938
2.8321207e-05 -0.009643251 -0.084228165 0.0006542066 -0.00865891 -0.0008993325 -1.407222 -3.0792406e-05
0.027087912 -0.10766535 -2.0653562e-05 0.0007301466 0.007262811 0.00066426117 0.0012082598 -0.0005877494
0.15944311 0.0075673806 -0.05436932 0.0014695113 0.032674376 0.00031093607 -0.10488795 4.7210167e-05
-0.12565425 -0.07672756 0.00011207817 0.03534761 0.0043294174 0.0052042096 -0.03688587 0.00023377384
0.076838434 0.15766785 0.0008543771 0.13453493 0.00047928296 0.055952214 -0.2050424 -0.024246784
0.09831782 0.0621858 0.03694536 0.0015573773 0.07138509 -0.059042357 0.0005351043 -9.4643576e-05
0.03302143 0.09739729 2.2922875e-05 0.07014531 0.00018029934 0.0068819765 0.003955695 0.10908884
-0.00026116322 0.0007860282 0.49784085 0.11322507 0.00019476417 -0.00043239037 0.08688307 0.00041196548
-0.0013723604 -6.735556e-05 0.0007903035 0.0017669116 -0.010583347 -0.28148493 -0.0002632043 -0.04941666
0.0014397867 -0.1489759 0.00076962967 -0.07745237 0.0002680528 -0.24189705 -0.095115855 0.07021609
-0.038980223 -0.0019624578 0.1643928 -0.00010212237 0.06516006 -0.025821367 -0.006153949 -0.0011382431
-0.00035979436 -0.009815565 -0.2386433 -0.002439209 -0.054595664 -0.032684267 0.08317101 -0.00035817362
-0.000707678 -0.00051913835 -0.0009464762 0.0008984657 0.16320035 -0.11487592 -4.7128724e-05 -0.0008874073
0.14018181 0.026159454 -0.029202396 0.0003257153 -0.24260224 0.00015553067 0.00047347986 0.00097156275
0.2629755 0.00013819226 9.386655e-06 5.929332e-05 0.01926271 0.27135321 0.0014767146 -0.07643489
0.0002754899 0.0009078534 -0.00028853648 0.00037739967 0.00063124305 0.0044919336 0.082807645 0.057484783
-0.072709784 -0.0046220943 0.0002981672 0.15995732 -0.00022436342 -0.02470285 -0.0003312202 0.053958684
0.00026943933 0.0011527949 0.048142824 -0.0014416891 -0.00031807568 0.004461414 0.043871406 0.000313449
0.00028926486 -0.00013081862 0.08704307 0.03596348 0.18682489 -5.3258555e-07 -0.025208281 5.721675e-05
0.21712933 -0.19300056 0.00039912594 0.0832453 -0.00010928234 0.00052861404 0.025300607 -0.106021054
-0.028602531 0.03188008 -0.046748105 0.04110475 -0.00020649505 -0.00033681453 -0.0015602544 0.21059997
0.0007425192 -0.034587465 -0.00034952 -0.038899265 0.00032620548 -0.0008222044 0.14651322 0.061880566
0.018058151 -0.02899904 0.13303816 0.00020662739 0.42066464 -0.08513762 7.9776495e-05 -0.12031072
-0.38585675 0.0007621658 -0.0008227723 -0.11199067 0.00010500278 0.20247729 0.11726212 0.00025505357
0.054004297 -0.16060793 -0.00040907212 0.00020113605 -9.209587e-05 -0.0013041985 0.000710132 -0.0002724935
-0.0018084503 0.08418771 0.00044533005 0.00030364696 0.016597617 0.018150581 -0.0006503763 0.085801624
0.045436483 -0.004559404 -0.13681427 -0.00026859995 0.0011075974 9.564246e-05 0.04419434 0.1388686
-0.0334726 -0.08530231 0.00079639314 -0.0012994297 0.00075404026 -0.00018381554 -0.0005168984 0.09752666
0.00033127354 0.0019939782 6.14693e-05 -0.09508354 -0.062048394 0.11571589 0.12866777 0.00093216007
-0.19443028 0.00018576549 0.062284797 0.17965853 -0.00014285705 -0.00079337996 0.14611584 -0.056735132

linear.1.bias f4 [19]
00000000: 38ab 873d 21bc dc3c c912 91bc f641 d53c
00000010: 798d 4d3d 2348 87bc 6cee ebbd bfbf 93bc
00000020: 28b1 093c 1df3 ccbd b51c f93b 3b20 113d
00000030: 458e a63d 91b7 c6bc 7c85 033e d2fd 84bc
00000040: 7140 193d 76ca 02bd 413d 9e3d
0.06624454 0.026945176 -0.017709153 0.02603243 0.050183747 -0.01651389 -0.11520085 -0.018035768
0.008404054 -0.10007308 0.007602299 0.035431128 0.081326045 -0.024257453 0.12843889 -0.016234312
0.03741497 -0.031931363 0.07726527

linear.2.weight f4 [19, 900]
00000000: 610f 143d 06df 8439 3956 2c3e b10a 243e
00000010: 4eef f93f 0200 57b8 d268 913f b4c6 483f
00000020: a034 7b37 c9e4 46c0 0cc8 2fbd 3001 0bc0
00000030: 4c28 62b9 2272 9bbe 65de 6d3e 0859 38bf
00000040: ba5e 80b9 f475 e33f cfcc f73e 754a 1f39
00000050: 7115 a7ba 2ca3 2abd 79a2 6d40 082d 03bb
00000060: a33e f43d ecc3 203f 4b45 f23e da18 9c3d
00000070: f741 eebd 50af d9b9 4997 dabc fcc3 1dba
00000080: 604b e7ba 97c4 2dba 1c91 88ba 0746 19bb
00000090: 3824 3dba ea40 18b9 c697 25ba 1ed4 89b9
000000a0: d197 0aba 1f9b 36ba 5bb3 2fbc 15bd 89ba
000000b0: 3265 dab9 6d05 eebd 750f f63d d213 9abc
000000c0: 5028 d4ba 31e3 5cbd ddd6 29ba a6fb 7dbe
000000d0: 2d65 843c e0bd 30bc 6c54 b6b9 9c09 f0b8
000000e0: 38d4 e5bb 5f6f 23ba 82a1 8aba c7a6 aebd
000000f0: 0f40 abbd 546c 603d 755c 54bd bb1b 0a3b
00000100: bb99 6fbe 08af 073a a42a 573d f04e f2bc
00000110: 444c 7eba 0cbf fdbc 063e f0b8 97ff 42ba
00000120: fcbf acba f607 8eb9 82cf 10bb 5c9a 1fbe
00000130: e53d febb ba40 8d38 0c48 dab9 9017 3fba
00000140: c1bc 06bd dd0a 86ba 68ff e6b9 e6c8 7bbe
00000150: e6f0 a837 16e3 693d fc99 eaba 359f 95ba
00000160: 09c0 0b3e 30e7 173d fe39 11ba 5a50 e5b9
00000170: 5d49 963e b5e1 29ba 1fa0 4aba 4b99 8cba
00000180: 1288 df39 12ef 873d 893a 3dbd 94a8 203a
00000190: 90b6 64bb 7b22 cf3d 8e4c 1439 409a 47ba
000001a0: 6757 ea3d 7df8 fdb9 c292 183d d0c4 273e
000001b0: 0d6b 363d 4054 9339 f6a0 34ba 8739 76b9
000001c0: 8d22 a5bd 8fea 953d 7894 4cbc 344c eebd
000001d0: a701 73ba a7b8 87ba a745 0538 54ba c4b9
000001e0: 9cac a5bc c9b6 bebd 8d70 8f3d 8179 aebe
000001f0: 04df 1439 a1f3 d139 665b 07be 25c4 59ba
00000200: 5182 edbd a64f 5cb9 aeaa bdb9 eeed afbd
00000210: 4b80 7ab9 4867 1fbb b79c b4ba 5673 04ba
00000220: d68a 64ba 83c1 88ba 52dc 063e e84e 83ba
00000230: fe12 d5b9 d2bf acba 6ce7 46bd 92f2 94bc
00000240: 6b07 353e 7539 1739 55f6 4cbe 9043 99bd
00000250: 2d02 763e ac07 dc3b e7d4 7f3d f372 aabd
00000260: a817 fabd 86f8 39ba d16d dabd 2d74 c239
00000270: f18e 18ba 5883 21be 88ab dcb9 aceb 75bc
00000280: b886 6338 bf55 3bb9 9951 2dbd 77a7 bab9
00000290: 4845 14ba e02f 343d 2219 02b9 602c b5b9
000002a0: 4571 18be f1a2 a0b9 7f93 c1b9 7517 06be
000002b0: b8be feb9 cc88 92ba bf2e dbba b209 13b7
000002c0: 1370 273c 0420 a9ba fcbf 78ba 945e 6aba
000002d0: b04c f839 0d5e 2a3e 56a0 3839 12f6 29bf
000002e0: e141 37ba 6a28 69b9 d74e 7f3d e830 0f3d
000002f0: 0a56 a8bd db48 56b9 0d3c dcbd b669 23ba
00000300: 0b39 a2be aada 68b8 77df 58ba 5a6f c33e
00000310: fc43 84bb 691d b3b8 26f6 dab9 f09c fc3d
00000320: 1494 bf39 c262 7aba eedf 6e39 637e 6e3d
00000330: 9db9 78bd 4481 27be e518 95bc 76b7 3bba
00000340: a863 6fba 016c 263d 3c05 ae39 e8cd 18ba
00000350: 9168 8cba c098 0f3a afca cdb9 0433 90bc
00000360: fa43 c6bc 2ac8 22be da83 3eba 9c96 c4bc
00000370: 4079 bc39 949e 34bd 3c38 07ba c600 88bb
00000380: 6c44 71ba 8030 5bb5 b9b5 4f3e a77e 273e
00000390: cb3a cbbd bc35 95b9 6719 5bbe 8ea0 30be
000003a0: 14aa 18ba cce1 843d 6b91 abba 3e77 0c3a
000003b0: 6c35 763b 1fbe a8ba a00e 823a 1ae5 da39
000003c0: 6019 1fba 8811 c4bd 3c68 f43d 6475 043e
000003d0: 495f 863d b8a0 b5b9 80a7 89be c8ab 4239
000003e0: 635c d63d 2c04 0aba 3ddf d3ba b38c 8fbd
000003f0: d430 7cbd 0cf3 973a 5891 51ba ab55 33ba
0.03614748 0.00025343167 0.16829766 0.16019703 1.9526155 -5.126e-05 1.1360114 0.78428197
1.4973019e-05 -3.107714 -0.04291539 -2.1719475 -0.00021568051 -0.30360514 0.23229368 -0.7201085
-0.0002448464 1.7770371 0.48398444 0.00015191159 -0.0012747479 -0.04165952 3.7130415 -0.0020015854
0.119260095 0.62798953 0.4731849 0.076219276 -0.116336755 -0.00041520083 -0.026683467 -0.00060182787
-0.0017646365 -0.00066287204 -0.0010419223 -0.0023387687 -0.0007215175 -0.00014520032 -0.00063168665 -0.00026288716
-0.00052869046 -0.0006965864 -0.010723914 -0.0010508621 -0.00041655597 -0.11622129 0.12014667 -0.01880828
-0.001618633 -0.053927604 -0.00064788555 -0.24803028 0.016161526 -0.010787457 -0.00034776644 -0.00011445882
-0.007013824 -0.0006234552 -0.0010576698 -0.08527904 -0.083618276 0.05479081 -0.051845986 0.0021073658
-0.23398487 0.0005175923 0.0525309 -0.029578656 -0.00097006955 -0.030974887 -0.000114556446 -0.00074385985
-0.0013179774 -0.00027090282 -0.002209634 -0.15586227 -0.0077588432 6.73546e-05 -0.0004163388 -0.0007289583
-0.032894854 -0.0010226626 -0.0004405931 -0.24588355 2.0139338e-05 0.05710133 -0.0017898674 -0.0011415245
0.13647474 0.037085712 -0.00055399525 -0.0004373815 0.29352847 -0.00064804713 -0.00077295484 -0.0010726837
0.00042635255 0.06637396 -0.0461984 0.0006128636 -0.0034898855 0.101139985 0.00014142899 -0.00076142326
0.11442452 -0.0004844106 0.037249334 0.16383672 0.044535685 0.00028100796 -0.000689044 -0.00023481819
-0.08063231 0.07320129 -0.01248657 -0.11635628 -0.00092699606 -0.0010354713 3.177454e-05 -0.00037522858
-0.020223908 -0.09312207 0.07003889 -0.34077075 0.0001419746 0.00040045104 -0.1321846 -0.0008307121
-0.115971215 -0.00021010506 -0.00036176055 -0.08590303 -0.00023889651 -0.0024323035 -0.0013779615 -0.0005052587
-0.0008718198 -0.0010433648 0.13169983 -0.0010018023 -0.00040640676 -0.0013179726 -0.048560545 -0.018182073
0.17678611 0.00014421887 -0.20015843 -0.0748359 0.24024267 0.0067147817 0.0624589 -0.08322706
-0.12211543 -0.0007094223 -0.10665477 0.0003708912 -0.000581964 -0.1577276 -0.0004208947 -0.015009802
5.4246484e-05 -0.00017865653 -0.042314146 -0.00035601456 -0.00056560757 0.04399097 -0.00012407129 -0.00034556072
-0.14886959 -0.0003063898 -0.00036921722 -0.13094886 -0.00048588752 -0.0011179685 -0.0016722305 -8.76414e-06
0.010219592 -0.0012903218 -0.0009489057 -0.0008940485 0.00047359383 0.1663744 0.00017607337 -0.663911
-0.0006990713 -0.00022235667 0.062331047 0.03495875 -0.08219536 -0.00020435771 -0.10753641 -0.00062337087
-0.31684145 -5.5516757e-05 -0.0008273045 0.38170892 -0.0040364247 -8.540863e-05 -0.00041763595 0.12334621
0.00036540686 -0.0009551459 0.00022780869 0.058226 -0.06072389 -0.16357905 -0.018200347 -0.00071608217
-0.00091319764 0.040630344 0.00033191766 -0.0005829022 -0.0010712316 0.00054777786 -0.00039251658 -0.017602451
-0.024202336 -0.15896669 -0.0007267572 -0.023997597 0.00035948493 -0.044096544 -0.0005158221 -0.004150483
-0.0009203616 -8.1654434e-07 0.20284165 0.16356908 -0.09923323 -0.0002845953 -0.21396409 -0.17248747
-0.00058236835 0.0648838 -0.0013089603 0.00053583446 0.0037568463 -0.0012874043 0.0009922571 0.00041750894
-0.000606915 -0.09573656 0.11933944 0.12935406 0.06561143 -0.00034642755 -0.26885605 0.00018565275
0.1046684 -0.0005264904 -0.0016164553 -0.07009258 -0.061570004 0.0011592819 -0.0007994375 -0.00068410736

linear.2.bias f4 [19]
00000000: 888b fabd 0a4a 1cbe 830c e5bd 0eea 2abe
00000010: 2a4f 31be f621 b03c beb2 a2be c4aa 0c3c
00000020: 13c0 92bd cc59 8ebe dccf 54be 4052 bfbe
00000030: a102 b1be df91 643d 0005 cfbe 9f77 463d
00000040: 84ef 21be 35ba 13be af9d 7fbe
-0.12233645 -0.15262619 -0.11184027 -0.16690847 -0.17315355 0.021500569 -0.31776994 0.008585636
-0.071655415 -0.27802885 -0.20782417 -0.3736744 -0.34572318 0.055803176 -0.40433502 0.048453923
-0.15814024 -0.14426501 -0.24962495
