Data/model_results_unphased_all_PRS/logistic_regression/onnx_models/final_model_chr9.onnx (onnx, 67059 bytes, 6 tensors)

linear.0.weight f4 [14, 390]
0.12614484 -0.2817196 -2.0451028 0.48167777 -3.5882978 -2.344749 -0.14626335 -0.056344725
0.10479652 -1.3002715 -0.035200518 -2.2417154 0.09827571 -0.24339595 0.04825532 -6.4080997
-2.1673138 0.1338103 0.46279117 -0.038204882 -0.306881 0.3945519 0.14589083 0.09326416
1.2562506 0.6373784 0.37364253 -0.1921814 -1.3625083 -2.4969666 0.9665565 0.33784395
-11.031898 -2.763474 0.036362953 0.3936724 -0.21106797 -0.04813402 0.36942068 0.057754565
-0.03697794 0.052401587 -0.40656638 0.41659 -0.29277045 -0.16565187 0.103862494 -0.059868332
0.35598525 -0.4308265 0.09086081 -0.27312106 -0.17539446 -0.31556192 0.18560652 -0.052451078
0.4046696 -0.045738865 0.2265104 -0.1624277 0.33194783 0.07943159 0.40144628 0.1822916
0.024872456 0.10561981 0.30213353 1.0151268 0.27519563 -0.016905585 0.17373663 -0.31577918
0.0050098114 0.91965276 0.14774723 0.13870248 -0.24383451 -0.6172087 -0.0018168502 0.6930226
-0.00025949068 -0.020796595 1.0561118 0.11505043 -0.06369461 0.19463778 -0.82152987 0.008891005
0.2481716 -0.030963387 -0.013303605 0.16696562 -0.012245884 0.24954 0.27856636 0.43867657
0.52014846 0.32105094 0.0127528105 0.22901149 -0.06948353 0.12696669 0.18002 0.14826454
0.74398595 0.0025268516 -0.15861298 0.2132742 0.13161354 0.064590655 -0.01412717 0.67959946
-0.7426392 0.14669552 0.3828392 -0.1828503 0.13136607 -0.10262776 1.322318 1.1039928
-0.099371746 0.48162133 0.2033742 0.008995611 0.21983188 -0.7697112 -0.25675142 0.30888656
-0.4679245 -0.23347417 -0.19954634 0.2874306 0.1327624 0.1698868 0.033977505 0.377263
-0.0058410265 0.021370806 -0.48928162 -0.35671178 0.0077765323 0.6840843 -0.022088446 -0.2734811
-0.015752977 -0.0025840327 0.3718679 0.27837047 0.13266174 -0.5274107 0.44358882 0.3305543
-0.0039269524 0.07544484 0.12485661 -0.030768441 0.008959907 0.21305785 0.64004886 -0.049482476
0.42255032 -0.21785326 0.4864025 -0.18457803 0.32483217 0.14756808 0.48016036 0.24752216
-0.002812756 0.1746728 0.05537334 -0.034211423 0.00073439453 -0.07898615 0.26349032 -0.51127946
0.12908189 0.015287649 -0.0005038177 -0.010518481 -0.35719317 0.07836278 -0.54482096 0.0006996107
0.22966148 -0.26060805 0.060225684 0.11986962 -0.09316713 0.1578583 0.8285086 -0.0832872
0.7128408 0.101969875 -0.22593385 0.5414914 0.040316075 0.04164755 0.20919897 0.18768156
0.41177967 -0.24177113 0.12860544 0.23190641 0.3530093 -0.05825555 0.16548328 -0.19648673
-0.13690399 -0.004914176 0.004699604 -0.27260426 0.088499576 0.28499514 0.07660669 -0.0073731337
0.14329076 -0.018607058 0.24404195 -0.06776087 -0.3381014 -0.22496963 -0.183309 -0.6785892
0.38690197 -0.0011755977 0.16643074 0.09142413 -0.017100528 0.41981086 0.00075610925 -0.24138564
-0.27470714 0.26915538 -0.092949234 -0.014906111 0.27970007 -0.16442348 -0.19650836 0.009778607
0.22836855 0.5104274 0.17298731 0.37339994 0.033202045 0.021798303 0.07795524 -0.7277279
-0.4147284 0.09443996 -0.28517509 0.50829077 -0.62541246 0.31260186 0.2727202 0.026484517
00000000: 1d2c 013e 8d3d 90be f7e2 02c0 789e f63e
00000010: aca6 65c0 5e10 16c0 0fc6 15be bac9 66bd
00000020: 8f9f d63d 4c6f a6bf 6b2e 10bd 4478 0fc0
00000030: c744 c93d ca3c 79be 5fa7 453d 270f cdc0
00000040: 45b5 0ac0 9105 093e f7f2 ec3e b97c 1cbd
00000050: 821f 9dbe b502 ca3e 6864 153e 4801 bf3d
00000060: d2cc a03f 3b2b 233f 134e bf3e 33cb 44be
00000070: ac66 aebf 4dce 1fc0 3f70 773f e2f9 ac3e
00000080: a782 30c1 c2dc 30c0 52f1 143d 6e8f c93e
00000090: 3422 58be 2e28 45bd b524 bd3e 0d90 6c3d
000000a0: 2e76 17bd 0ca3 563d 7829 d0be 494b d53e
000000b0: 02e6 95be a5a0 29be dcb5 d43d 7f38 75bd
000000c0: b343 b63e 4a95 dcbe 3b15 ba3d 86d6 8bbe
000000d0: 9b9a 33be 5591 a1be a30f 3e3e f1d6 56bd
000000e0: db30 cf3e ad58 3bbd 58f2 673e 7253 26be
000000f0: 11f5 a93e 08ad a23d 5e8a cd3e a6aa 3a3e
00000100: 52c1 cb3c 334f d83d 3fb1 9a3e adef 813f
00000110: 71e6 8c3e 957d 8abc 04e8 313e cfad a1be
00000120: 5829 a43b 5d6e 6b3f 0d4b 173e 0608 0e3e
00000130: c1af 79be 6401 1ebf 6023 eeba ee69 313f
00000140: 400c 88b9 9f5d aabc ac2e 873f 8f9f eb3d
00000150: 5272 82bd 204f 473e c84f 52bf 94ab 113c
00000160: b220 7e3e eea6 fdbc 5df7 59bc 09f9 2a3e
00000170: f6a2 48bc 6a87 7f3e 40a0 8e3e 379a e03e
00000180: 7328 053f ca60 a43e 2af1 503c fd81 6a3e
00000190: 624d 8ebd 8e03 023e 2a57 383e a9d2 173e
000001a0: dd75 3e3f 8999 253b 716b 22be 8d64 5a3e
000001b0: b3c5 063e 1b48 843d a575 67bc 3bfa 2d3f
000001c0: 9a1d 3ebf 5a37 163e 8003 c43e 1c3d 3bbe
000001d0: d484 063e 812e d2bd b741 a93f a34f 8d3f
000001e0: 6a83 cbbd 1297 f63e 5441 503e 5462 133c
000001f0: 9c1b 613e cb0b 45bf ec74 83be 6126 9e3e
00000200: cd93 efbe da13 6fbe e055 4cbe 1b2a 933e
00000210: def2 073e cef6 2d3e ff2b 0b3d 9e28 c13e
00000220: 1566 bfbb d411 af3c 1f83 fabe eda2 b6be
00000230: 48d2 fe3b 2620 2f3f d4f2 b4bc b705 8cbe
00000240: 630c 81bc e058 29bb 7865 be3e 9386 8e3e
00000250: 7bd8 073e 6304 07bf 131e e33e 6a3e a93e
00000260: aaad 80bb d382 9a3d d3b4 ff3d 190e fcbc
00000270: 93cc 123c d62b 5a3e 3eda 233f 23ae 4abd
00000280: 8458 d83e ed14 5fbe c009 f93e 0602 3dbe
00000290: 6750 a63e 161c 173e 94d7 f53e 7376 7d3e
000002a0: 3756 38bb 6ddd 323e 28cf 623d 4721 0cbd
000002b0: 6284 403a 7ec3 a1bd 34e8 863e 36e3 02bf
000002c0: 0b2e 043e 0c79 7a3c a212 04ba b555 2cbc
000002d0: 06e2 b6be aa7c a03d 6379 0bbf 1466 373a
000002e0: 612c 6b3e 6b6e 85be 35af 763d 347e f53d
000002f0: 69ce bebd 9ba5 213e 2419 543f 7b92 aabd
00000300: bc7c 363f 95d5 d03d 345b 67be 2e9f 0a3f
00000310: 7822 253d 9f96 2a3d 4138 563e 982f 403e
00000320: c9d4 d23e da92 77be 25b1 033e e078 6d3e
00000330: a3bd b43e 5f9d 6ebd 7374 293e d133 49be
00000340: 8f30 0cbe 1907 a1bb 23ff 993b c992 8bbe
00000350: 443f b53d e2ea 913e f8e3 9c3d 549a f1bb
00000360: d0ba 123e d46d 98bc 22e6 793e 36c6 8abd
00000370: a01b adbe 705e 66be 5bb5 3bbe 06b8 2dbf
00000380: 0418 c63e 8316 9aba d26c 2a3e 933c bb3d
00000390: 6816 8cbc 73f1 d63e a235 463a cc2d 77be
000003a0: 6aa6 8cbe bcce 893e 2b5c bebd c338 74bc
000003b0: d934 8f3e a15e 28be 7d39 49be 7336 203c
000003c0: 72d9 693e 5fab 023f 9623 313e 472e bf3e
000003d0: defe 073d 5b92 b23c ffa6 9f3d 604c 3abf
000003e0: 4857 d4be bd69 c13d 7802 92be 581f 023f
000003f0: 081b 20bf 5a0d a03e fba1 8b3e 0ff6 d83c

linear.0.bias f4 [14]
0.46815234 0.21264929 0.09480601 0.27631962 -0.04013321 0.07268519 -0.17425333 -0.16129887
0.05704478 0.281558 0.030957505 -0.0930423 -0.049040485 0.07944504
00000000: aab1 ef3e bcc0 593e a729 c23d c479 8d3e
00000010: b962 24bd f9db 943d 776f 32be 882b 25be
00000020: caa7 693d 5f28 903e 989a fd3c f68c bebd
00000030: adde 48bd 15b4 a23d

linear.1.weight f4 [14, 390]
0.0051109777 0.022256661 0.06924038 -0.22180364 -0.23190911 -0.3253589 0.43112758 0.53813124
0.07072099 -0.03232441 0.25976205 -0.2718458 0.03424869 0.28377843 -0.4069393 0.7347124
0.011894857 0.08172699 -0.011193946 0.005129115 0.17396289 -0.104288444 -0.0092615085 -0.15796813
-0.032823063 -0.16879472 0.14568593 0.18121006 0.16793181 -0.3054982 -0.12069239 0.121527776
1.3159618 0.055078488 -0.10545682 -0.03780476 0.00022217433 -0.018322092 0.017757649 -0.12607042
0.14435117 0.10021521 0.29086816 -0.027562786 0.30450225 0.1637033 0.021050215 0.15997319
-0.1242263 0.7502543 -0.12412747 0.3612951 -0.01986505 -0.17252848 0.0728952 0.50085986
-0.088143036 0.0066588665 0.036659203 0.2070622 -0.16863766 0.039359666 -0.47546402 0.012596665
-0.11704659 -0.8432382 0.007974139 -0.108106926 0.2107419 0.03909241 0.3266628 0.3719843
-0.0005077467 -0.22438164 -0.2237502 -0.24103534 0.23035504 0.14504237 -0.43494985 -0.22785024
-1.0560635 0.16479354 -0.39324257 0.028150309 -0.019439228 -0.001761991 0.106632344 0.024535595
-0.33084545 0.026888097 -0.26840276 -0.1721048 0.05799467 0.12609121 -0.319364 -0.14991213
-0.054720126 0.039285846 -0.27700892 0.045414247 -0.5989451 -0.0013602658 -0.14822115 -0.50843275
-0.15027855 1.4040309 0.5705853 -0.17935811 -0.089194246 -0.3432406 0.12120832 -0.050674874
0.23444217 -0.12896281 -0.072427936 -0.07783664 0.1440795 0.10121545 -0.61965925 -0.72259676
-0.31634334 -0.39111647 -0.10013935 -0.19052345 0.003231384 -0.107173264 0.013882556 -0.0029322682
0.4628443 0.051538385 0.31826168 -0.1263324 -0.007434099 -0.36720404 0.16590962 -0.20535119
-0.2348203 -0.019748576 0.24753554 0.39767385 0.22423814 -0.3357499 0.16833356 -0.046717014
0.014646657 0.005784228 -0.045330577 -0.328009 -0.26353428 0.10635178 -0.1966215 -0.04399825
-0.123618945 0.0052109733 -0.25090137 -0.02496519 -0.008162467 -0.20152919 -0.9079025 -0.10141322
-0.110226974 0.22504593 -0.0068858294 0.38356274 -0.19059987 -0.002819559 -0.24217193 0.18690713
0.1411962 -0.55272835 -0.13589083 0.10583528 0.24834901 0.090884134 -0.00075620716 0.15621905
0.22991997 0.06897946 -0.0005716246 0.14764942 -0.0020426163 -0.11819265 0.47214824 0.22736233
-0.25927016 0.030747097 0.10039785 -0.25480327 0.14220229 0.0057470794 -0.26267236 0.07955933
-0.17633934 0.00014398852 0.06881797 -0.19169335 -0.30779207 0.103545375 0.0053739212 0.00019405666
0.104950644 0.013779534 -0.11519305 -0.027438732 -0.10010733 0.19389616 0.00963007 0.15013063
-0.07777173 0.13843441 0.37084088 0.099121414 0.040796865 -0.05753893 -0.10912784 0.05930527
-0.010039225 0.26796475 0.18076347 0.21516632 0.14613174 0.041830115 -0.06399366 0.36747757
-0.026105208 0.053825784 -0.15109354 0.3375412 0.49147123 -0.002622702 0.11229425 0.0011384662
0.10081034 -0.4629396 -0.025385262 0.042667046 -0.3235206 0.46938175 -0.0006899537 -0.026033245
0.08149386 0.091007516 0.09478881 -0.45569226 0.027310671 0.27532142 0.06924134 0.76426655
0.48111665 -0.0097159 -0.043784603 -0.10118274 0.018467102 0.15723628 -0.015945053 -0.02888338
00000000: fd79 a73b 9a53 b63c e6cd 8d3d 7e20 63be
00000010: 9579 6dbe 7195 a6be c1bc dc3e f8c2 093f
00000020: 2bd6 903d 9a66 04bd 88ff 843e 5f2f 8bbe
00000030: 5b48 0c3d 684b 913e 595a d0be 1d16 3c3f
00000040: a5e2 423c 7b60 a73d d066 37bc 2312 a83b
00000050: 5423 323e 2e95 d5bd 95bd 17bc 66c2 21be
00000060: 7a71 06bd 86d8 2cbe b12e 153e 218f 393e
00000070: 51f6 2b3e 436a 9cbe 922d f7bd 8ee3 f83d
00000080: 7071 a83f fb99 613d bff9 d7bd 2ad9 1abd
00000090: 78f7 6839 3618 96bc 7d78 913c 9b18 01be
000000a0: cbd0 133e a23d cd3d acec 943e 5acb e1bc
000000b0: b8e7 9b3e d6a1 273e 8071 ac3c 03d0 233e
000000c0: 5c6a febd aa10 403f 8b36 febd acfb b83e
000000d0: 08bc a2bc 4eab 30be 144a 953d 5a38 003f
000000e0: 5684 b4bd 9f32 da3b f627 163d 1d08 543e
000000f0: 5aaf 2cbe 9a37 213d 0570 f3be 3e62 4e3c
00000100: 1fb6 efbd 75de 57bf f7a5 023c 2a67 ddbd
00000110: bacc 573e 5d1f 203d 5940 a73e ba74 be3e
00000120: 4e1a 05ba 4dc4 65be c61e 65be f8d1 76be
00000130: 31e2 6b3e fd85 143e bfb1 debe 9351 69be
00000140: 172d 87bf a3bf 283e 1757 c9be 7a9b e63c
00000150: 043f 9fbc 9bf2 e6ba 0f62 da3d dffe c83c
00000160: 9364 a9be 6d44 dc3c 166c 89be 3e3c 30be
00000170: d28b 6d3d 0e1e 013e ae83 a3be 9182 19be
00000180: 3622 60bd 32ea 203d 1dd4 8dbe 4a04 3a3d
00000190: 7754 19bf f24a b2ba 49c7 17be a628 02bf
000001a0: 9fe2 19be 49b7 b33f e111 123f a7a9 37be
000001b0: 79ab b6bd 3bbd afbe 113c f83d 7590 4fbd
000001c0: 9c11 703e d40e 04be 1955 94bd d168 9fbd
000001d0: 9489 133e 0c4a cf3d fda1 1ebf 1afc 38bf
000001e0: c1f7 a1be 6b40 c8be dc15 cdbd 9418 43be
000001f0: a1c5 533b a87d dbbd a973 633c 4c2b 40bb
00000200: eef9 ec3e ea19 533d 32f3 a23e 485d 01be
00000210: be99 f3bb 2b02 bcbe 36e4 293e 9547 52be
00000220: bc74 70be c4c7 a1bc f579 7d3e e89b cb3e
00000230: af9e 653e 69e7 abbe a25f 2c3e 575a 3fbd
00000240: 88f8 6f3c 9f89 bd3b 8eac 39bd ccf0 a7be
00000250: f7ed 86be f6ce d93d 2657 49be 8237 34bd
00000260: ee2b fdbd d0c0 aa3b 2576 80be cc83 ccbc
00000270: debb 05bc ab5d 4ebe 4c6c 68bf bcb1 cfbd
00000280: aebe e1bd 7172 663e 86a2 e1bb 5662 c43e
00000290: 9d2c 43be 5ac8 38bb ebfb 77be 9564 3f3e
000002a0: bd95 103e 9b7f 0dbf f726 0bbe 2bc0 d83d
000002b0: 344f 7e3e 7621 ba3d 343c 46ba e3f7 1f3e
000002c0: 2470 6b3e 1a45 8d3d 14d9 15ba 6931 173e
000002d0: 6add 05bb fd0e f2bd 6abd f13e acd1 683e
000002e0: 0fbf 84be 56e1 fb3c 639d cd3d 9375 82be
000002f0: 7a9d 113e ff51 bc3b fe7c 86be 01f0 a23d
00000300: 4d92 34be a0fb 1639 70f0 8c3d 434b 44be
00000310: ec96 9dbe 990f d43d b817 b03b b07b 4b39
00000320: 5df0 d63d 8ec3 613c 55ea ebbd 31c7 e0bc
00000330: 1205 cdbd b78c 463e 71c7 1d3c d8bb 193e
00000340: c946 9fbd c0c1 0d3e dbde bd3e 2b00 cb3d
00000350: 9d1a 273d f1ad 6bbd 6b7e dfbd 15ea 723d
00000360: 907b 24bc ad32 893e 0f1a 393e 8f54 5c3e
00000370: 8fa3 153e 0e56 2b3d 1c0f 83bd 0526 bc3e
00000380: 97da d5bc 6d78 5c3d 44b8 1abe 33d2 ac3e
00000390: 1ea2 fb3e a3e1 2bbb 87fa e53d 9638 953a
000003a0: a775 ce3d 6b06 edbe c1f4 cfbc a4c3 2e3d
000003b0: 7ea4 a5be ce52 f03e 02de 34ba ac43 d5bc
000003c0: 41e6 a63d 2662 ba3d a320 c23d 7f50 e9be
000003d0: a1ba df3c eef6 8c3e 67ce 8d3d f9a6 433f
000003e0: ec54 f63e 702f 1fbc 7c57 33bd e538 cfbd
000003f0: 5248 973c 8c02 213e 339f 82bc d79c ecbc

linear.1.bias f4 [14]
-0.16884114 -0.14364882 0.028149595 0.36048865 0.18096732 -0.080961496 0.22917177 0.19407868
0.19458488 -0.15280052 0.24251167 0.13075258 0.014392548 -0.039995495
00000000: b1e4 2cbe ad18 13be fb99 e63c f891 b83e
00000010: 7f4f 393e 24cf a5bd 01ac 6a3e 90bc 463e
00000020: 4241 473e bd77 1cbe fb54 783e 01e4 053e
00000030: b9ce 6b3c 51d2 23bd

linear.2.weight f4 [14, 390]
-0.5650049 0.28996783 1.6555046 -0.13037005 2.1584826 2.2717757 -0.34951562 -0.64174175
-0.74027383 1.4634534 -0.44852814 2.8126347 0.080417246 -0.1343803 0.6826928 3.8312244
1.7033746 -0.21363182 -0.6331335 0.13949862 0.054049395 -0.16438651 -0.042537663 0.18223819
-2.6480982 -0.6826912 -1.283251 0.00067269104 1.287092 2.6818538 -1.5253512 -0.7978683
7.4292116 1.1357986 0.06404393 -0.44570723 0.099812515 0.2384701 -0.5336077 0.16185676
-0.15256985 -0.23754328 0.00021970444 -0.004482424 -0.16909781 0.0024992693 -0.09317378 -0.10685209
-0.0862802 -0.54219437 0.15480371 -0.08615564 0.3754995 0.6383112 -0.37849936 -0.00027376515
-0.41402814 0.005173536 -0.3743982 -0.0021938565 -0.063161306 -0.34001866 0.084393464 -0.15678322
0.026307225 0.0782487 -2.595722 -0.4557015 -0.77608764 0.006505829 -0.8101629 -0.05724942
-1.2704586 -0.69223 0.121111125 0.2593458 -0.0027928576 0.5117997 0.9598078 -0.3858666
0.64532065 -0.25417486 -0.72753954 -0.14563234 0.06738989 0.00021089686 0.508217 -0.07115308
0.25365305 -0.082293965 0.52623194 0.009212437 -0.09697656 -0.59946007 0.04716594 -0.21658084
-0.398355 -0.67649406 0.5081702 -0.29528278 1.2798362 -0.11532452 0.0031944267 0.33864337
-0.58186495 -3.0564766 -0.59242713 0.008125994 0.04855746 0.33695465 -0.12577827 -0.86463845
0.28472587 -0.0040984415 -0.08046019 0.39034447 -0.481771 -0.0971057 -1.8392378 0.00051075855
0.6336974 0.046996623 0.0049898857 0.36484993 -0.20881325 0.94502497 0.21910624 -0.31624588
-8.873454e-05 0.2122894 -0.2742678 -0.07231813 -0.1420178 0.35473582 -0.42091373 0.00027271925
0.4346015 -0.854539 0.14484632 0.0014913612 -0.40900406 -0.36476573 -0.2848968 0.5170572
-0.007831074 -0.00024670342 -0.24174334 0.10370938 0.19787364 0.21346793 -0.3150075 -0.2520312
0.38746744 -0.19382048 0.123918466 0.20648547 0.0013968013 0.004093458 0.4141623 0.2727024
-0.41422358 -0.10843686 -1.6212384 -0.31633708 -0.076192155 -0.10161564 -0.068106495 -0.5586911
-0.21496446 0.58955437 0.08394785 -0.024810433 -0.43455005 0.0024141045 -0.24299504 0.33861068
-0.6164187 -0.13511139 0.05340948 -0.18173893 0.53249604 0.11342449 -0.02496495 -0.16960406
0.14840414 0.30985156 -0.1964619 0.25975603 -0.14531928 -0.18430877 -0.78356457 -0.029693069
-0.5181888 -0.16769286 0.047943436 -0.30896792 0.37902036 -0.18571702 -0.15273985 -0.22901587
-0.7413229 0.24099882 0.06138012 -0.22092524 -0.2614884 -0.14479026 -0.1697955 0.0070064464
0.3002463 -0.14537883 -0.69911885 0.017237997 -0.20780922 -0.18281399 0.013645358 -0.09210738
-0.16815531 -0.49218088 -0.8701144 -0.25640336 0.14193435 0.21717678 0.41422376 0.2285932
-0.4881657 -0.036149632 -0.0073250355 -0.7517495 -0.5859432 -0.4661872 -0.21744847 0.14852123
0.065335184 0.38238767 0.17834356 -0.64199275 0.2699468 -0.4501146 0.10919333 0.02390598
-0.29703522 -1.1241413 -0.35339323 0.08330085 -0.07141366 -0.51525056 -0.27301145 -0.10328675
-0.17140996 0.0026379128 0.59489083 -0.4491668 0.60531485 -0.82237 -0.23837546 0.008182715
00000000: 29a4 10bf aa76 943e 93e7 d33f ba7f 05be
00000010: 9424 0a40 c664 1140 b6f3 b2be 3049 24bf
00000020: 9682 3dbf 7152 bb3f 7ba5 e5be 3502 3440
00000030: ccb1 a43d fd9a 09be f5c4 2e3f c832 7540
00000040: 2e08 da3f 4dc2 5abe 0915 22bf bad8 0e3e
00000050: e662 5d3d f054 28be f93b 2ebd a69c 3a3e
00000060: 717a 29c0 dac4 2ebf 9241 a4bf 8857 303a
00000070: 6ebf a43f 7ea3 2b40 b53e c3bf 1941 4cbf
00000080: 1abc ed40 d961 913f 7729 833d bd33 e4be
00000090: 816a cc3d 8231 743e 849a 08bf c7bd 253e
000000a0: 453b 1cbe 8c3e 73be 7660 6639 4ce1 92bb
000000b0: fa27 2dbe c8ca 233b e5d1 bebd 45d5 dabd
000000c0: acb3 b0bd 40cd 0abf dd84 1e3e 5e72 b0bd
000000d0: 7841 c03e 5d68 233f abca c1be 2388 8fb9
000000e0: 7ffb d3be c486 a93b 1fb1 bfbe cec6 0fbb
000000f0: b75a 81bd ed16 aebe 7bd6 ac3d c88b 20be
00000100: 4082 d73c db40 a03d 4f20 26c0 b551 e9be
00000110: aead 46bf d92e d53b d666 4fbf 5e7e 6abd
00000120: 639e a2bf fc35 31bf 1c09 f83d f9c8 843e
00000130: 6008 37bb 4e05 033f f7b5 753f 4f90 c5be
00000140: bc33 253f 3523 82be 0840 3abf a520 15be
00000150: b603 8a3d 3224 5d39 821a 023f b5b8 91bd
00000160: d0de 813e bd89 a8bd 23b7 063f c3ef 163c
00000170: a69b c6bd 3776 19bf 1331 413d 5ec7 5dbe
00000180: 30f5 cbbe b72e 2dbf 7117 023f 4e2f 97be
00000190: acd1 a33f 432f ecbd 9659 513b aa62 ad3e
000001a0: 1af5 14bf 509d 43c0 4ea9 17bf e422 053c
000001b0: 30e4 463d 5285 ac3e 05cc 00be f258 5dbf
000001c0: 97c7 913e 384c 86bb 50c8 a4bd 3bdb c73e
000001d0: b0aa f6be 5adf c6bd 256c ebbf 6de4 053a
000001e0: fe39 223f 887f 403d 3282 a33b 9ccd ba3e
000001f0: 24d3 55be 28ed 713f 635d 603e fbea a1be
00000200: fe16 bab8 6462 593e d46c 8cbe 871b 94bd
00000210: 1d6d 11be ef9f b53e 0182 d7be c2fb 8e39
00000220: 1684 de3e 11c3 5abf 9852 143e c779 c33a
00000230: fb68 d1be 93c2 babe fedd 91be dc5d 043f
00000240: e84d 00bc f957 81b9 918b 77be 9565 d43d
00000250: 639f 4a3e 5697 5a3e aa48 a1be 3c0a 81be
00000260: 2262 c63e e078 46be f7c8 fd3d ed70 533e
00000270: e014 b73a 6a22 863b 150d d43e a69f 8b3e
00000280: 1d15 d4be 2514 debd bd84 cfbf eff6 a1be
00000290: a20a 9cbd dc1b d0bd 6b7b 8bbd 6106 0fbf
000002a0: a51f 5cbe 09ed 163f daec ab3d 403f cbbc
000002b0: 587d debe f435 1e3b b1d3 78be 615e ad3e
000002c0: 9ecd 1dbf a45a 0abe e6c3 5a3d c519 3abe
000002d0: a951 083f 194b e83d 4b83 ccbc b0ac 2dbe
000002e0: 41f7 173e dda4 9e3e 4f2d 49be befe 843e
000002f0: 94ce 14be 70bb 3cbe b097 48bf e13e f3bc
00000300: 05a8 04bf adb7 2bbe 5660 443d 0b31 9ebe
00000310: f50e c23e 9a2c 3ebe d667 1cbe 2383 6abe
00000320: 56c7 3dbf 65c8 763e b969 7b3d 3a3a 62be
00000330: cfe1 85be e643 14be dfde 2dbe 5596 e53b
00000340: e2b9 993e 30de 14be 74f9 32bf b336 8d3c
00000350: f1cb 54be 9733 3bbe c890 5f3c cba2 bcbd
00000360: e830 2cbe 22ff fbbe d1bf 5ebf 4d47 83be
00000370: 3d57 113e 9763 5e3e 2315 d43e 5614 6a3e
00000380: dbf0 f9be a311 14bd da06 f0bb a872 40bf
00000390: 6000 16bf 17b0 eebe d0aa 5ebe f315 183e
000003a0: 74ce 853d 51c8 c33e b29f 363e a359 24bf
000003b0: 7836 8a3e 6c75 e6be c1a0 df3d 79d6 c33c
000003c0: 0015 98be dde3 8fbf f5ef b4be a399 aa3d
000003d0: 5341 92bd 76e7 03bf 28c8 8bbe 0188 d3bd
000003e0: 1886 2fbe d5e0 2c3b c44a 183f 31f9 e5be
000003f0: eaf5 1a3f d786 52bf b218 74be cb10 063c

linear.2.bias f4 [14]
-0.30633298 -0.13928324 -0.28097785 -0.6987022 -0.14924166 -0.16221058 -0.075877674 -0.1576079
-0.28103557 -0.31677625 -0.39429516 -0.08060011 0.075112276 0.05600011
00000000: add7 9cbe 44a0 0ebe 54dc 8fbe 26de 32bf
00000010: ced2 18be 881a 26be c165 9bbd f763 21be
00000020: e5e3 8fbe 7f30 a2be 0ee1 c9be ac11 a5bd
00000030: 77d4 993d 5f60 653d
