Data/model_results_unphased_all_PRS/logistic_regression/onnx_models/final_model_chr5.onnx (onnx, 513825 bytes, 6 tensors)

linear.0.weight f4 [34, 1255]
000000 df dd a8 be bb fd 9a 3e f0 4a 9f c0 20 ce ac be
       -0.32981774 0.30271706 -4.9778976 -0.3375101
000010 9f 25 08 40 4d 33 2f bb 3e 0a 1c 3e 22 b3 2a c0
       2.1272962 -0.0026733459 0.15238282 -2.6671834
000020 da 4a c2 be 3d e4 f8 bd e0 ad 9f 3f 27 84 58 3e
       -0.37947732 -0.12152908 1.2474937 0.21144162
000030 8e 75 25 c0 50 e0 3e bf 6f 88 21 bf 48 e7 25 be
       -2.5853 -0.74561024 -0.63098806 -0.16201508
000040 15 be 5f bf 06 15 32 be c2 65 57 40 66 be fa 3f
       -0.8739942 -0.17390832 3.3655858 1.9589355
000050 01 14 c3 be 24 bd 45 40 5d 2b 73 40 29 9b 1f 3e
       -0.381012 3.0896692 3.7995217 0.15586533
000060 52 d7 94 40 a0 f2 5f 3e 9d 4d be bd 43 65 8e 3f
       4.651284 0.21869898 -0.09292147 1.1124653
000070 20 b2 a2 bf e7 51 2e 3f 09 48 2e be e9 93 0c 40
       -1.271061 0.68093723 -0.17019667 2.1965277
000080 6d 58 b2 3f 38 45 43 bc 80 47 ed be 03 b5 0f bf
       1.3933235 -0.0119183585 -0.46343613 -0.56135577
000090 b0 c2 ed 3e eb b0 10 3e 7e a9 23 3f 56 72 02 bd
       0.46437597 0.14129989 0.639305 -0.03184732
0000a0 44 07 19 be db c1 b2 3f 67 7a 19 3f a9 dd e7 3b
       -0.14944178 1.396541 0.59952396 0.0070759845
0000b0 29 f2 95 be c5 49 06 3e cf 4a 61 3f a9 03 37 bf
       -0.29286316 0.13114078 0.88004774 -0.7148996
0000c0 44 af e0 3d 61 c4 75 3f 8b ca 8b 3f 89 2e 2e 40
       0.10970929 0.96002775 1.0921186 2.7215903
0000d0 7d 9e 89 bf 67 e9 6a bf 23 50 d5 be 3e 76 af 3f
       -1.0751492 -0.91762394 -0.41662702 1.370796
0000e0 23 2d c2 3c 33 4e 8c bd f3 11 47 bd 80 c3 af bd
       0.023703163 -0.06850853 -0.048601102 -0.085822105
0000f0 4f 7e 6d 3f 73 8a 8a 3e b2 2b 18 3e ac 0d 4b bf
       0.92770857 0.27058753 0.14860418 -0.79317737
000100 bb a6 2e 3e 62 df a3 bf ee f9 14 bf 8b 4e 40 be
       0.1705579 -1.2802546 -0.5819386 -0.18779962
000110 45 b9 23 be d3 27 e2 3d 9d c5 47 3f 5d 43 0a bf
       -0.15988643 0.11042752 0.7803591 -0.5400904
000120 69 a2 0f 3f 7a 2b 27 bf 73 3b e6 be 59 8e 99 3f
       0.56107193 -0.65300715 -0.4496723 1.1996566
000130 38 25 14 3f 9f 7c 03 be 09 5f 34 3e a2 d3 45 3e
       0.5786929 -0.12840508 0.17614378 0.19319013
000140 2f 91 ce 3f 3e cc 21 3f 78 94 a6 ba 94 fb 0a 3e
       1.6138057 0.63202274 -0.0012709042 0.13572532
000150 dc 73 47 3e a6 59 d1 3e 56 1c e0 3e ba 17 8e bd
       0.1947779 0.4088871 0.4377162 -0.06938119
000160 10 8f 38 3d a8 11 34 3d 10 b4 2f bf a4 ed dd 3d
       0.04505831 0.04396215 -0.6863413 0.10836342
000170 d9 07 e8 3d 63 2c 8a bd e0 48 44 3e 29 5a a5 bb
       0.11329622 -0.06746747 0.19168425 -0.0050461483
000180 25 42 7c 3f c3 c4 f4 3e b3 c3 86 bd 9c a3 a1 bf
       0.9853843 0.47806367 -0.065802954 -1.2628055
000190 52 9c 3c 3f 57 21 0a 3f 50 39 f8 3e 93 6c 9b bf
       0.73676026 0.5395712 0.48481226 -1.2142509
0001a0 08 8e 87 3b 55 bf 53 be 77 fa 58 3f fd ff a2 3e
       0.0041368045 -0.20678456 0.8475718 0.3183593
0001b0 82 07 6a bf 5d b8 8a 3e 36 f3 18 bf 7e fe e4 3d
       -0.91417706 0.27093783 -0.5974611 0.11181353
0001c0 04 34 39 be f0 9d 9f bf 23 8b 9c 3f 09 9e 3c bf
       -0.18086249 -1.2470074 1.2229961 -0.7367864
0001d0 f5 e4 dd bd 3c 8f bb 3e 01 21 f7 3d 1c 37 71 3e
       -0.10834686 0.36632717 0.12066842 0.23556179
0001e0 4a 35 cb 3e da 45 c8 be 70 ed af be b8 ef 30 3d
       0.39689094 -0.39115793 -0.34360838 0.043197364
0001f0 d4 e4 4e bf 47 8e aa 3e d5 69 d9 3d c3 71 c5 bb
       -0.80817914 0.33311674 0.10615889 -0.0060255243
000200 3a 3c 46 3c e1 ce 54 3f 25 4e d1 be 6f b9 03 bf
       0.01209932 0.8312817 -0.40879932 -0.51454824
000210 f4 9c 3c be d0 df 68 3e c7 94 af 3d 61 a6 2d bf
       -0.18419248 0.22741628 0.08573299 -0.67832
000220 86 0e 7e 3f 4f cc f0 3d ab 82 9f 3d 52 2f a5 3e
       0.9924091 0.11757719 0.07788595 0.32262665
000230 ec dd 12 be d0 2e 93 be 12 70 14 be 7d 3b 78 be
       -0.14342469 -0.28746653 -0.14495876 -0.24241443
000240 6a 00 a7 be 5c 1e a0 be 3b 27 2b 3f 17 83 99 bf
       -0.32617503 -0.31273162 0.66856736 -1.199313
000250 70 72 8b 3d 2b 3b 3e bd 92 bd cb 3e 47 19 6c be
       0.068089366 -0.046443146 0.39793068 -0.23056518
000260 dc b7 0b 3f 86 3c a4 bf 9e ae d6 be 7e 64 77 3f
       0.5457742 -1.283097 -0.41930097 0.96637714
000270 6a e6 d5 3c 57 27 53 be 99 7c 7f 3f 2d d3 53 3f
       0.026110847 -0.20620476 0.99799496 0.82744104
000280 8e 69 3a 3e 36 16 37 3e ce 4a 3c be 5a 58 01 3e
       0.18204328 0.17879567 -0.1838791 0.1263136
000290 9a 57 03 3d 3c 66 00 3e d0 34 14 bf 4e fc 20 bf
       0.032065965 0.12539 -0.57893085 -0.62884986
0002a0 c5 0b 0b be 76 f5 0d 3e 21 c1 e3 39 82 a8 59 bd
       -0.13578708 0.13863167 0.00043440706 -0.053139217
0002b0 f0 39 23 bf 30 1e 70 bd 12 ee 09 3e df d2 d6 3e
       -0.6376028 -0.05862254 0.13469723 0.41957757
0002c0 3e 37 3e 3e 85 3e 33 3f ab ba ea be a8 47 3e 3e
       0.1857576 0.7001727 -0.4584554 0.18582022
0002d0 08 a9 67 bf 73 d0 3b 3f d8 4d ae 3d 2e 0b 1d 3f
       -0.90492296 0.73364943 0.08510941 0.61345184
0002e0 98 47 0a bf 13 92 2a 3f f3 78 81 3d c0 92 00 bf
       -0.54015493 0.6662914 0.06321897 -0.5022392
0002f0 c6 b0 a3 bd 59 33 c1 be 00 a9 b9 be d1 1b 4c be
       -0.07992701 -0.37734488 -0.3626175 -0.19932486
000300 70 3e c4 be be f4 ae be 1e 61 e4 bc a9 d4 8d be
       -0.38328886 -0.34171098 -0.02787834 -0.2770131
000310 ca 13 b2 3d 20 88 c2 bd d7 4b 8c 3d 5c 73 9d be
       0.08695181 -0.0949862 0.06850403 -0.30752075
000320 cf 8e 5f 3d 58 b5 23 be 28 8a 07 be bf 99 80 3c
       0.054579552 -0.15987146 -0.13236296 0.015698312
000330 c4 30 9a bd 60 fb 05 bd 40 f9 22 be 53 b2 58 3e
       -0.075288326 -0.032710433 -0.15915394 0.21161775
000340 71 da 32 3d f9 19 4c bd 49 af 8e 3c bb e1 e9 3e
       0.043665353 -0.049829457 0.017417567 0.4568003
000350 39 c0 e1 be 2c 7a f2 bd 51 cf 01 bd e0 65 2c 3e
       -0.44091967 -0.11839709 -0.031691853 0.16835737
000360 62 ef 11 bf 69 2b e8 3d 7e e1 32 bd 43 9b 8e 3e
       -0.57005894 0.11336405 -0.043672077 0.2785283
000370 4f 2f aa bd 5a ce 8c bc 2d af e6 3c 4e 0a 00 3f
       -0.08309805 -0.01718824 0.028159702 0.50015724
000380 6e 95 53 3e b7 90 93 3d ce e2 49 3a d1 46 75 3f
       0.20662472 0.072053365 0.0007701338 0.9581118
000390 dd d6 97 3e a3 90 c0 be 08 35 bb bd 6a 93 32 bd
       0.29656115 -0.3761035 -0.09140974 -0.043597616
0003a0 05 71 08 be 6a b2 66 bd 3a 56 ef bc c8 ab d1 3e
       -0.13324364 -0.056322493 -0.02921592 0.4095137
0003b0 b5 97 69 be 1d 8f dd 3e d0 3f 06 be 6f 73 09 3e
       -0.22811778 0.4327325 -0.1311028 0.1342294
0003c0 b1 da a5 bc 0c 8a e3 3d 81 00 00 bc 87 40 3a bd
       -0.020245882 0.11110315 -0.00781262 -0.045471694
0003d0 30 53 92 3e 87 22 1c 3e bd 6d 7a bf eb eb 1e bc
       0.28579092 0.15247546 -0.978237 -0.009699802
0003e0 f7 d0 dd bc 7c 38 8d 3d 54 f3 53 3d 41 4e 79 be
       -0.027077181 0.06895539 0.051745728 -0.24346258
0003f0 a2 1e d9 bd 4e ad d1 be aa 27 8e bd d1 df b1 bd
       -0.10601546 -0.40952533 -0.06941159 -0.08685268

linear.0.bias f4 [34]
000000 7d 66 65 bc da 41 a8 3c 16 08 2f 3d e5 8f 86 3d
       -0.014001486 0.020539213 0.04273232 0.065704145
000010 04 bc 81 3d ed 8f 11 3c 6c b4 49 3d 7e 29 af 3c
       0.06334689 0.008884412 0.04924433 0.02138209
000020 dc d0 f6 bb 0c b4 02 3d 90 81 bf 3d 14 59 1e 3d
       -0.007532222 0.031909987 0.09350884 0.03865917
000030 34 0f 91 3d f2 1d 1f bc 6e a4 ac 3d 96 5c 00 bd
       0.07082978 -0.009711729 0.084298 -0.031338297
000040 3a 7b d3 3d 99 f9 ee 3b 44 f0 d6 3c 81 05 5c bd
       0.10326238 0.007292938 0.026237614 -0.053716186
000050 e7 08 7e 3c 13 6d 54 3d 03 1e 81 3d 36 e7 8c bc
       0.015505052 0.051861834 0.063045524 -0.017200094
000060 58 92 fe bc b3 8c 0d 3d da de 9a 3c 51 88 81 3c
       -0.031075642 0.03455801 0.018905092 0.015812071
000070 c5 81 f9 3c e5 89 df bc 9a 99 e9 3d 78 4b 95 3c
       0.030457387 -0.027287433 0.1140625 0.018224463
000080 bf a3 6e 3d ea a0 a9 bd
       0.05826163 -0.08282645

linear.1.weight f4 [34, 1255]
000000 c3 5e 79 3e 50 de b7 be 88 d1 60 40 0e 2e 2d 3e
       0.24352555 -0.35911798 3.5127888 0.169121
000010 9d ad b8 bf 2c 22 e5 3d 63 56 a6 bd f7 1f f0 3f
       -1.4427983 0.111881584 -0.08121946 1.8759755
000020 0b 82 21 3e 8f c2 45 bd 01 89 3b bf c1 44 42 be
       0.15772264 -0.04828125 -0.73255926 -0.1897154
000030 7d ba 44 3f d6 85 14 3e bd 98 18 3f ca e3 76 3d
       0.7684706 0.1450418 0.5960806 0.06027583
000040 17 34 f8 3d 1a 73 25 3e 30 01 14 c0 20 43 5b bf
       0.1211931 0.16157189 -2.3125725 -0.856493
000050 d4 08 b2 bd 8f ad 08 c0 19 50 3c c0 b6 94 40 be
       -0.0869309 -2.1355932 -2.9423888 -0.18806729
000060 a4 42 76 c0 5f 94 48 be 64 8a 96 be 0d 38 0b bf
       -3.8478174 -0.19587849 -0.2940246 -0.543824
000070 77 fe 5b bc 2e 15 e8 be 20 b9 02 3e 51 7d 9b bf
       -0.013427368 -0.4532866 0.12765932 -1.2147619
000080 d8 cf 54 bf c5 12 36 3e 99 9a 26 3f d9 e9 10 3f
       -0.83129644 0.17780598 0.6507965 0.56606823
000090 0d 5a ad be 5d c2 23 3d 55 77 11 bf 8c 6e 8f bf
       -0.33857766 0.03998028 -0.5682271 -1.1205611
0000a0 58 f9 08 3e af 49 87 bf 5f 66 63 bf 43 9a 97 3d
       0.13376367 -1.0569361 -0.8882808 0.0740247
0000b0 2e f8 21 3e 76 e8 2a be ad 0b b6 bf 90 d0 73 3f
       0.1581733 -0.1669024 -1.4222313 0.95240116
0000c0 9c 41 c2 bd 9b 2b 17 bf d9 7e 81 bf 80 13 32 c0
       -0.0948517 -0.5905091 -1.0116836 -2.7824402
0000d0 2f 26 88 3f 81 20 61 3f be 53 84 3f bd 04 a8 bf
       1.0636653 0.8794022 1.0338056 -1.3126446
0000e0 1f 2d 0a bd e5 35 4d 3d 04 08 a8 3c 96 78 b4 bc
       -0.033734437 0.050100226 0.020511635 -0.022030156
0000f0 67 b7 6f bf 00 62 fe 3d 45 d9 bc be 58 53 61 3f
       -0.93639225 0.12421036 -0.36884513 0.880178
000100 e9 cf 0f be 43 ce 50 3e c1 fc a6 be 56 ba 2a 3e
       -0.14044155 0.20391183 -0.3261471 0.16672644
000110 9c db 6f 3e d4 4e b0 3c 61 d9 80 bf 33 72 00 bf
       0.23423618 0.021521963 -1.0066339 -0.50174254
000120 90 14 d9 be a1 b9 71 3f 39 7f 45 bf 32 1a 7c bf
       -0.423985 0.9442387 -0.7714725 -0.9847747
000130 7f 1b 00 bf 09 f9 c2 3d 42 6e 94 be 77 92 a8 3c
       -0.50041956 0.09520156 -0.2899037 0.020577652
000140 71 dc 02 c0 3a a4 22 bf 0b 03 97 3c df fb 1c be
       -2.0447047 -0.6353184 0.018434068 -0.15330456
000150 49 ff 97 be 70 a3 f0 be c4 03 ee be 0d 30 01 3e
       -0.29686955 -0.46999693 -0.46487248 0.12615986
000160 21 22 84 3e 6e 5c 16 be 35 84 20 3f 72 35 85 3d
       0.25807288 -0.14683697 0.6270173 0.065043345
000170 96 9f 92 bc 17 45 05 be 04 2b 88 be be dd 3f 3d
       -0.017898362 -0.13014637 -0.26595318 0.04684233
000180 2d 83 58 bf 3e 13 35 bf 33 38 4f 3d e3 e7 ad 3f
       -0.8457516 -0.70732486 0.050590705 1.3586391
000190 7c ff 18 bf 56 98 08 bf 87 54 d7 be d1 6e b2 3f
       -0.5976484 -0.53357446 -0.42056677 1.3940068
0001a0 b6 2d 00 bf 2d 23 3c 3e 22 06 5a bf 75 25 b5 be
       -0.5006975 0.18372793 -0.8516561 -0.3538014
0001b0 f0 9a e2 3d 50 f3 df be 41 97 01 3f 97 f4 da be
       0.11064708 -0.4374032 0.5062142 -0.42764732
0001c0 da b3 e0 3e 8f a1 32 3f a6 d2 c2 bf cc f2 2b 3f
       0.43887216 0.6977777 -1.5220535 0.67167354
0001d0 f5 eb 45 be c9 55 1d bf b5 9b b5 bd c9 fe 64 be
       -0.19328292 -0.6145902 -0.088675894 -0.22362818
0001e0 26 6a 9c be 74 f1 df 3e 8c e6 c7 3e 71 76 a7 3d
       -0.30549735 0.43738902 0.3904308 0.08176888
0001f0 fa 58 70 3f 49 2e 0b be 73 17 12 be e7 2b 98 3d
       0.9388577 -0.13591875 -0.14266758 0.07430249
000200 a0 76 ad 3d 59 db 78 bf 47 35 8b 3e 76 85 5e be
       0.084698915 -0.972097 0.27189085 -0.21730599
000210 7b f3 05 bf e5 2f 2a be 50 84 d3 bc 9d b2 41 3f
       -0.52324647 -0.16619833 -0.025819927 0.7566317
000220 f0 18 a1 bf 29 d3 4c be 02 09 c4 bd e2 ea a3 be
       -1.2585735 -0.20002426 -0.095720306 -0.3201514
000230 4b 6d 6b 3e 09 66 8f 3e c5 ee 18 3e f5 6c 8c 3d
       0.2299091 0.28007534 0.14934833 0.068567194
000240 76 d4 24 3f ba 51 69 3f b3 2b 26 bf 9c 8a 85 3f
       0.6438669 0.9114033 -0.6491043 1.0432925
000250 ae 2a b2 bd 92 be de bb 19 dc 64 bf da 15 b0 3e
       -0.08699547 -0.00679762 -0.8939834 0.3439167
000260 58 02 33 be 95 c3 b8 3f 23 fc 2d 3f 66 ca 90 bf
       -0.17481363 1.4434687 0.67962855 -1.1311767
000270 a9 6e 35 3e d1 b6 9c 3e 23 48 86 bf eb df ff be
       0.17717995 0.30608228 -1.0490764 -0.49975523
000280 e4 81 0d be 91 7e b2 be 96 40 67 3e 0a 68 b5 3d
       -0.1381908 -0.34862188 0.22583231 0.088577345
000290 51 32 ce bd 84 8b d8 bd 98 2b 35 3f 2d ac a6 3e
       -0.10068191 -0.105734855 0.70769644 0.32553235
0002a0 c2 b1 d7 3d bc 21 a8 be 95 1d 8d bd f5 cd be 3d
       0.105319515 -0.32838237 -0.06890408 0.09316627
0002b0 55 8e 26 3f d3 5b aa 3d fc 74 61 bd cb 34 9e be
       0.6506093 0.08318295 -0.055043206 -0.30899653
0002c0 c9 05 69 bf 6b dd 02 bf 2e 42 14 3f 19 92 39 bd
       -0.9102445 -0.51119107 0.5791348 -0.045305345
0002d0 98 61 a2 3f e2 2b 38 bf 82 7c 7b bd c4 21 ed bd
       1.2686033 -0.7194196 -0.061398037 -0.11578706
0002e0 b1 46 7e 3f ff fe 4b bf 76 73 2e be b8 ec 39 3f
       0.99326617 -0.7968597 -0.17036232 0.7262683
0002f0 6a 06 12 bf 9b 78 04 3d 6e 07 9e 3e ea 14 ea 3c
       -0.5704104 0.03234158 0.30865043 0.028574426
000300 86 2c 87 3e 2e 82 5e 3e b2 f7 89 3d 90 0a 68 3e
       0.26401156 0.21729347 0.06736697 0.2266028
000310 f3 6a e8 bd 8d a0 af 3d 68 88 ad bd 99 19 a0 3e
       -0.11348524 0.085755445 -0.08473283 0.3126953
000320 85 77 72 bd aa 52 22 3e 5f 59 14 3e b8 08 8d 3c
       -0.059196014 0.15851846 0.14487217 0.017216071
000330 35 b0 ca 3d 06 56 e3 bd d4 3c 9e 3d a9 b1 b3 be
       0.0989689 -0.11100392 0.07726446 -0.3509648
000340 b5 05 a4 3d a7 49 e6 3d cf ac ed 3a fd 77 8e be
       0.08008901 0.11244517 0.0018133166 -0.2782592
000350 2e 3c a7 3e 83 f2 7a 3d 6f 2c 82 bd a6 df 3c be
       0.326631 0.061266433 -0.06356131 -0.1844469
000360 ea d0 f9 3e 25 a6 af bd 93 75 bd 3d 41 6e 63 bc
       0.487922 -0.085766114 0.09250941 -0.013881267
000370 a4 d3 48 3e 3b a4 b2 bc e1 87 3a bd 54 27 c3 be
       0.19611984 -0.021806827 -0.04553974 -0.38115942
000380 d1 23 bc bd 9e c8 fb bd fa 01 2d bd 38 eb 43 bf
       -0.09186519 -0.12294124 -0.042238213 -0.7653079
000390 b9 82 6a be b6 aa 79 3d 6b d7 4f 3d fe 0d 10 3d
       -0.22901429 0.06095382 0.050742548 0.035169594
0003a0 9f 00 6e 3e 90 7b b7 3b b3 cb 09 3d e9 c8 84 be
       0.23242424 0.0055994466 0.03364153 -0.25934532
0003b0 15 3d 9b 3e d7 a0 98 be 1a 6d 0a 3d 5c 45 8d be
       0.3032004 -0.2981021 0.033795454 -0.2759198
0003c0 6c 50 b3 3d ca 7a 55 be 76 da fb bc c0 57 2a be
       0.08755574 -0.20847622 -0.030743819 -0.16635036
0003d0 85 40 12 3e 26 39 29 be c4 56 80 3f 2d 16 0a bd
       0.14282425 -0.16525707 1.0026479 -0.033712555
0003e0 c4 6e 58 3d d4 7b 04 be 41 d1 4e bd 44 7e 79 3e
       0.05284001 -0.12937862 -0.05049253 0.24364573
0003f0 cb 7e 85 bd f1 c4 7d 3e e0 6b 7f 3d 12 c7 2c 3e
       -0.065183245 0.24782158 0.062358737 0.16872814

linear.1.bias f4 [34]
000000 64 a6 4e 3b a7 46 5d 3d 7e 40 bb 3b 68 c5 5b bd
       0.0031532282 0.054022457 0.005714475 -0.05365506
000010 29 ea 9d bc d2 70 9e bc 40 5e 5b 3c 45 d5 7e bc
       -0.019276695 -0.019340906 0.01338917 -0.015553777
000020 94 59 82 3c 9f cc 11 bd 88 74 c0 bc e4 32 fe bc
       0.015911855 -0.035595533 -0.023493066 -0.031030126
000030 01 01 31 bc 6c c5 f7 3c 75 33 88 3d 20 e8 47 3d
       -0.010803462 0.030245505 0.0665044 0.048805356
000040 34 25 e8 bd 3a ed 24 bd 77 60 f4 bc 5d 3f 8e 3d
       -0.11335221 -0.0402653 -0.029831154 0.06945679
000050 6f 2b a0 3d a9 61 c0 3c 52 07 14 bd b6 cb 7a 3d
       0.07820784 0.023484068 -0.036139794 0.06122943
000060 8c 88 3c 3d 74 a9 d3 bc 01 e5 21 3c 15 86 75 bc
       0.04602866 -0.025837637 0.009881259 -0.014985581
000070 06 5b 2c bc 5c 69 fd 3c 19 20 3e 3a d3 5a 86 3d
       -0.010519749 0.030934028 0.0007252708 0.06560292
000080 97 ce 4a bd 0e 8c 32 3d
       -0.049513426 0.043590598

linear.2.weight f4 [34, 1255]
000000 39 12 12 3e ce 48 67 3e 9c c3 42 40 27 c3 85 3e
       0.14264764 0.22586367 3.043189 0.26125452
000010 6e 34 80 c0 d9 7c bf be 27 5c ae be 20 b2 d7 3f
       -4.0064 -0.3739994 -0.34054682 1.6851234
000020 f6 f6 f0 3e 35 e9 c5 3e 4b 1d 15 c0 08 d1 9f bc
       0.47063416 0.38654485 -2.329913 -0.019508854
000030 1e d2 94 3f 97 7f 6c 3f 13 75 a5 3d 05 b7 bf 3e
       1.1626623 0.92382187 0.08078971 0.3744432
000040 d7 32 12 3f 5c 9e 64 3c 43 de 96 c0 cd 13 43 c0
       0.57108825 0.013953771 -4.7146316 -3.0480835
000050 10 f6 52 3f 89 a9 91 c0 8c 3a 97 c0 52 36 df 3d
       0.8240671 -4.551945 -4.725897 0.10899033
000060 a0 58 97 c0 fc 97 aa bc 93 9b 5e 3f ed b8 02 c0
       -4.7295685 -0.020824425 0.8695614 -2.042537
000070 8b ef 09 40 bd 25 1c c0 09 7f 11 3e 98 d3 84 c0
       2.1552455 -2.4398034 0.14208616 -4.1508293
000080 3e ef 35 c0 9d 5a 10 bf a0 e6 dd bf b5 75 a9 be
       -2.8427272 -0.56388265 -1.7336006 -0.33097616
000090 9c 26 85 be 39 2a ac bf d3 64 fb bd 15 90 ae 3f
       -0.2600602 -1.3450385 -0.1227509 1.363772
0000a0 8b 8f 87 3d c4 12 86 bf 00 b5 14 3f fd d6 12 be
       0.066191755 -1.0474477 0.58088684 -0.14339824
0000b0 1c 57 4d 3e 59 bd 78 3d 83 32 56 3f 69 6c d5 bf
       0.20052761 0.06072745 0.83670825 -1.6673709
0000c0 40 49 fa bc ca 92 ce bf d8 94 6e bf 32 35 40 be
       -0.030552506 -1.6138546 -0.9319587 -0.18770292
0000d0 dd 2c ee be ef b4 f5 bd d7 cb 31 c0 46 18 f9 3e
       -0.46518603 -0.11997401 -2.7780664 0.48651332
0000e0 a1 aa ba bb 84 9c 55 3d da ed 1a 3e df 14 21 3e
       -0.00569661 0.052151218 0.15129796 0.15730618
0000f0 04 a1 58 3e f9 18 65 bf 3c bd e9 3e 26 cc fd be
       0.21155173 -0.8949123 0.45652187 -0.49569815
000100 dc 6a 7d bc c4 cc d6 3f 7f 86 60 3f 25 f5 50 bd
       -0.015467372 1.678124 0.87705225 -0.051015038
000110 8a f9 50 be 4f 22 91 bf b2 45 03 3f ed 7c 2d 3f
       -0.20407692 -1.1338595 0.5127822 0.67768747
000120 69 c7 0d bf 84 9e b6 bf f8 54 b7 3f eb b6 64 be
       -0.553824 -1.4267125 1.4322805 -0.22335403
000130 0a 9e 32 bc 25 9a 1d bd d8 d1 2c 3e 2a 72 f1 bf
       -0.010901937 -0.03847708 0.16876924 -1.8862965
000140 fe 58 49 3f b5 68 81 3e 8c df 97 bc 88 43 ff 3d
       0.78651416 0.25275198 -0.018539213 0.124640524
000150 d3 9e 91 3e 90 eb 70 3e d8 8b 98 3d a4 7c 33 be
       0.28441486 0.2352736 0.07448548 -0.17528015
000160 8f 3f a8 bf 6f ce 99 3e 72 b1 84 3e 18 f3 d6 bf
       -1.3144397 0.3004031 0.2591663 -1.6792936
000170 43 2e 69 be 60 f2 96 3e bc 23 91 3e 57 c1 3f be
       -0.22771554 0.29481792 0.28347576 -0.18726097
000180 1a 2e fb bf 00 df bf 3e 26 01 bd 3d 96 4c 8e be
       -1.9623444 0.37474823 0.09228735 -0.27792805
000190 39 cf 06 be f6 7d 97 37 54 be e7 bb 0a 62 cb bf
       -0.13164987 1.8059258e-05 -0.0070722494 -1.5889294
0001a0 6d 02 7f 3f f4 50 9d bd 36 09 4a 37 e6 d2 24 3d
       0.99613076 -0.07681456 1.2042283e-05 0.04024019
0001b0 5f bc 7b 3f 4f 53 04 3f 8d aa 30 3d 6a 36 f2 3e
       0.98334306 0.5168962 0.0431314 0.4730714
0001c0 e9 b8 ad bf 1a 6e b5 3e 04 68 3c 3f 20 a3 17 be
       -1.3572055 0.35435563 0.73596215 -0.14808321
0001d0 41 6f 2f 3f 77 99 dd 3e 31 2b 94 bd 76 5c 7b 36
       0.68529135 0.43281147 -0.072348006 3.7455734e-06
0001e0 9d 38 68 bd c8 8c 27 be c3 bf 8c be 63 d0 a9 be
       -0.056694616 -0.16362298 -0.27490053 -0.331668
0001f0 59 0a 04 bf 8a 9d cc be 96 44 41 3e b2 ae 46 be
       -0.5157829 -0.39963943 0.1887382 -0.19402578
000200 89 66 89 be 00 e2 e3 3e ed 34 c2 3e 90 90 80 3f
       -0.2683604 0.44508362 0.37931004 1.0044117
000210 32 07 82 3f b0 45 8c be ba dc 7b be 54 a3 fd be
       1.0158446 -0.27396917 -0.24595919 -0.49538672
000220 c6 98 3e 3f f3 b5 d8 3e 94 75 17 bd 0e 71 7d 3d
       0.74451864 0.42326316 -0.036977366 0.061875395
000230 7e cb 9e be 92 1c 39 bd cd 66 b5 bc 81 c8 ac 3e
       -0.31014627 -0.045193262 -0.022143746 0.33746722
000240 f8 59 c9 bf 19 87 27 c0 15 9d 9d 3d 5a 9d 83 3d
       -1.5730581 -2.6176207 0.07695977 0.06426497
000250 e8 a7 bf 3b 9f 00 1b 3e 77 24 44 3f 28 95 b1 be
       0.0058488734 0.15136956 0.7661814 -0.3468411
000260 d0 43 ba bf bf 19 bf bf 63 99 21 bf 43 36 51 3e
       -1.4551945 -1.4929732 -0.63124675 0.20430855
000270 00 84 97 bf 6c 22 65 be fc 36 70 3e a8 6f db bf
       -1.1837158 -0.22376412 0.23458475 -1.714345
000280 c4 9c 3c bd da 94 f2 3e c0 1c 22 be 15 0b 04 bf
       -0.04604794 0.4737919 -0.1583128 -0.5157941
000290 83 29 8d 3e cd df 86 3c e2 ab eb be 4f ad 2c 3f
       0.27570733 0.016464138 -0.46029574 0.6745195
0002a0 aa e6 3c 3e fe c4 ec 3e 0c 3f 84 3a e2 41 a7 bd
       0.18447366 0.46244043 0.001008959 -0.08166863
0002b0 9e 07 a4 be da f9 57 bc e0 63 8c be 1a 99 e5 be
       -0.3203706 -0.013182128 -0.2741995 -0.4484337
0002c0 08 a2 96 3f b1 e3 1a bf 19 de 94 bf dd 68 87 be
       1.1768198 -0.6050368 -1.1630279 -0.26447192
0002d0 2d 6f 8a bf 11 38 1f bf fa 00 bd bb 51 8f 3b bf
       -1.0815178 -0.62194926 -0.0057679387 -0.7326556
0002e0 4a 4f 86 bf 01 ee e4 3e 06 c4 02 3e 87 46 b8 bf
       -1.0492947 0.44712833 0.1277009 -1.4396523
0002f0 7a af 8c 3f 20 94 0a 3f fa 83 1b 3e f7 d3 c1 3e
       1.0991051 0.5413227 0.15187064 0.3785703
000300 22 22 f9 3d 90 e7 51 3e be 73 d4 bc 18 71 01 3e
       0.121647134 0.2049849 -0.025934096 0.12640798
000310 a0 0c 54 3d ce 57 0a bc 2d c7 2b bc 09 e5 96 bd
       0.051769853 -0.008443786 -0.010484499 -0.07367904
000320 6b 3a 43 3d 72 42 92 39 a9 19 08 be 48 d2 0f bc
       0.047663134 0.00027896796 -0.13291039 -0.008778162
000330 06 d0 f3 bd 63 48 e1 3e 4f 27 80 3e 1f ac ac 3e
       -0.11904912 0.4400054 0.2502999 0.33725068
000340 d2 db a3 be 9c 2c b5 bd 44 23 90 bd ac 38 21 bf
       -0.32003647 -0.08846399 -0.070379764 -0.629771
000350 87 2e ac 3e 58 f9 a4 3d 4e 48 16 3e 69 19 2c 3e
       0.33629248 0.08055371 0.1467602 0.16806568
000360 43 1b 42 3e a4 1a d0 3b 91 65 08 be 9f a1 24 bf
       0.18955712 0.006350832 -0.13319995 -0.64309114
000370 38 2a a4 be 2d d9 0c 3e 5a 2b 7c 3d f7 8c 91 be
       -0.3206346 0.13754721 0.06156478 -0.2842786
000380 2e cf 8b be 8d 38 0a 3e c3 ce 1f 3d 1b 49 bd be
       -0.27306503 0.13498135 0.039015543 -0.36969838
000390 8f 0e 02 be ca 8a 08 3f 82 9d 55 3d 80 36 56 3c
       -0.12700866 0.53336775 0.052152164 0.013074517
0003a0 6f 33 84 be cc 8d db 3d 89 73 22 3e 73 aa 58 be
       -0.2582049 0.10720405 0.15864386 -0.21158771
0003b0 26 c5 43 be e2 98 8f be d5 c5 42 3e ba ac f8 3e
       -0.19118175 -0.28046328 0.1902078 0.4856928
0003c0 73 cf 28 be 19 10 c5 3e 71 37 a6 bb 05 d8 fa 3e
       -0.16485386 0.38488844 -0.005072527 0.48992935
0003d0 cb f9 94 bf 3c 5a d8 3d 51 5a 7c be 9b 60 10 3e
       -1.1638731 0.10564086 -0.24643828 0.14099352
0003e0 4c 29 49 be 6d e8 4b 3d ea 3f 8a 3c cd 87 20 bc
       -0.1964466 0.049782205 0.01687618 -0.009798002
0003f0 05 85 bf 3e bb 41 98 3e 3d 74 a9 bd c4 8f 35 be
       0.37406173 0.29737648 -0.08274124 -0.17730623

linear.2.bias f4 [34]
000000 c4 62 8f 3b 71 00 b6 bd fb ea fc bc 6e 0e a1 bd
       0.0043757875 -0.08886803 -0.030873766 -0.0786408
000010 38 6c 0c bc 72 cd 1e bd b1 f0 4f bd 62 bd a9 bc
       -0.008570723 -0.038770147 -0.05076665 -0.020720188
000020 0a 0a f9 3a b0 ed 2e bd c6 e2 ce bc 04 4d 76 bd
       0.0019000184 -0.042707145 -0.025254618 -0.06013204
000030 e5 f2 f1 bd 13 e6 08 bd f7 39 bc bd 51 8b ac bc
       -0.118139066 -0.03342254 -0.091907434 -0.021062525
000040 02 1b 10 bd cc 7a 5d 3b 4e 4c 21 bd 5d e4 28 3d
       -0.035182007 0.0033795116 -0.03937941 0.04123341
000050 5a bc c3 bd 5f 8e b8 bd 52 8a 29 bd 53 58 85 bd
       -0.095574096 -0.0901153 -0.04139168 -0.06510987
000060 c6 9c 91 bd 29 89 ab bc 59 40 72 bd e4 83 92 3d
       -0.0710998 -0.020939426 -0.059143398 0.071540624
000070 d5 06 a6 bd 43 b4 8a 3c d3 48 c3 bd dd de 14 be
       -0.08106772 0.016931659 -0.095353745 -0.1453814
000080 26 51 20 bd 82 5b 6b 3c
       -0.03913989 0.014365079
