Data/model_results_unphased_all_PRS/logistic_regression/onnx_models/final_model_chr3.onnx (onnx, 183387 bytes, 6 tensors)

linear.0.weight f4 [16, 947]
000000 21 a2 4e bd 02 22 6d 3e a8 aa bb 3e da 75 5b 3c
       -0.050447587 0.23157504 0.36653638 0.013394797
000010 7a 47 eb bd 01 35 1c 3e e2 01 1d 3f 7a bb 93 bc
       -0.114882424 0.15254594 0.61331 -0.018033732
000020 57 02 80 3f 01 38 34 3d 43 c3 dd 3d f6 86 f2 3d
       1.0000714 0.043998722 0.10828259 0.11842148
000030 2d d6 d0 3d ad 23 90 3d 31 26 aa 3e 92 eb cc 3d
       0.10197101 0.070380546 0.33232263 0.10005869
000040 d1 16 40 3c 70 4d db 3d 48 4c 1e be e4 28 1d 3f
       0.01172419 0.107081294 -0.15458786 0.6139052
000050 96 bd ab be 3b ae 9a 3d 52 1e 6d 3b 46 36 38 3d
       -0.3354308 0.07552763 0.0036181402 0.044973634
000060 85 f4 b4 ba 91 9a 88 3d fb 48 76 3e 0b 1e 81 be
       -0.0013805783 0.06670106 0.24051277 -0.25218233
000070 ce 28 96 be 60 d2 c7 3e f4 a9 b1 bd 80 0a cf bd
       -0.29328007 0.3902769 -0.08674994 -0.101094246
000080 73 fc 40 3f 1e 77 0d 3f 21 49 e6 bd 0c 77 39 bd
       0.75385207 0.55259883 -0.11244417 -0.045279548
000090 d5 ec b3 3e 28 c6 69 3e 0f fd 0d 3d 96 ba 05 bf
       0.35141626 0.22829497 0.034665164 -0.5223783
0000a0 e3 4d 70 3e 8c 8a 2e be b1 fd 6b bd e7 49 4d bd
       0.23467211 -0.17045039 -0.057614986 -0.050119307
0000b0 2e 4c 8e 3e 81 e9 85 ba 63 d8 1d 3e c5 ba da 3d
       0.27792495 -0.0010216684 0.15414576 0.10680155
0000c0 2f 43 0b bd e0 5d f8 3e 45 15 2c 3e 7f ff 92 3c
       -0.03399962 0.4850912 0.16804989 0.017944096
0000d0 12 53 d8 3c 87 b5 26 3f ce 14 16 3e 99 7e d5 bc
       0.026406799 0.6512074 0.14656374 -0.026061343
0000e0 0d 63 40 3e ae df 8a 3e 6e 8b de bd 2f 6d fc 3d
       0.18787785 0.2712378 -0.10866438 0.123255126
0000f0 8e 80 28 be 37 66 0a 3d 32 8e c2 3d 8a 91 15 be
       -0.1645529 0.033788886 0.09499778 -0.146063
000100 b8 de 7b 3d fc 4e ed 3e 50 af 07 bf 76 1e ee 3d
       0.061491698 0.46349323 -0.5300188 0.11626904
000110 72 32 2e bc fb f5 e7 3d 19 5d ef 3d b6 ab 37 3d
       -0.010632144 0.11326214 0.11687679 0.04484149
000120 46 ee 10 3f 68 a4 32 be 30 a1 d5 3d 48 d5 99 3e
       0.56613576 -0.17445529 0.10431135 0.30045533
000130 f8 5b c3 3e fc 7a 3a 3d 43 c2 e2 3e eb 3d 78 3e
       0.38156104 0.045527443 0.44288835 0.2424237
000140 1d fb 43 3e f9 f2 5c 3d e5 cf 0e 3e df dd e0 3d
       0.19138761 0.053942654 0.13946493 0.109798186
000150 3c 68 f8 be db a7 ae 3d aa 78 1c 3d 93 c0 ac 3e
       -0.48517025 0.0852811 0.03820101 0.33740672
000160 b9 ec c3 bc b3 e7 4a 3e c2 60 01 3e 58 5d be 3d
       -0.02391659 0.19814949 0.12634566 0.09295148
000170 6e 77 ab 3c 35 e7 fa 3c 78 94 07 3f 31 4c 52 3f
       0.020930972 0.030627826 0.5296092 0.8214751
000180 bb 34 14 3e 84 4b 2a be 76 f9 6f be 52 51 f4 bc
       0.1447324 -0.1663037 -0.23435006 -0.029823933
000190 27 eb e7 3c d8 05 01 3e a8 2e 3c 3e 5b 2e 9d 3b
       0.028310372 0.12599885 0.18377173 0.004796786
0001a0 71 b7 fd be 70 9c 29 3f b9 c6 06 bd e9 2f c8 be
       -0.49554017 0.6625433 -0.03290436 -0.39099053
0001b0 c6 98 14 bd 75 4e f6 3d da 78 d0 3d 2e 19 22 bd
       -0.03627851 0.12026683 0.101793006 -0.039574794
0001c0 24 99 96 3d 5a 72 79 3d 50 f3 36 bf 5b 4b d9 3d
       0.07353428 0.06090007 -0.71465015 0.10610076
0001d0 fa 39 b6 3d ce a0 94 3d b2 8f 4d be b2 7a 1d 3d
       0.08897777 0.072572336 -0.20074347 0.03844709
0001e0 48 41 25 be c0 d3 68 3e d6 68 a2 3e 2b 28 4a 3e
       -0.16138184 0.22737026 0.31720608 0.19741885
0001f0 8b fa a7 3e 99 ba 10 bb 63 ce 34 3e 0d b8 c4 3d
       0.32808337 -0.0022083877 0.17656855 0.096054174
000200 59 34 e3 be 85 90 37 bd 1c 7c a7 36 e7 40 5b be
       -0.44375876 -0.04481556 4.991436e-06 -0.21411477
000210 69 45 1a be cf 1e 5a 3e ae d9 14 be fc 1c ef 3d
       -0.1506554 0.21300815 -0.14536163 0.1167545
000220 64 33 82 3e 98 85 8b 3c 92 03 63 3e 66 8d a6 be
       0.25429833 0.017031476 0.2216933 -0.32529753
000230 3c 77 a7 3c 11 d7 d0 bf d4 25 fc 3e 81 f9 35 3e
       0.020442598 -1.6315633 0.4924761 0.1777096
000240 03 78 d1 3d 63 1b 3b 3e 35 58 24 3e 3b cb f0 3d
       0.102279685 0.18272166 0.16049273 0.11757513
000250 6a 41 13 3e b8 c0 13 3d f7 7b 8f 3e 26 69 4d 3e
       0.14380422 0.036072463 0.28024265 0.20059642
000260 f8 f6 a1 3e 01 34 35 bd 0f af 93 3d e2 33 9a 3c
       0.31633735 -0.044239048 0.07211124 0.018823568
000270 2b b7 ea 3c 2f a2 17 3e a2 f0 c2 3c 6b 27 2c 3f
       0.028651794 0.14807962 0.023796383 0.6724765
000280 0c 5f 63 3c 6c a0 37 bd 0b 85 47 be fb 9f 01 3f
       0.013877641 -0.044830725 -0.19484346 0.50634736
000290 81 cf 95 bd 22 af fb 3e bb 0a 48 be 92 6c f9 3c
       -0.07314969 0.49157053 -0.19535343 0.030447278
0002a0 5e 69 c2 bd 5b 5c ac 3e a8 88 5e 3d 2d 3c 16 3d
       -0.094927534 0.33664212 0.054329544 0.03667848
0002b0 69 bf bf 3d 39 db 37 3e 8e e1 e4 3d 9c 99 1d 3f
       0.093626805 0.1795472 0.11175834 0.61562514
0002c0 1f 42 3e 3e cf 71 ca 3c 9b 3b 36 3d e6 74 27 3d
       0.1857991 0.024712471 0.044490438 0.040882967
0002d0 ec 6b 8e be 3b fb 84 3d 81 4a a8 3d 69 5a f0 bd
       -0.27816713 0.06493231 0.082173355 -0.11735994
0002e0 ad af b9 3d f9 69 42 be 51 e6 2d 3d 86 ed de 3e
       0.090667106 -0.18985738 0.042455975 0.4354059
0002f0 5c 9f a1 bd 4a 25 af 3d 6a bb de 3e 32 37 9e 3c
       -0.078917235 0.08552034 0.4350236 0.019313429
000300 42 a9 a4 3d 4a 25 8f bd 18 bd 9b bd e4 58 bf bc
       0.08040096 -0.06989534 -0.07604426 -0.023357816
000310 d2 61 0c 3e c2 23 c8 3d 1e 5a a2 be 8c a6 8b 3e
       0.1370919 0.09772445 -0.3170938 0.27275503
000320 d3 bf b0 3e ca 77 cc 3c f9 1b 0e 3e dc 8e 18 be
       0.3452135 0.024959464 0.13877858 -0.14898247
000330 dc 3b f1 3d 9c fc 67 3d 59 6e 0e 3e 66 b3 36 3d
       0.117789954 0.05663739 0.13909282 0.04460468
000340 8b 12 03 3e 07 e3 b6 3d ce dd 18 be e5 d0 58 bc
       0.12800042 0.08930021 -0.14928362 -0.013233398
000350 a1 8e c8 3a a8 1f 34 3d be e4 0a 3c a6 22 31 bd
       0.0015301296 0.043975502 0.008477388 -0.043245934
000360 43 f9 a2 3d 58 0e 5e bc ef 70 ca bb 03 70 bd 3e
       0.07957699 -0.0135532245 -0.0061780135 0.3699952
000370 1e 0f 81 bd b9 78 73 3e 69 3f 34 3c 28 4f db 3b
       -0.063017115 0.23776521 0.011001446 0.006692786
000380 30 2a 71 3d 8d d9 1f 3e 59 c7 12 3d 39 7c 4e 3d
       0.058878124 0.15610333 0.035834644 0.050411437
000390 b7 30 f8 3b 21 2e 1c 3d 7c e3 22 3c 35 5a 18 bb
       0.0075741666 0.03812993 0.009941932 -0.0023247127
0003a0 f3 cc 86 3e ce 60 a3 3d 1e e9 99 3d ac 94 81 3d
       0.2632824 0.079774484 0.07515167 0.06327185
0003b0 b5 d4 69 bd 6b cd 7e bc 67 fd 94 3d b3 5c 72 3d
       -0.05708762 -0.015551905 0.07274895 0.059170436
0003c0 87 46 f0 3b c5 4f 10 bc 89 16 64 bc 86 dd 10 3e
       0.0073326263 -0.008808081 -0.013921388 0.14147004
0003d0 8b 40 d9 bd 41 d1 04 3c 0b a4 06 3e ce 4f 2d 3e
       -0.10608014 0.008106531 0.13148515 0.16924974
0003e0 c6 c9 fc 3d 64 d4 60 be 96 c8 a5 bd 5a 68 c8 bc
       0.12343173 -0.2195602 -0.08094899 -0.024463821
0003f0 f3 b6 8f bc 0e 88 50 bd df 8d 28 bd fd 0c 9d 3d
       -0.017543292 -0.050911 -0.041150924 0.07668493

linear.0.bias f4 [16]
000000 7d 0b 6d 3c 82 bf 10 bd a9 ed 7e 3d 1e db 22 3e
       0.014468071 -0.035338886 0.06223837 0.15903899
000010 95 a8 01 3e d1 80 ef 3c 60 88 e5 3d be fa 44 3d
       0.12661965 0.02923623 0.11207652 0.04809069
000020 fb 58 fd 3c e3 69 36 3d 09 5a 6f 3d c3 e5 48 3d
       0.030926218 0.044534575 0.058435474 0.049047243
000030 e7 43 e2 3d 63 27 91 3c 3e 7b 88 3d 14 27 da bc
       0.110481076 0.017718976 0.066641316 -0.026629962

linear.1.weight f4 [16, 947]
000000 a8 03 92 3d 99 76 02 bf 22 51 32 bf 22 f9 7e bc
       0.071296036 -0.50962216 -0.6965505 -0.015562328
000010 5d 0a 17 3e 80 73 53 be db 3f 3f bf 1b cb 28 bc
       0.14750047 -0.20649529 -0.7470681 -0.01030233
000020 04 7c 9c bf 0f 85 e2 bd 02 3f 91 be f6 2c 5f be
       -1.2225347 -0.11060535 -0.28368384 -0.21794495
000030 cd 38 38 be ae 6f d7 bd 69 de 71 be 16 f8 7f be
       -0.17990418 -0.10519348 -0.23619999 -0.24996981
000040 1e ec 6a bc f3 15 d7 bd a7 aa 70 3e e2 eb 45 bf
       -0.014338521 -0.10502233 0.23502599 -0.77313054
000050 55 9a c8 3e d6 cf 3a be eb 92 63 3c 7f f0 22 3c
       0.39180246 -0.18243346 0.013890008 0.009945034
000060 f1 43 6d bd d0 ba 0d be 57 a8 0e bf e0 be d5 3e
       -0.057926122 -0.13840795 -0.55725616 0.4174719
000070 9f fd a8 3e b4 ca 4c bf 59 8b 59 3e 1f c3 57 3e
       0.33005998 -0.799968 0.21244563 0.21070527
000080 02 ff 3e bf 25 85 34 bf 01 96 50 3e 73 51 c0 3d
       -0.7460786 -0.7051566 0.20369722 0.09390535
000090 e1 99 3f bf a3 d5 dd be 94 96 43 3b d1 27 09 3f
       -0.74844176 -0.43327054 0.002984439 0.5357638
0000a0 c5 f0 c0 be a2 24 cf 3e 4f ba 5f 3d 1b e1 19 3e
       -0.37683693 0.40457636 0.054621037 0.15027277
0000b0 24 cc e4 be 2f a2 d3 3d 3a 18 9f be 2a 43 79 be
       -0.44686997 0.103336684 -0.3107317 -0.24342027
0000c0 a1 d9 0e 3e ef 16 0c bf 1b 78 80 be 95 d2 dd 3c
       0.13950206 -0.54722494 -0.25091633 0.027077952
0000d0 a3 8b 4d 3d ff cf 75 bf cd 4d 92 be 3c 31 e6 3d
       0.050181996 -0.960205 -0.28574982 0.112398595
0000e0 dc 1c 8d be 6e fe 27 bf ff 3e 49 3e a8 5d aa be
       -0.2756108 -0.65622604 0.19652937 -0.3327458
0000f0 29 e4 9b 3e 33 3e ae bb a3 c3 e0 bd 04 90 6d 3e
       0.3044751 -0.0053174733 -0.10974815 0.23199469
000100 cc 54 dd bc 71 c6 d7 be c5 41 42 3f 33 1b 33 be
       -0.027017973 -0.42143586 0.75881606 -0.17490844
000110 e9 ab 4f 3d 5e a1 84 bf 36 d6 31 be 89 62 e5 bd
       0.050701056 -1.0361745 -0.17366871 -0.11200435
000120 25 05 8a bf b6 75 b2 3e 08 a5 2a be c8 ea 1f bf
       -1.078282 0.3485543 -0.16664517 -0.6246762
000130 4d 04 b1 be 30 2f e8 bc 91 c3 53 bf c8 d9 f8 be
       -0.34573594 -0.028342813 -0.82720286 -0.48603654
000140 cb 13 da be ae 01 57 bd 0c f6 85 be fd a3 89 be
       -0.42593226 -0.052491836 -0.2616428 -0.26882926
000150 1a 8a 06 3f ed ed 15 be 35 f8 dd bd 89 fe 00 bf
       0.52554476 -0.14641543 -0.10838357 -0.5038839
000160 f6 d2 00 3d ac 80 d1 be 6b ab 22 be ba 0a 08 be
       0.031451188 -0.4091848 -0.15885703 -0.13285342
000170 41 70 2c bd be 31 4d bd e3 72 3e bf 72 be 77 bf
       -0.04209924 -0.050096266 -0.74394053 -0.9677497
000180 8d 8b 98 be 7c 86 96 3e 16 35 aa 3e 55 d8 ba 3d
       -0.2979397 0.29399478 0.33243626 0.09123293
000190 3f 34 9e bd b5 73 71 be 5b 7f d1 be 73 7d af 3d
       -0.07724809 -0.23579295 -0.40917477 0.085688494
0001a0 80 cb 07 3f 39 46 26 bf 64 e0 bf 3d d6 1c c0 3e
       0.5304489 -0.649509 0.09368971 0.37522
0001b0 cb 1c 00 3e 49 5b 90 be 46 18 4c be 28 71 35 3e
       0.12510984 -0.28194645 -0.19931135 0.17718947
0001c0 3e 89 68 be d8 ca 8a be b5 1c 36 3f da 55 d0 bd
       -0.22708604 -0.27107882 0.71137553 -0.10172625
0001d0 a2 0f 14 bd 1a ed f1 bd aa 7d 91 3e 7b b1 0c bd
       -0.03614772 -0.11812802 0.28416187 -0.034348946
0001e0 0e 51 89 3e ff c2 f5 be bd b4 1c bf 7e 86 b3 be
       0.26819652 -0.48000333 -0.61213285 -0.35063547
0001f0 72 f9 36 bf 60 c0 36 3d 9f fe bf be 57 7a de bd
       -0.71474373 0.044617057 -0.37498948 -0.10863178
000200 05 1c 07 3f 9c f3 94 3d f6 ea 22 37 36 28 b7 3e
       0.5277713 0.07273027 9.710659e-06 0.35772866
000210 56 fc 97 3e d8 1e f0 be ab f5 83 3e 6e 0a 34 be
       0.29684705 -0.46898532 0.25773367 -0.17582104
000220 15 3f 82 be 02 f7 47 3d 5e e9 d9 be 2b f0 15 3f
       -0.25438753 0.04881955 -0.42560858 0.5856959
000230 f3 ad e4 bd fb c7 d8 3f 90 df 4a bf d6 31 bb be
       -0.11165991 1.6936029 -0.7924738 -0.3656146
000240 c0 00 90 be f0 3a a8 be d2 0d 9b be 11 87 82 be
       -0.28125572 -0.32857466 -0.30283982 -0.25493672
000250 a8 5b 5e be e7 56 d9 bc b8 8a 22 bf 2f 44 d0 be
       -0.21714652 -0.026530696 -0.6349292 -0.4067702
000260 35 96 00 bf d3 a2 28 3e 26 58 08 bc 60 c4 74 bd
       -0.502292 0.16468363 -0.0083217975 -0.05975759
000270 9e a4 90 39 46 88 53 be d1 3d cc bd 02 0b 6a bf
       0.0002758847 -0.20657453 -0.09972728 -0.91423047
000280 d6 8f 17 bd 0a b6 e9 3d 5c bb 79 3e 74 bf 54 bf
       -0.037002407 0.11411674 0.24387878 -0.83104634
000290 9e ed 43 3e c7 8d 34 bf 4a 79 cd 3e bc 95 87 3d
       0.19133613 -0.70528835 0.401316 0.066203564
0002a0 46 9e 20 3e 58 b8 45 bf 25 f7 a3 be 4d a4 8c bc
       0.15685377 -0.7723441 -0.32024494 -0.017168188
0002b0 89 20 36 be dc 60 9c be 8f 32 ac be 99 46 36 bf
       -0.17785849 -0.30542648 -0.33632323 -0.71201473
0002c0 3b 88 d3 be a2 ab df bc 5d 69 99 bd 39 48 0a be
       -0.41314873 -0.02730352 -0.074907996 -0.13504113
0002d0 d1 41 f0 3e 36 cb 94 bd 7e 25 ac bd d3 97 4d 3e
       0.46925214 -0.07265322 -0.084055886 0.20077448
0002e0 92 72 10 be bd 4b cc 3e a3 4d 51 bd f5 dc 31 bf
       -0.14106205 0.39901534 -0.05109943 -0.6947778
0002f0 44 ce 6a 3e a1 e1 64 be c2 6d d4 be 91 f5 16 3d
       0.22930247 -0.22351696 -0.4148999 0.036855284
000300 cd 4c 47 bd 4a 40 7a 3e c1 92 10 3e 79 20 ac 3d
       -0.048657227 0.24438587 0.14118482 0.08404631
000310 b5 01 88 be 20 b0 f4 bd cb af bc 3e 46 37 09 bf
       -0.26563802 -0.11947656 0.3685287 -0.53599966
000320 04 bf 01 bf 7c f9 aa bc df f7 88 be 34 c4 b2 3e
       -0.5068209 -0.020870917 -0.2675161 0.34915316
000330 ba b7 c2 bd 70 69 dc bd d7 6d b2 be b7 52 ad bd
       -0.09507699 -0.10762298 -0.34849426 -0.08463042
000340 1d f1 c8 bd b8 b8 1c be c8 7b a2 3e 20 26 2f 3d
       -0.09811614 -0.1530484 0.31735063 0.04276097
000350 ce 77 fd 3b f1 75 da bd 06 33 0c 3c d7 26 ac 3d
       0.007735229 -0.10667027 0.008557087 0.084058456
000360 e5 91 5f bd 61 64 32 ba 54 71 97 3d c5 0c 2d bf
       -0.054582495 -0.0006805119 0.073946625 -0.6759761
000370 06 50 48 3d cc b7 c4 be 14 49 c2 ba dc a1 91 bc
       0.04890444 -0.38421476 -0.0014822804 -0.017777376
000380 49 9e 94 bd d5 4b b7 be 62 b7 1e bd d5 67 76 bd
       -0.07256753 -0.35800043 -0.038749106 -0.060157616
000390 af f8 7b 3d b4 87 a3 bd db d1 a3 bb 15 00 64 3d
       0.06151646 -0.07984868 -0.004999382 0.05566414
0003a0 b1 7a 02 bf 91 6c bf bd 1a 02 0a be 2a 78 85 be
       -0.5096846 -0.09346879 -0.13477364 -0.2606824
0003b0 94 ce df bd d0 d1 b4 3d 3d fc a5 bd 4f b8 e1 bd
       -0.109280735 0.08829081 -0.08104751 -0.11021482
0003c0 d8 56 bf 3c 8e 0e 2c 3d af 58 1e 3d c5 c0 a7 be
       0.02335684 0.042006068 0.038658794 -0.3276426
0003d0 c6 0c 78 3e 94 cc 82 3d 76 21 6c be 31 d6 95 be
       0.24223623 0.063866764 -0.2305964 -0.29264978
0003e0 3c f2 f6 bd b9 96 aa 3e 1e 65 60 3e 31 b8 0a 3d
       -0.12057921 0.33318117 0.21913573 0.033867065
0003f0 2a b8 05 3e 87 86 3e 3d 78 5b 58 3c b4 f8 cb bd
       0.13058534 0.046515014 0.013205402 -0.09959546

linear.1.bias f4 [16]
000000 f6 8e 58 3c 4a 58 c8 3c 85 5c 27 3d b2 b1 4b bd
       0.013217678 0.024456162 0.040859718 -0.04973001
000010 82 43 0d be 81 b7 3e 3d df 44 08 bd 00 97 69 bd
       -0.13795283 0.04656172 -0.033268806 -0.05702877
000020 76 3f db bc 09 b6 7f 3b 72 65 2f bb 32 8f a7 3d
       -0.026763659 0.0039018414 -0.0026763347 0.08181609
000030 0c 79 fa bb 26 25 90 3c 91 9c 64 ba 3f 01 41 3d
       -0.0076438244 0.017595839 -0.000872084 0.04712033

linear.2.weight f4 [16, 947]
000000 17 92 05 bc 43 b5 32 bd 81 5a a7 bd fe 3d 1b bc
       -0.008152506 -0.043629896 -0.08171559 -0.009475229
000010 6e 56 29 bd 74 9e 7a bd 20 6c 8b b4 6b b1 b5 3c
       -0.04134219 -0.06118627 -2.596944e-07 0.022179326
000020 3c 4c d5 bd ab 27 36 bd 5b a3 04 bd 2a b9 a1 bd
       -0.10414931 -0.044471424 -0.03238235 -0.07896645
000030 32 2c 84 bc aa 09 1f bd f6 fc 45 36 ed dc 45 bd
       -0.016134355 -0.038827576 2.950253e-06 -0.048306394
000040 b3 83 c5 bc c3 2f 67 bd 8e d8 98 bd ab 05 83 bd
       -0.02411065 -0.056442033 -0.074631795 -0.063975655
000050 bd f8 da bd 10 c2 b9 bc f0 c7 25 bd 66 28 60 bd
       -0.10691974 -0.022675544 -0.04047388 -0.054726027
000060 04 8f ee bc 17 fc a2 bc 72 36 90 bd 34 c1 a0 bc
       -0.02912093 -0.019895596 -0.070416346 -0.019623376
000070 ce 98 26 c0 22 54 87 bd 67 bc 99 bd 47 5a 04 bd
       -2.6030765 -0.06607844 -0.07506638 -0.032312658
000080 94 15 b7 b7 4b d1 4e bd 12 8f 23 bd ed 3d b4 bd
       -2.1825348e-05 -0.050492566 -0.039931364 -0.08800874
000090 d9 e4 e4 bc b9 a2 0d bd 2b 4c 7e bd 32 87 6f be
       -0.027941154 -0.034579013 -0.06208436 -0.23391417
0000a0 e0 6c 5d bd 0f e8 19 bd af 8d f7 3b 8a 3c 1e bd
       -0.05405891 -0.037574824 0.007554732 -0.038631953
0000b0 1e 35 59 bd 9d f9 06 be fe c3 20 bd 7f 0b a1 bc
       -0.053029172 -0.13181157 -0.039249413 -0.019658802
0000c0 55 25 ba 3b 24 dc 27 be e2 6a 75 bd cb 14 5f bd
       0.00568072 -0.1639257 -0.059916385 -0.05446319
0000d0 40 7a f3 bc 05 f9 48 bd 1b 7e 96 bd 78 0e 45 bc
       -0.02972138 -0.04906561 -0.073482715 -0.012027375
0000e0 ce fe d7 bd 03 84 3b bd a7 0c 44 bd c3 ba 9f bc
       -0.10546647 -0.045780193 -0.04786363 -0.019498235
0000f0 7a 45 0e 3d 11 f6 d0 bc 2f c3 28 bd ea 46 6d 3d
       0.034734227 -0.025507959 -0.041201767 0.057928957
000100 28 8c aa bd fe 7f 61 b7 67 45 01 3e 33 44 72 bd
       -0.08327514 -1.3440846e-05 0.12624131 -0.05914707
000110 2c 9f 8c bd ad 6b a3 3e e8 c7 25 bd f7 f8 72 bd
       -0.06866297 0.31918088 -0.04047385 -0.059319463
000120 08 28 4e bd 9e 41 84 bc 3d 39 b0 bc 32 cf 63 bd
       -0.050331146 -0.01614457 -0.021511668 -0.05561752
000130 50 c6 d4 bd 2a 60 9e bd 0d ff 71 bd 2b 9d 80 bd
       -0.103893876 -0.077331856 -0.059081126 -0.062799774
000140 01 75 c2 bc 52 e2 00 bd 7b 55 e9 bc 00 06 47 bc
       -0.023737432 -0.031465836 -0.028483143 -0.012147427
000150 85 d1 89 bd 9b fc 87 bd 69 36 91 bc 2f d3 1c bd
       -0.06729416 -0.066399775 -0.01772614 -0.038287338
000160 0f e2 b6 3c 2a f5 e0 bc 09 70 6c bd 86 5d c2 bc
       0.02232459 -0.027460653 -0.057724033 -0.023726236
000170 96 5d f1 bc 0f 19 c5 3b 74 65 c2 bd 73 4b e1 bd
       -0.02946357 0.00601495 -0.09492007 -0.11000719
000180 83 fc 90 bd e9 06 3e 3d 17 77 8f bd 14 b7 f6 bd
       -0.07079413 0.04639331 -0.070051365 -0.12046638
000190 60 73 45 bd 40 ce 9f bc 82 b4 58 bd 00 19 52 bd
       -0.048205733 -0.019507527 -0.05290652 -0.051293373
0001a0 f5 31 c9 bd 8a 9e 59 be 24 56 7a bd 5f d6 12 bd
       -0.09823982 -0.21251884 -0.061117306 -0.03584897
0001b0 4e 80 ba bd 1b 84 3d bd 31 69 ba bc 8c 62 8e bd
       -0.091065034 -0.046268564 -0.022755237 -0.0695239
0001c0 a7 8f 04 bd 2a 18 80 bc 8e 7b 72 bf 4d a3 d3 bc
       -0.03236356 -0.015636522 -0.9471978 -0.025834704
0001d0 6b 1e 11 bd 8b 9c 24 bd 20 13 38 3d 04 4f e8 bb
       -0.0354294 -0.040188354 0.044940114 -0.0070894975
0001e0 e4 b2 40 bd 24 c8 ef bc 42 ac 12 bd 75 e2 88 bd
       -0.047045603 -0.02927024 -0.03580881 -0.06683818
0001f0 f1 50 2b bd cb a0 1d bd 43 6a 2e bd ec c7 4d bd
       -0.04182524 -0.038483422 -0.042581808 -0.05023949
000200 b0 f9 f0 bd ba 7e c8 bb 48 0b 47 37 f6 ff f3 3c
       -0.11766374 -0.0061186226 1.1863951e-05 0.029785138
000210 26 af 5c bd f4 c2 15 bd b8 6e 98 bd 45 12 3e bc
       -0.053877972 -0.036562875 -0.07442993 -0.0116010355
000220 44 7a 50 b7 42 e9 3b bd de 59 50 bd 1e 85 f0 3d
       -1.2426233e-05 -0.04587675 -0.050866954 0.1174414
000230 45 9d 4a 3d ca 94 d9 3e c6 a8 8b bd d7 ee cc bc
       0.04946639 0.4249633 -0.068193 -0.025016231
000240 64 ce a5 bc 9b 82 22 bd 11 2a 30 bd 41 4f 00 bd
       -0.020240016 -0.039675336 -0.043008868 -0.031325582
000250 1a 63 d4 bc 21 e1 23 bd 78 ae 0a bd 80 92 de 34
       -0.025926162 -0.04000962 -0.033857793 4.1457315e-07
000260 55 77 ca bd 1a 68 96 bd d9 d6 cb bc c6 86 97 bd
       -0.09886042 -0.073440745 -0.02488272 -0.07398753
000270 f5 56 62 bd 6f 96 76 bd 08 90 fd bc 3e 36 95 bd
       -0.05525871 -0.06020206 -0.030952469 -0.072857365
000280 82 bc dc bc 62 cb 0f bd 74 65 ee bd e0 cc 0f bd
       -0.026945356 -0.03510607 -0.116404444 -0.035107493
000290 0a 0c 44 bd f4 99 a0 bd 1c a0 15 bd 03 76 03 bd
       -0.047863044 -0.07841864 -0.036529645 -0.032094967
0002a0 c3 97 08 3c 52 c9 6a bd ca 74 8b 3e 1c 73 1b bc
       0.008336964 -0.0573209 0.2723754 -0.009487893
0002b0 af 98 46 bd 2c 6c 58 bd b8 0d 0f bd 89 01 ca 36
       -0.048485454 -0.052837536 -0.034925193 6.020248e-06
0002c0 a2 e5 c7 bc 8a 3b d7 bc d5 4c e4 bb f5 01 79 bd
       -0.02440149 -0.026273508 -0.006967167 -0.060792882
0002d0 55 65 01 bd c7 96 88 bd f1 b9 b0 bd 11 03 a8 bd
       -0.03159078 -0.066693835 -0.086292155 -0.0820371
0002e0 40 da 6c bc dd ad 2f bd d2 6a e4 3b e4 97 b3 bd
       -0.014456332 -0.04289042 0.006970742 -0.08769205
0002f0 ce 34 f1 3c d1 76 1b bd 6a 30 87 b6 9a 25 a4 bc
       0.029444125 -0.03795511 -4.0289497e-06 -0.020037461
000300 b1 d4 31 bd f1 f2 47 bd f2 66 1b bd b5 48 df bd
       -0.04341573 -0.04881567 -0.037939973 -0.1090254
000310 ae e1 20 bd 10 ea 97 bd d0 ff da bd f2 9c 23 bd
       -0.039277725 -0.07417691 -0.106933236 -0.039944597
000320 35 33 d0 bc ec b5 9d 3b 15 ae 8c bc 98 e6 a7 bd
       -0.025415042 0.0048129465 -0.017172853 -0.08198279
000330 66 3e 83 bd 80 d9 86 bd 8d c6 6a 3d a0 e9 e8 3c
       -0.06408386 -0.065844536 0.05731826 0.028431714
000340 cb dd a6 bd bf 1e 5a ba 96 9e 15 bd 4d d5 fa bb
       -0.081477724 -0.00083206216 -0.036528192 -0.007654822
000350 75 43 42 bd 5b 2f 35 3a 30 58 a9 bc 6d c8 9d 3c
       -0.047427613 0.00069116586 -0.020671934 0.01926061
000360 d4 89 87 bd 49 9c c6 3c 60 71 07 bd 53 07 fa bc
       -0.066180855 0.024244444 -0.033067107 -0.03052107
000370 cf 50 65 bc 93 14 ae bd f1 c3 d2 bb 60 f8 8e bc
       -0.013996317 -0.08500018 -0.0064320494 -0.017452419
000380 89 cb 76 bd 05 44 a0 3d 8c 57 18 bd 5f f5 5b bc
       -0.0602527 0.07825474 -0.037192866 -0.0134252
000390 41 f0 77 bd 02 af 48 bd cc 96 6d bd bb 67 9b bc
       -0.06053186 -0.048995025 -0.05800514 -0.018970361
0003a0 f8 68 8f bd af 9a 4d bd 70 d5 b0 3c 50 d0 92 3d
       -0.07002443 -0.050196346 0.02158615 0.07168639
0003b0 5e 89 1c 3e 51 59 0b 3c d6 6a 47 bd 39 87 6a bb
       0.15286776 0.008505181 -0.04868587 -0.0035786165
0003c0 f2 68 a1 3a 94 9e b0 bc dc 7c 22 bb 0a 82 cb bb
       0.0012314601 -0.021559991 -0.002479366 -0.00621057
0003d0 dd db 8d bd 46 90 00 bd 9b 9d 4e bd b3 00 8b bd
       -0.06926701 -0.03138759 -0.050443273 -0.06787243
0003e0 3e 33 ad bd 91 99 9f bd 1a 80 73 bd c6 8d 79 3b
       -0.08457039 -0.07792962 -0.05944834 0.0038078888
0003f0 ad d1 a2 bd 25 03 f6 3b 0d b6 23 bc f1 66 94 bb
       -0.07950149 0.007507699 -0.009992135 -0.004528873

linear.2.bias f4 [16]
000000 d6 44 83 bb ba 6c 6e 3b 6e be e5 bd 0f 7b 05 be
       -0.0040060086 0.0036380724 -0.11217962 -0.13035224
000010 5c da f1 bd dc 15 3d bd e7 84 bb bd 64 56 5c bd
       -0.11809227 -0.046163425 -0.091562085 -0.053793326
000020 fa 3d 8e bc 73 c0 9c bd 6e eb 6e bd 7f d7 f3 bd
       -0.017363537 -0.07653894 -0.058329992 -0.11906337
000030 6b 6c d6 bd ac b5 80 bd 6b 36 2f bd 5d 93 70 bc
       -0.10469898 -0.06284651 -0.042776506 -0.014683572
