Data/model_results_unphased_all_PRS/logistic_regression/onnx_models/final_model_chr1.onnx (onnx, 325374 bytes, 6 tensors)

linear.0.weight f4 [30, 899]
000000 bf aa c0 bc 7b 6e 1e be 93 a7 63 3d 36 94 5c 3e
       -0.023518918 -0.15471832 0.055579733 0.21540913
000010 3e ba b8 be f6 1d 06 3d 98 10 4e bf 4b 31 46 3e
       -0.36079592 0.032743417 -0.8049407 0.19354741
000020 bb 38 68 3f 78 22 7e 3d b5 b1 c0 3e 90 1f a8 be
       0.90711564 0.06204459 0.3763558 -0.3283658
000030 2c 2e b5 be 67 3e 5c 3e 05 bb 44 be 9e 68 54 bf
       -0.3538679 0.2150818 -0.19211967 -0.82972133
000040 1d 2f 85 be 0c 04 bc 3e fb e9 05 bd 15 0c da 3d
       -0.26012507 0.36721838 -0.032693844 0.10646836
000050 81 af 93 3e a9 12 9b 3e 46 32 4f bf 88 60 d5 bd
       0.28844836 0.30287674 -0.80936086 -0.104188025
000060 33 ce 0b bf 5c 01 94 3e 90 57 ea bc 5f 31 10 3e
       -0.5461151 0.28907287 -0.028606206 0.14081334
000070 09 b7 c1 3f 0d d4 1b bf 86 52 65 be f8 fd 7f 3e
       1.5133983 -0.6087044 -0.22394761 0.24999225
000080 af 82 51 bf 80 60 f9 3d 14 2c 89 3d 23 65 e2 3e
       -0.8184003 0.12176609 0.0669786 0.44217786
000090 a4 a4 fb 3e 19 da 2b 3e 06 79 df 3e 71 c8 a1 be
       0.49149048 0.16782416 0.4364702 -0.31598237
0000a0 84 d1 a2 3d b5 1b 3e 3d af ba e4 bd 5a c3 23 be
       0.07950118 0.046413142 -0.111684196 -0.1599249
0000b0 eb 35 8c 3e 71 c2 27 bc eb a4 28 be 33 7b a8 3d
       0.27384886 -0.01023923 -0.16469161 0.082266234
0000c0 af 4e 05 be c2 ff 5c bf 3d 1a 37 3f 25 f4 19 3e
       -0.13018297 -0.86327755 0.7152441 0.1503454
0000d0 0f 6c 9d 3e 64 67 02 3f 14 af 0c 3d 2b e4 3c bf
       0.30746505 0.5093901 0.034346655 -0.73785657
0000e0 7d bd 15 3f 4a 1e ea 3e c7 ee 59 3b 27 4f 51 bf
       0.5849226 0.45726234 0.0033253895 -0.817614
0000f0 fc 59 76 bd b0 3e 6c 3e 25 0b 08 bf 9e f5 0f be
       -0.06014441 0.23070788 -0.53142005 -0.1405854
000100 63 2b 40 3f 0f 1d fd be b7 f2 d0 3e a8 09 dc 3e
       0.750662 -0.49436232 0.40810177 0.42976117
000110 d4 c3 97 3e 26 1e 8d be 30 a7 26 3d 0e ce 3c bd
       0.29641593 -0.27562064 0.040686786 -0.046094947
000120 16 0b 2c 3e 69 8b 8e be 7d 4f d3 be 47 15 03 bf
       0.16801104 -0.27840737 -0.41271582 -0.5120434
000130 0b ad 7d be ce b7 b5 bd b5 58 e1 bc 93 d3 93 3d
       -0.24773042 -0.088729486 -0.02750812 0.07218089
000140 d4 1f be be 8e 2b c6 be b9 ac 11 3e 1b de c6 3f
       -0.37133658 -0.38705105 0.14226045 1.5536531
000150 c2 a5 8c be 2e af f7 3e 2a 7d 67 3e 94 c4 81 3e
       -0.27470213 0.4837584 0.2260634 0.2534529
000160 f4 53 7e bf 74 01 0c bf 8d f8 13 bf d3 7d ec 3d
       -0.9934685 -0.5468972 -0.57801133 0.115474366
000170 09 11 5e bc e1 16 7e be ef 22 ec 3e d2 e0 30 be
       -0.013553866 -0.24813415 0.46120402 -0.17273262
000180 07 2d 8b 3d f1 f2 b9 3e d5 78 8a be f3 49 fc 3d
       0.06795698 0.36318162 -0.27045313 0.12318792
000190 bb 16 66 be 66 c3 0d 3e 93 42 1e bf 2e a4 02 bc
       -0.22469608 0.1384407 -0.61820334 -0.007973714
0001a0 56 65 87 bf a7 06 d8 bd 50 da a7 be fc 7c c2 3e
       -1.05778 -0.10548144 -0.32783747 0.3798598
0001b0 a8 12 40 bc 05 02 81 be 9f c2 a1 3e a9 7b 16 bf
       -0.011723198 -0.25196853 0.31593797 -0.5878244
0001c0 8f 70 60 3d 2e 66 f5 3e 3a 10 9b 3e 43 73 9a be
       0.054794844 0.4792952 0.30285817 -0.30166063
0001d0 75 0b 4b 3f 0f d6 97 3e f1 ce 3d be f6 99 12 be
       0.7931436 0.296555 -0.18535973 -0.14316544
0001e0 2a 50 8d 3e 19 63 a3 bc e3 ea 9b be f8 df 29 40
       0.27600223 -0.019944714 -0.30452642 2.654295
0001f0 5c d6 ae 3e 68 18 b9 bf 61 29 da be ce ed e9 3c
       0.34147918 -1.4460573 -0.42609695 0.028555777
000200 4a ed 83 3e 6f 4e f1 bd 2a e3 66 be 9c 88 ef 3d
       0.25766975 -0.11782538 -0.22547594 0.11695978
000210 90 6d 89 3f 62 4c 0e 3e c3 f9 70 bf 1f 27 29 c0
       1.0736561 0.13896325 -0.94131106 -2.6430128
000220 6d 18 19 3e 8c 21 22 3f 0b 30 cf be bc c0 13 be
       0.14950724 0.6333244 -0.4046634 -0.14428991
000230 1b de 16 3f f4 0d a4 3e b0 84 78 3e b2 8e 07 3f
       0.58932656 0.32041895 0.24269366 0.5295211
000240 c6 4e 6e 3d 1c a2 c4 be a2 78 c3 bd a0 33 95 3e
       0.058180593 -0.3840493 -0.09544493 0.2914095
000250 40 16 53 3c 5d 88 c4 be 24 7f a1 3e a1 59 09 bf
       0.012883723 -0.38385287 0.31542313 -0.5365239
000260 0b 9d 61 3e 82 cb 55 3e 4d 5a fa 3e 7d 80 88 be
       0.22032563 0.20878413 0.4889702 -0.2666053
000270 f9 55 83 3e 59 2f 34 3f 09 2b 9d 3d b5 45 c4 be
       0.2565153 0.70384747 0.07674224 -0.38334432
000280 ad 6a 97 3e c5 36 b7 3e e5 e7 de 3d dd f5 0c bf
       0.29573575 0.35783973 0.10884074 -0.5506266
000290 22 11 47 bf 11 4b cf be 72 91 78 be ff 45 d8 be
       -0.7776052 -0.4048696 -0.24274233 -0.42240903
0002a0 59 eb e7 be 62 b7 36 3f f4 3c 5d 3e 5e 3b 9b 3d
       -0.45296744 0.7137357 0.21605283 0.07579683
0002b0 09 89 d8 3e 64 c7 3e bf dc d4 d0 be 5a a0 50 be
       0.4229205 -0.74522996 -0.407874 -0.2037367
0002c0 c2 3b 99 bf ff 50 22 be 14 9e 4d 3d 39 c8 a2 bf
       -1.1971362 -0.1585121 0.050199583 -1.2717353
0002d0 45 15 1e 3f e2 ca c7 bd 17 bb 3c be 3f 60 1c be
       0.61751205 -0.09755494 -0.18430744 -0.1527109
0002e0 1c 74 01 3f 71 86 13 3e e3 8e 90 3f be 13 3a be
       0.50567794 0.14406754 1.1293606 -0.18171594
0002f0 c8 c3 33 bd 6c df d2 3e 55 57 d4 be f3 e6 61 bc
       -0.043887883 0.41186082 -0.4147288 -0.013787973
000300 b8 78 bd be 76 a6 7f be bf 5b 84 3e 1b cf fe 3d
       -0.37006164 -0.24965844 0.25851247 0.12441846
000310 9b b9 b0 3e 4c a9 eb bb 3a 19 2f bf 91 16 ee bd
       0.34516606 -0.0071918126 -0.6839787 -0.11625398
000320 71 f3 7f 3e dd 4c 33 be be 05 0b bf fc 68 9c 3e
       0.2499521 -0.1750979 -0.54305637 0.30548847
000330 a0 0e 55 be 92 8f 28 3f 68 b2 a5 3e ff 0a 50 3e
       -0.2080636 0.6584407 0.32362676 0.20316695
000340 f5 59 54 be 2d 46 06 3e 4f 7e 5b be 07 6d 89 bf
       -0.20737441 0.13112707 -0.21434902 -1.0736398
000350 38 e9 40 3f f6 8f 48 bb 9d 25 9b be 21 77 84 3d
       0.75355864 -0.0030603386 -0.30302134 0.064680345
000360 58 63 cc bd 3f 84 2f be 01 da cb be 46 17 77 3d
       -0.09979886 -0.17140292 -0.3981476 0.06032493
000370 2a a4 50 bc a3 f9 4b 3f f2 c0 07 3e fa b0 f4 3c
       -0.012734452 0.7967779 0.13257197 0.029869545
000380 f3 3f d4 be 86 0e d7 be 4f 68 f5 bc ed 0a 88 be
       -0.4145504 -0.42003268 -0.029956965 -0.26570836
000390 72 2c c4 3d 4c 36 1e bd fd 91 f5 be 1c 3f a6 3c
       0.0957879 -0.038626 -0.47962943 0.020293765
0003a0 92 d1 bc be c0 da b5 3e a8 7f 30 3d 4c 61 40 3e
       -0.3687864 0.35518456 0.043090492 0.18787116
0003b0 85 fc 26 3f 4c 51 2c 3d 57 33 b8 3d 66 a8 66 3e
       0.65229064 0.04206972 0.08994167 0.22525176
0003c0 f4 f2 25 3e b6 5c 13 3e 0e df 0d be 74 c6 07 be
       0.1620596 0.14390835 -0.1385462 -0.13259298
0003d0 c0 95 d7 3f 6c 8e d3 3e c0 5b d5 3e 0d e3 17 3d
       1.6842575 0.41319597 0.41671562 0.037081767
0003e0 9f 15 fc bc 7b 23 82 3f d0 3e 6c bf 6f e2 0e be
       -0.030772028 1.0167078 -0.92283344 -0.13953565
0003f0 f0 b1 ec be 85 94 2d 3f 0c 03 50 3e b6 9c 40 3f
       -0.46229506 0.6780475 0.20313662 0.7523912

linear.0.bias f4 [30]
000000 ae 92 d0 3c 13 62 18 3e 03 97 11 3c 14 6a 20 3e
       0.025460567 0.14881162 0.008886102 0.15665466
000010 7b 9f a0 bd 4b e8 02 3e 8b 59 a9 bd a4 2b 06 3e
       -0.078429185 0.12783925 -0.08269032 0.13102585
000020 b4 ab 9e bd 68 98 ea 3d 24 51 6b 3d 03 35 88 3d
       -0.077475935 0.114548504 0.05745043 0.06650736
000030 e1 3d bb 3d dc c4 59 3d a2 9d ae bd e1 b3 63 3d
       0.09142662 0.053166255 -0.0852616 0.055591468
000040 37 35 f5 bd 02 02 ab 3c 4b 9f 34 3d 63 42 0b 3e
       -0.119730406 0.02087498 0.044097226 0.13599543
000050 9a 83 17 3e 70 27 03 3d 6a 59 5c 3d e9 a7 dd 3d
       0.14796296 0.032020032 0.05379621 0.10823042
000060 85 6c d6 3d f8 51 dd 3d 02 a6 74 3c 04 81 05 3d
       0.10469917 0.1080665 0.0149321575 0.032593742
000070 09 dc 6d bd 34 e2 cc 3c
       -0.05807117 0.025010206

linear.1.weight f4 [30, 899]
000000 cf 9e 4e 3d 5b 02 99 3d 06 81 ff bc 28 7f 19 be
       0.05044442 0.074711524 -0.031189453 -0.14989913
000010 04 70 b6 3e 6a 9d 08 bd 72 33 36 3f ac 10 6a be
       0.35632336 -0.033353247 0.7117225 -0.22857922
000020 bf d3 4e bf 67 e1 92 bd ca d9 c7 be 4d e3 ac 3e
       -0.8079185 -0.07171898 -0.39033347 0.33767167
000030 48 a3 8d 3e 62 b4 78 be de 84 0c 3e c0 72 6b 3f
       0.27663636 -0.2428756 0.1372256 0.9197197
000040 e7 50 8c 3e bd fe ab be ec 59 38 3d 27 dd d7 bd
       0.27405474 -0.33592787 0.04500763 -0.10540228
000050 4b 78 82 be 14 c8 5b be 15 de 50 3f ce ba e9 3c
       -0.254824 -0.21463042 0.8158887 0.028531458
000060 07 3e 03 3f 86 a9 b4 be 42 5c a7 3d 99 7a b4 bd
       0.5126652 -0.35285586 0.08171894 -0.08812446
000070 6d f4 c2 bf e7 8c 13 3f 01 a8 71 3e 1a 73 2a be
       -1.5230843 0.57636875 0.23599245 -0.1664547
000080 37 d3 54 3f ed 2f 08 be 06 4c 5f bd 09 6b e2 be
       0.8313479 -0.13299532 -0.05451586 -0.44222286
000090 08 53 f9 be 9b 63 89 be f6 5a f7 be 70 15 e7 3e
       -0.4869616 -0.26833805 -0.48311585 0.45133543
0000a0 24 6a ca bd 08 ef 18 bc bf 6f 97 3d 75 87 13 3e
       -0.09883526 -0.009334333 0.07394361 0.14407142
0000b0 b7 86 89 be c9 3b 94 bc f4 ea 81 3e 85 87 dc bd
       -0.26860592 -0.018094914 0.25374568 -0.10768036
0000c0 f5 73 1f 3e 29 e9 56 3f e9 3c 29 bf 8a ff 0c be
       0.15571578 0.83949524 -0.66108567 -0.13769355
0000d0 9e d4 78 be 79 2b 17 bf 92 ca e8 bd c4 1e 31 3f
       -0.24299857 -0.5905071 -0.11366762 0.6918757
0000e0 68 58 1a bf b5 57 e5 be e3 6f d5 3c a9 36 4a 3f
       -0.6029115 -0.44793478 0.026054328 0.78989655
0000f0 c1 65 ea 3d 8a 90 93 be 33 d3 f6 3e b1 5b 1b 3e
       0.11445189 -0.28821212 0.48208007 0.15171696
000100 95 98 57 bf 32 51 d6 3e 48 38 05 bf e3 bb be be
       -0.84217197 0.41858822 -0.52039003 -0.3725272
000110 3c 86 ef be d1 09 78 3e 1a 62 d6 bc 02 74 b8 3d
       -0.467821 0.24222495 -0.026169825 0.09006502
000120 46 1a 2f be 34 d1 bc 3e 36 d0 f3 3e ae 86 0a 3f
       -0.17099866 0.3687836 0.4761979 0.54111755
000130 d9 6f b5 3d 74 63 be 3d 2d 6a dd 3d 59 37 0a be
       0.08859224 0.09296313 0.10811267 -0.13497676
000140 09 05 a5 3e f5 8c be 3e a3 07 a4 bd 68 eb c1 bf
       0.32230404 0.37216917 -0.08009269 -1.5149965
000150 ae 6e 92 3e 7e 0b 17 bf 8e f6 18 be 69 03 8d be
       0.28600067 -0.5900191 -0.14937803 -0.27541664
000160 e1 f4 86 3f bc 56 0e 3f 0a a9 fa 3e fa 9a 11 be
       1.0543481 0.55601096 0.48957092 -0.14219275
000170 9a fe 13 3d 4b 9e 84 3e ed cf 0a bf d3 8a 3f 3e
       0.03613148 0.25902018 -0.5422352 0.18705301
000180 e7 b5 6b bd ca 79 a5 be 7d 60 98 3e 90 d8 15 be
       -0.057546522 -0.3231948 0.29761115 -0.14633393
000190 b3 c2 94 3e 64 dd 16 be 9e 92 0c 3f d6 79 35 be
       0.29054794 -0.14732891 0.5491122 -0.17722258
0001a0 d1 5e 91 3f 83 4d 67 3c ab ee 99 3e 0c 59 d2 be
       1.1357061 0.014117601 0.30064902 -0.41083562
0001b0 04 66 7b bd 57 df 6e 3e 9b 21 98 be 3f a8 16 3f
       -0.061376587 0.23327385 -0.2971314 0.58850473
0001c0 7b 7b 54 3d c6 15 df be ea a4 b0 be b9 6a 89 3e
       0.051875573 -0.435713 -0.3450082 0.26839235
0001d0 56 f2 33 bf 27 b4 a9 be 90 10 9e 3e 85 97 0b bd
       -0.7029165 -0.33145258 0.3087201 -0.034080047
0001e0 ea 73 44 be 5e 8d b7 3c 1b 71 a2 3e 0e 6c 2d c0
       -0.19184843 0.022406276 0.31726918 -2.7097201
0001f0 86 d4 b5 be 21 52 a7 3f 76 40 01 3f 77 1e 89 bd
       -0.35513705 1.3071939 0.50488985 -0.06695264
000200 6d 24 be be cc df 7f 3d 5d 63 5d 3e 58 b3 4d bd
       -0.37137166 0.06246929 0.21619935 -0.050219864
000210 03 b1 87 bf 90 e3 01 be fd 2a 60 3f 84 42 2b 40
       -1.0600895 -0.12684464 0.87565595 2.6759348
000220 97 dd 12 be 01 05 35 bf bd 4e 00 3f bf 2a 3d 3e
       -0.14342342 -0.7071076 0.50120145 0.18473338
000230 a2 2d 20 bf 96 fe c3 be db 11 7e be 95 aa 23 bf
       -0.6256963 -0.3828017 -0.24811499 -0.6393216
000240 8e b5 c0 bd 86 ef bb 3e 7d d2 f7 3c d7 c7 46 be
       -0.09409629 0.3670618 0.030251736 -0.1941217
000250 58 51 90 bd c4 e4 df 3e 94 43 9b be 6c 1a 11 3f
       -0.07046765 0.43729222 -0.30324996 0.5668094
000260 b6 cd 78 be 7e 16 97 be 22 15 d3 be ea dc 5d 3e
       -0.24297222 -0.29509348 -0.4122706 0.21666303
000270 a4 d1 8e be 9c 21 35 bf 99 e9 e5 bd 9e e9 a3 3e
       -0.27894318 -0.7075441 -0.11226196 0.32014173
000280 d9 a1 96 be a9 6e af be 22 f7 a8 bd 87 b4 02 3f
       -0.29420355 -0.34264114 -0.08250262 0.5105671
000290 28 d9 56 3f 6a 91 d3 3e ce 8a 83 3e d9 59 fa 3e
       0.83925104 0.4132188 0.25691837 0.48896673
0002a0 73 71 cd 3e 60 b3 51 bf 3a 0d 59 be cd 44 22 bc
       0.40125617 -0.8191433 -0.21196452 -0.009904099
0002b0 40 6d c6 be 87 17 24 3f 2b ac e3 3e 4f 0a 5a 3e
       -0.38755226 0.640984 0.4446729 0.21292995
0002c0 01 8b a2 3f 48 84 dd 3d 36 08 b8 bd 24 7e 9b 3f
       1.2698671 0.10816246 -0.08985941 1.214787
0002d0 d5 4e 20 bf b5 c9 2a 3e db 57 29 3e bd 7f fa 3d
       -0.6262029 0.16678508 0.1653742 0.122313954
0002e0 3b 1b 0a bf 2a 23 19 be 08 0a 8b bf d9 90 72 3e
       -0.539478 -0.1495482 -1.0862436 0.23688067
0002f0 cd 3d 0a bd 24 25 d6 be 73 6a c6 3e a9 e6 f7 3b
       -0.033750344 -0.4182521 0.3875309 0.0075653386
000300 04 83 d5 3e ac a8 a4 3e 02 07 84 be a3 fd 05 bd
       0.4170152 0.32159936 -0.25786597 -0.03271259
000310 23 53 ae be ba 99 83 3d b2 29 26 3f 89 c2 e3 3d
       -0.34047803 0.064258054 0.6490737 0.11121089
000320 5a 1d 5f be 0b 3e 1d 3e d9 e8 0f 3f 1d 8c d8 be
       -0.2178854 0.15355699 0.5621467 -0.42294398
000330 6a 87 37 3e 8b 13 30 bf ce 08 ba be ad 4a 5a be
       0.1792275 -0.6877982 -0.36334842 -0.21317549
000340 b7 90 9c 3e f6 40 d0 bd 7f 91 18 3e 94 c9 8a 3f
       0.3057916 -0.1016864 0.14899252 1.0842767
000350 35 60 57 bf 92 7e 67 bd 60 72 6e 3e b8 6f bf bd
       -0.84131175 -0.05651719 0.23285818 -0.093474805
000360 9e 3c 5b 3d 72 63 51 3e d5 36 c6 3e 1b 4e 4f bd
       0.053524606 0.20448092 0.3871371 -0.050611597
000370 c8 54 c9 bc c9 aa 41 bf e7 8c 5c bd dc 0f 00 bd
       -0.02457656 -0.7565122 -0.053845312 -0.031265125
000380 ef 2c d0 3e a4 11 d6 3e 72 ad 53 3d 03 1d 9c 3e
       0.40659282 0.41810334 0.051679082 0.30490884
000390 a6 fc c7 bd b0 8e a0 3c c3 43 f3 3e 60 e1 37 3d
       -0.09764986 0.019599289 0.47512636 0.04489267
0003a0 ff da a6 3e 62 bc c5 be 4f ed a3 bd 18 c2 56 be
       0.32588956 -0.38620287 -0.080042474 -0.20972478
0003b0 b7 dd 33 bf 96 f5 47 bc ec 21 c5 bd 45 d8 55 be
       -0.70260185 -0.012204548 -0.09625611 -0.20883282
0003c0 ad 68 e3 bd 02 30 21 be 34 95 1b 3e 4d e3 01 3e
       -0.1110395 -0.1574097 0.15193635 0.12684365
0003d0 84 89 d8 bf 76 ee 9e be 24 a8 d0 be 2b 94 83 bc
       -1.6916966 -0.31041306 -0.4075328 -0.016061863
0003e0 ac 51 d7 3d 57 e9 7d bf 8f 4c 6e 3f f2 da 38 3e
       0.105136245 -0.99184173 0.9308557 0.18052271
0003f0 f1 08 c9 3e 6d 70 1a bf ca f6 66 be 47 3c 40 bf
       0.39264634 -0.603278 -0.2255508 -0.75091976

linear.1.bias f4 [30]
000000 b3 aa 42 bb 3a ff 9e bd 06 30 2b 3d 83 b8 c4 bd
       -0.0029703795 -0.07763524 0.041793846 -0.09605505
000010 92 1d 7d 3d 64 6b 0f be 6d c1 18 3d a9 bb 11 be
       0.06179578 -0.1400581 0.03729384 -0.14231743
000020 08 1b 15 3d 16 86 82 bd ec 07 09 3d 77 1d 38 3c
       0.036402732 -0.06373231 0.03345482 0.011237494
000030 da 8b a0 bc 16 69 3d 3d 2b db af 3d b8 48 11 bd
       -0.019597936 0.046242796 0.08586725 -0.03546974
000040 3a e4 ea 3c 54 42 43 bb 21 8e fd 3d 7f ae a6 bd
       0.02867328 -0.0029794173 0.123806246 -0.08138751
000050 09 84 e6 bd bf f8 31 bd 91 e3 af bd 2c 02 c5 ba
       -0.112556525 -0.043450113 -0.08588327 -0.0015030554
000060 22 5a ff bd 17 6e 18 3d 0a f8 9c bc d2 d3 6d bd
       -0.12468363 0.037214365 -0.019161243 -0.058063336
000070 ee 46 47 3d 5c 37 1a bd
       0.04865163 -0.03765045

linear.2.weight f4 [30, 899]
000000 45 18 aa 3d 41 8f 26 3f 8c 0e 8f bd 94 79 0e c0
       0.0830541 0.6506234 -0.069851965 -2.2261705
000010 8e df 66 bd f3 41 0f 3e fb 8b 30 3f f8 d6 87 3e
       -0.056365542 0.13990001 0.68963593 0.26531196
000020 b2 8c a5 bf f4 eb 24 be 57 2a 9f 3d 0c 6f 3b bb
       -1.2933562 -0.16105634 0.077717476 -0.0028600125
000030 22 12 9f b9 6e d6 71 3d bd 27 f5 3e d6 34 ca bf
       -0.00030340353 0.059042387 0.4788188 -1.5797374
000040 52 1f 6b ba 24 ca 0f be 21 bd 36 bd 55 2d 53 3d
       -0.00089692057 -0.14041954 -0.04461396 0.051556904
000050 1e 20 37 be 9c ad 8e bf 8e d0 59 3c 82 f4 5c 3f
       -0.17883345 -1.1146731 0.013294352 0.8631059
000060 60 02 04 be f2 8e ad 3e ee c9 11 bf ef 5f bb be
       -0.12891531 0.3389812 -0.56948745 -0.3659663
000070 84 b0 cc 36 56 ae 7f 38 f2 46 aa 3a c4 9f fd be
       6.100223e-06 6.09591e-05 0.0012991114 -0.49535954
000080 dd 9d b1 bb 99 74 45 3d b0 a2 e0 be 2b 2d aa b9
       -0.00542043 0.0482069 -0.4387412 -0.0003245858
000090 03 58 b9 bb dc e2 38 3f f9 06 02 3f 14 77 14 c0
       -0.005656244 0.7222116 0.5079189 -2.319768
0000a0 55 ae 62 3d 77 f3 08 ba 85 1c 59 3e f7 d5 dd 3e
       0.055342037 -0.00052242674 0.21202286 0.43327305
0000b0 1b fd ba bd 3e fe 16 bc 94 01 71 bf 3f 5a f0 bd
       -0.09130307 -0.0092158895 -0.94143033 -0.11735963
0000c0 fd 91 09 bf 6f 23 c3 3c d8 b1 d5 be 4b e5 21 bb
       -0.53738385 0.023820607 -0.41737247 -0.002470332
0000d0 56 5b e8 bd 76 a8 16 3f 5d 7c e2 3e 18 57 6c 3b
       -0.11345546 0.588508 0.44235507 0.0036062654
0000e0 28 32 b9 3b 17 e2 bd bc 13 71 0f b9 79 20 aa 3d
       0.005651731 -0.023179097 -0.00013679666 0.08306975
0000f0 56 27 83 bd 8b 38 5d 3e 5d 5a 17 3f d6 50 7a bf
       -0.06403987 0.216036 0.5912226 -0.97779596
000100 71 08 87 3f 13 33 d0 3e 3b 09 9f 3f 38 a7 5c bf
       1.0549451 0.40663967 1.2424692 -0.86192656
000110 ac 16 29 3f 8e 49 76 3b 40 87 55 be f8 f9 41 be
       0.6605022 0.0037580463 -0.20852375 -0.18943012
000120 b9 1d 5d 3c c3 62 8b bf c0 ee c4 be 2d 9d 8c bd
       0.013495856 -1.0889515 -0.38463402 -0.068659164
000130 90 01 f0 3e 4e cc e1 be 38 4c fc be 76 66 00 3e
       0.46876192 -0.44101185 -0.492769 0.12539086
000140 13 c7 ed 3e be e3 51 bb dc f0 57 ba 70 06 92 bf
       0.46440944 -0.0032026614 -0.000823749 -1.1408215
000150 f4 12 a9 3e 3e d4 03 3f 5e f3 66 bf 76 1d 5d 3d
       0.33022273 0.5149573 -0.902151 0.053983174
000160 db 15 88 bf 6c bc cc bd ac 70 39 ba c2 9f 97 3e
       -1.063167 -0.09996876 -0.00070739794 0.29614073
000170 ca 4b 59 bd 78 78 02 bf 45 94 d3 3e 0a 4a 95 3b
       -0.053050794 -0.5096507 0.41324058 0.0045559453
000180 8f 77 92 3d 7f 85 ba be ad 9a fc bd 4e be 51 3c
       0.0715171 -0.36429974 -0.123341896 0.01280172
000190 33 e7 14 bf 99 4a 4c 3b 57 29 93 3e 7f 46 a7 3e
       -0.5816528 0.0031172393 0.28742477 0.32670972
0001a0 5f 86 8d bf 26 0a 05 3f 00 9c 96 bc ee 7d e6 3d
       -1.1056632 0.5196861 -0.018384933 0.11254488
0001b0 5c 02 6f 3e 4d 5e 6f be 8a 6b a9 bd 3c d3 f9 3b
       0.23340744 -0.23375817 -0.082724646 0.007624058
0001c0 22 6b 5a bf 7a 2d 1f 3b 21 85 1e 3f 5a 30 e8 3e
       -0.8531972 0.002428858 0.6192189 0.4534939
0001d0 cb 78 c2 bf a8 cd 79 3e d8 64 89 bf 94 6b a4 3f
       -1.5193113 0.24394858 -1.07339 1.284533
0001e0 b1 d7 7b bf 4f 0c 99 3a df ef 60 bb 20 18 35 b8
       -0.98375994 0.0011676642 -0.0034322662 -4.317623e-05
0001f0 9c d5 92 3b d6 52 21 3f 4a fa ad be f5 72 3e 3b
       0.0044810306 0.6301702 -0.33980018 0.002906022
000200 ce 88 22 3f 33 94 8a 3e 18 86 aa ba ec 63 1c bf
       0.6349 0.27066192 -0.0013009934 -0.6108997
000210 34 85 82 bf 04 af 96 be bc 7a 18 3e b4 f6 d7 bf
       -1.01969 -0.294304 0.1489057 -1.6872163
000220 2c ed 5f 3e 29 de 20 3f 35 6b 04 c0 62 df 06 bf
       0.21867818 0.6283899 -2.0690434 -0.52684605
000230 ea 98 d0 3d 1e ab fc 3e 27 3d 9c 3e cd e6 82 3f
       0.10185416 0.49349302 0.30515406 1.0226685
000240 cf 66 4a bb dc 4e bb 3e 6c 87 c0 3e 55 b1 fd be
       -0.0030884033 0.36583602 0.3760332 -0.49549356
000250 aa 5f 39 3e de c5 d2 b9 cc 28 09 bf c2 e4 bb bd
       0.18102899 -0.00040201744 -0.53577876 -0.091744915
000260 e7 20 70 bd 0c 01 28 3f e9 44 7b bf b6 2f 81 3e
       -0.058625128 0.656266 -0.98152024 0.25231713
000270 62 93 62 3a ec 55 c0 3b 54 b4 1b 3c f6 55 6e 3b
       0.00086431776 0.0058696177 0.009503443 0.0036367155
000280 18 ad dd bd 10 cd 85 3a 29 03 b8 be 83 af 6e 3a
       -0.10824031 0.0010208208 -0.3593991 0.0009105133
000290 2f 64 c1 bc 7d e8 80 3d 98 23 06 bf 61 67 a0 bd
       -0.023607342 0.062943436 -0.5239806 -0.07832218
0002a0 a1 76 a7 3d 94 e6 68 3f d3 41 f2 39 6b 22 45 bf
       0.081769235 0.90976834 0.0004620688 -0.7700564
0002b0 63 27 08 3d 72 9a 5b 3f e2 60 1c 3b ca bb 15 bf
       0.033240687 0.8578254 0.0023861458 -0.5848967
0002c0 0a 16 da bf 62 93 e9 38 be 56 cb bb 56 17 90 3b
       -1.7037976 0.00011137758 -0.006205409 0.004397313
0002d0 92 b1 f8 ba 46 cf 7e bf e1 88 aa 3d a5 e8 bc bc
       -0.0018973819 -0.99535024 0.08326889 -0.023060152
0002e0 3b 3c 40 be fc df 38 3e 9f 15 cc be c8 9b 76 bf
       -0.18772976 0.18054193 -0.39860246 -0.96331453
0002f0 c8 8e 6a 3e f5 b1 94 3e bc 2c aa 3b 1f 19 85 3e
       0.22906029 0.2904202 0.005193321 0.25995728
000300 0a 7e 2a bf d5 07 e8 be 9b ca ad 3e 26 c9 42 c0
       -0.6659857 -0.45318475 0.33943638 -3.0435271
000310 96 6e c6 3e 60 75 94 bf 4f f0 9c 3e 85 88 59 bc
       0.38756245 -1.159832 0.3065209 -0.013277178
000320 f3 26 50 be 92 cb 65 3e 00 4d 20 b6 f3 ed 56 3f
       -0.20327358 0.22440937 -2.3886678e-06 0.8395683
000330 ab 86 83 3e 98 09 cc 3b 31 98 a2 3e ee 40 44 3c
       0.2568868 0.0062267296 0.31756738 0.011978371
000340 d0 10 e9 be 9c 75 99 bd 6d f3 0d 3e d4 f2 92 ba
       -0.4552064 -0.07493135 0.13862391 -0.0011211284
000350 9b ac 53 3f d4 fd 8a 3e 63 31 66 3e 87 0b 49 3a
       0.8268525 0.2714678 0.22479777 0.0007669259
000360 a4 7e 67 3e 85 6a f8 bd 77 06 31 3a 5c 5a 3f be
       0.22606903 -0.12129692 0.00067529775 -0.18686813
000370 18 a1 69 3d 66 c4 70 bd 92 c2 24 bf 9c e1 d0 bc
       0.057038397 -0.05878105 -0.6435939 -0.025498204
000380 46 ee eb bc 2a 3a 81 bc 81 ed 1a 3e 12 0a 06 bf
       -0.028800141 -0.015774805 0.15129663 -0.52359116
000390 f9 19 a5 bd 56 0c 63 3c dd a0 e7 bc c3 5a ed be
       -0.080615945 0.013857922 -0.028274948 -0.46358308
0003a0 bb 2e c9 3e 80 8b 1b 3c db e5 8a 3e 85 1d 72 bd
       0.39293465 0.009493709 0.2712849 -0.059110183
0003b0 4a 58 a8 3e 5f 2d df 3d 1d d9 10 be 4d 52 9f 39
       0.3287986 0.10897326 -0.14145322 0.00030388162
0003c0 97 0c b0 be 82 3f 05 bb 89 62 ed bb 1e f5 8c 3e
       -0.34384605 -0.0020332043 -0.0072444123 0.2753076
0003d0 63 1c 32 3b 2a 57 c4 bf a4 e7 cd bd 28 82 6c be
       0.0027177564 -1.53391 -0.100539476 -0.23096526
0003e0 df f3 09 bf fe 2d 94 3c 66 16 a2 3b dd 4e 27 bf
       -0.5388774 0.018088337 0.0049465178 -0.6535471
0003f0 53 e3 05 3f 5d 8f 8f be d9 d3 5e be 62 25 47 be
       0.52299994 -0.28039065 -0.21760501 -0.19447854

linear.2.bias f4 [30]
000000 80 03 89 bc 2e 6a 0f 3d dc b4 d1 bd b1 bb f1 bd
       -0.016725302 0.03501337 -0.10239574 -0.118033774
000010 b1 1a 90 3b 70 9e e8 bd ef bb de 3c e3 f4 6a bd
       0.004397713 -0.113583446 0.027189223 -0.05736245
000020 6f 8c 18 bc 9c 66 4f bd 1e 2f 4a be dc e5 d1 be
       -0.009310826 -0.050634965 -0.19744536 -0.4099568
000030 59 35 ff bd 8d d1 07 be 2d 01 00 be 74 dc 88 3c
       -0.12461347 -0.13263531 -0.12500449 0.016706683
000040 5e 08 bd 3c f6 b3 29 bd 36 08 3f be b2 1b c1 bd
       0.023075279 -0.04143139 -0.18655476 -0.094291106
000050 85 62 58 bd 10 a3 35 bd ba d8 4e be f7 d4 e0 3b
       -0.05282833 -0.04434496 -0.20199862 0.006861325
000060 e8 7c e4 bd 61 d7 59 be ee 43 08 be 8d ba 9a 3b
       -0.111566365 -0.21273567 -0.13307163 0.0047219456
000070 24 f1 a7 3b 97 d5 5e 3d
       0.0051251817 0.054402914
