Data/model_results_unphased_all_PRS/logistic_regression/onnx_models/final_model_chr6.onnx (onnx, 150171 bytes, 6 tensors)

linear.0.weight f4 [20, 619]
0	0xbfa35f1b	-1.2763399
1	0xbf9f4293	-1.2442192
2	0xc0d707e0	-6.7197113
3	0xbd5da961	-0.05411661
4	0xc0f2b67b	-7.5847754
5	0x40490f05	3.1415417
6	0xc0569cb1	-3.3533137
7	0xbfebcb65	-1.8421446
8	0xc07f6bc2	-3.990952
9	0xc0a852d6	-5.260112
10	0x3f7a2f52	0.97728455
11	0xbd37bd21	-0.0448581
12	0xbe715d5e	-0.23570773
13	0xc01fcc9f	-2.496864
14	0xc0d3a370	-6.613701
15	0x3ef3d420	0.47622776
16	0xc10ed8c6	-8.927923
17	0x3ecea092	0.4035688
18	0xbdd99069	-0.10623247
19	0xbf022c1a	-0.50848544
20	0x3e7bd082	0.24591258
21	0x3ee61ea1	0.44945243
22	0x3d763218	0.060106367
23	0x3ebc0952	0.3672586
24	0x3ed93e53	0.42430362
25	0xbe35a00c	-0.17736834
26	0x3f2203a9	0.63286835
27	0xbe8339cc	-0.25630033
28	0xbdc3aea6	-0.09554796
29	0x3eb90236	0.361345
30	0xbe891ce8	-0.26779866
31	0xbe85fa91	-0.2616773
32	0x3ec96d35	0.3934113
33	0xbf5ebfd3	-0.8701145
34	0x3f0efd3e	0.55855167
35	0x3f0d4cda	0.5519539
36	0xbec8aa66	-0.39192504
37	0xbda3cba2	-0.07997824
38	0x3bc0a159	0.005878609
39	0x3fd64ebe	1.674278
40	0xbd9a9159	-0.07547254
41	0x3eef7ff5	0.4677731
42	0x3e2dbd06	0.16966638
43	0x3ebb1735	0.36541143
44	0xbcc5de65	-0.024153898
45	0xbeabc586	-0.33549136
46	0x3f510933	0.8165466
47	0x3e464995	0.19364007
48	0x3d8cdf5d	0.06878541
49	0xbd19dcdb	-0.03756414
50	0xbf4bf99e	-0.7967776
51	0xbe2b7a4a	-0.16745868
52	0x3de8a71f	0.11360001
53	0xbe9a4428	-0.30130124
54	0xbea8bca9	-0.32956436
55	0xbd8d1120	-0.06888032
56	0x3f0c218d	0.54738694
57	0x3f4d5134	0.8020203
58	0x3e6ba493	0.23011999
59	0x3ed85d9e	0.42258924
60	0x3eec30fc	0.46131122
61	0xbe2a1009	-0.1660768
62	0xbf123c84	-0.5712359
63	0xbf01fc75	-0.50775844
64	0xba761576	-0.0009387353
65	0x3ef32c73	0.4749485
66	0x3ca8fb67	0.02062769
67	0x3f291402	0.66046154
68	0xbef75792	-0.48308998
69	0xbe519110	-0.20465493
70	0xbd04054d	-0.032231618
71	0x3eb1131c	0.34584892
72	0xbe8d1009	-0.27551296
73	0x3dbd2c36	0.09236948
74	0x3e794077	0.24340998
75	0xbe5e2dda	-0.21697178
76	0x3eb9689a	0.36212617
77	0xbfd5e829	-1.6711475
78	0x3e201700	0.15633774
79	0x3edd8254	0.43263495
80	0xbf060c3f	-0.52362436
81	0x3d2d967a	0.042379834
82	0xbe4e2936	-0.20132908
83	0x3cd3d1bd	0.025856847
84	0x3d2ef40f	0.04271322
85	0xbdeb4bec	-0.1148909
86	0x3d8d3f05	0.06896786
87	0xbdd2575d	-0.102705695
88	0xbda3b208	-0.07992941
89	0x3ddbe806	0.10737614
90	0x3e876423	0.26443586
91	0xbf7e12a4	-0.99247193
92	0xbc188ead	-0.00931136
93	0x3dc94f3a	0.098295644
94	0xbede2c46	-0.43393153
95	0x3f3f5a7c	0.74747443
96	0x3dffea15	0.124958195
97	0xbf592b23	-0.84831446
98	0xbe92ac5c	-0.28647125
99	0x3f415f11	0.75535685
100	0x3e908dbb	0.28233132
101	0xbea5ca5c	-0.3238095
102	0x3f325988	0.69667864
103	0x3e96ede1	0.29478362
104	0xbf8c6a8c	-1.0970016
105	0xbeb5afd4	-0.3548571
106	0x3deefcdc	0.11669323
107	0xbf952caa	-1.1654255
108	0x3d15793d	0.036492575
109	0x3f263162	0.649191
110	0x3e56b87d	0.20968814
111	0xbed35ef1	-0.41283372
112	0x3bd50125	0.0065003806
113	0xbc1ac093	-0.009445327
114	0x3ebf0421	0.37307838
115	0x3f226dd1	0.63448817
116	0x3fdc9f18	1.7236052
117	0x3e7394f4	0.2378729
118	0xbd83f76e	-0.06443678
119	0xbe3d629a	-0.18494645
120	0xbfa54e4e	-1.2914522
121	0x3da25706	0.07926755
122	0x3f85d2e3	1.0454983
123	0xbe847858	-0.25873065
124	0x3ea028be	0.31281084
125	0x3b966e56	0.00459079
126	0x3ee0e951	0.43928006
127	0x3e9b6142	0.3034764
128	0xbe4621db	-0.19348852
129	0x3e4de6a9	0.20107521
130	0xbeb1eca6	-0.3475086
131	0xbed99190	-0.42493868
132	0xbc50f50c	-0.012753736
133	0xbe22bea9	-0.15893044
134	0x3cc1ff51	0.023681315
135	0x3e92bb4d	0.28658524
136	0xbe372014	-0.1788333
137	0xbdaf5a20	-0.08562112
138	0x3e9fb14b	0.3118995
139	0xbe9894c9	-0.29801014
140	0xbe00bb10	-0.12571359
141	0xbecd24c6	-0.40067118
142	0xbeafbecb	-0.3432525
143	0x3f20cb70	0.6281042
144	0x3f396169	0.7241426
145	0x3fab961c	1.3405185
146	0x3e0d1b2c	0.13779896
147	0x3e4ffd7e	0.20311543
148	0x3da53483	0.080666564
149	0x3e8c6c9f	0.2742662
150	0xbea826c2	-0.3284207
151	0x3f1c89a3	0.61147517
152	0xbfb604e0	-1.4220238
153	0x3ea534a9	0.3226674
154	0x3e8ec19c	0.27882087
155	0x3ea6cab7	0.32576534
156	0xbe629f96	-0.2213119
157	0x3d09e918	0.03366956
158	0xbd89019d	-0.06689761
159	0xbe192a5e	-0.14957568
160	0x3f931a62	1.1492426
161	0xbe0fe43a	-0.14051905
162	0xbdee7b4c	-0.11644611
163	0x3eaab694	0.3334242
164	0xbf2fddaf	-0.6869764
165	0xbf1ddb8f	-0.61663145
166	0xbeb0debe	-0.3454494
167	0xbe095f73	-0.13415317
168	0x3f3d2582	0.7388536
169	0x3e4b6f0d	0.19866581
170	0xbc87e295	-0.016587535
171	0x3ed9e123	0.42554578
172	0x3e078b2b	0.13236682
173	0x3d25ff03	0.0405264
174	0xbf0ac308	-0.54203844
175	0x3d11eccc	0.035626218
176	0x3e558320	0.20850801
177	0xbe9c85d2	-0.30570847
178	0x401326f4	2.2992525
179	0xbe7e3f49	-0.24828829
180	0xbd6c3d00	-0.05767536
181	0xbf98dfda	-1.1943314
182	0x3e7ae401	0.24501039
183	0x3d035d32	0.0320713
184	0xbfad18c1	-1.3523179
185	0xbe350bcd	-0.17680283
186	0x3dba2e7b	0.09090897
187	0x3eaf888a	0.3428386
188	0xbdb1b444	-0.08676961
189	0x3c6fea0b	0.014643203
190	0xbe217591	-0.15767504
191	0xbf40a435	-0.7525056
192	0x3d663d82	0.056211002
193	0x3ea1ed51	0.3162637
194	0xbe98c920	-0.29840946
195	0x3da30ed5	0.07961813
196	0xbf7edc2f	-0.99554724
197	0xbecf55ef	-0.4049525
198	0x3d4f6a7a	0.050638653
199	0x3dde74bd	0.1086211
200	0x3caecbdd	0.021337444
201	0xbe85477f	-0.2603111
202	0xbf8d6e7f	-1.1049346
203	0xbeeeade8	-0.46617055
204	0x3d7db0f9	0.061936352
205	0x3eb0daad	0.34541836
206	0xbf92bee1	-1.1464502
207	0xbf1007e2	-0.5626203
208	0xbcf513e7	-0.029916717
209	0xbe4e384d	-0.20138665
210	0x3f1bdf3a	0.6088749
211	0x3eb35f16	0.35033482
212	0xbcb73070	-0.022361964
213	0x3f6085d0	0.8770418
214	0xbf0c0f6d	-0.5471104
215	0xbe7f5d0d	-0.2493784
216	0xbe1c50fb	-0.15265267
217	0xbce74400	-0.028230667
218	0xbf0faba6	-0.5612129
219	0xbe215402	-0.15754703
220	0x3f090fe3	0.53539866
221	0xbfaeacdc	-1.3646502
222	0x3bd20280	0.0064089894
223	0x3ea378af	0.31928012
224	0xbdec0889	-0.115250655
225	0xbeee5ed5	-0.46556726
226	0x3ee9c34a	0.45656806
227	0xbf0ee33c	-0.5581548
228	0xbea4e77a	-0.32207853
229	0x3ebb2e5f	0.36558816
230	0xbd8a0da3	-0.06740882
231	0x3d635311	0.05549914
232	0x3c4a144b	0.01233394
233	0xbea73fc2	-0.3266583
234	0x3e9b5026	0.30334586
235	0x3de1a47d	0.11017702
236	0x3fb0f98c	1.3826156
237	0xbeacfea0	-0.33788013
238	0x3c432590	0.011910811
239	0x3f49c3cb	0.7881438
240	0xbd0a8b00	-0.033823967
241	0xbe40ccc0	-0.18828106
242	0xbedf5b80	-0.43624496
243	0x3e18755b	0.14888518
244	0xbe70c8cf	-0.23514102
245	0x3d3d8dbd	0.04627775
246	0x3b42211a	0.002962178
247	0xbe8c1456	-0.27359265
248	0xbe957d22	-0.2919703
249	0x3e6f90f1	0.23395135
250	0x3e12fe41	0.14354803
251	0x3f516723	0.81798
252	0xbd31893a	-0.04334376
253	0xbd72a651	-0.059240643
254	0xbf102e9b	-0.56321114
255	0xbfa9fbfe	-1.3280027

linear.0.bias f4 [20]
0	0xbd5e5ae4	-0.0542859
1	0xbdb3913b	-0.08767935
2	0x3df1c418	0.1180498
3	0x3de1caf4	0.11025038
4	0xbcc6af4a	-0.024253506
5	0x3df17593	0.11790004
6	0xbdd269ac	-0.102740616
7	0x3e09460d	0.13405629
8	0x3dc6bc0e	0.09703837
9	0x3e006834	0.1253975
10	0x3ca55460	0.020181835
11	0x3dda4101	0.1065693
12	0x3bcddb07	0.0062822136
13	0x3e24d470	0.16096663
14	0xbdd6e503	-0.10492899
15	0x3d2dbd03	0.042416584
16	0x3da2a5dd	0.07941792
17	0x3dc4e5db	0.09614154
18	0x3d8ecebd	0.06973026
19	0x3d5a9801	0.05336762

linear.1.weight f4 [20, 619]
0	0x3d8598d8	0.06523293
1	0xbf2ae64e	-0.6675767
2	0xbe8716de	-0.26384634
3	0xbcffb876	-0.031215888
4	0xbfe86991	-1.8157216
5	0x3de50988	0.111834586
6	0xbeab85f4	-0.33500636
7	0x3cc1744a	0.023615021
8	0x3f5f0790	0.87120914
9	0x3f3c180f	0.7347421
10	0x3e8bee77	0.27330372
11	0xbec653da	-0.3873585
12	0x3e7ef1f7	0.2489699
13	0xbd760e44	-0.0600722
14	0x3e935f55	0.2878367
15	0x3daa83bd	0.08325908
16	0xbe28523e	-0.16437623
17	0x3e264de1	0.16240646
18	0x3c7b9d1e	0.015357284
19	0x3eb38666	0.35063475
20	0xbe17b1e5	-0.14813955
21	0xbe47e22d	-0.19519873
22	0x3dd249d7	0.1026799
23	0xbe8d8a51	-0.2764459
24	0xbec2933d	-0.3800296
25	0xbd973a51	-0.0738417
26	0xbe2ef080	-0.17083931
27	0xbec94cbe	-0.39316362
28	0x3e3132fe	0.17304608
29	0xbeb3b333	-0.35097656
30	0x3d8f30d3	0.06991734
31	0x3e6f6228	0.23377287
32	0x3e47c36a	0.19508138
33	0x3e1d25ce	0.15346453
34	0xbebab918	-0.3646934
35	0xbf525747	-0.82164425
36	0x3dcae943	0.099077724
37	0x3ec45787	0.38348028
38	0x3dbf8200	0.093509674
39	0xbfa31c43	-1.2743
40	0x3e50419d	0.2033753
41	0xbe551c81	-0.20811655
42	0xbe0e4b8a	-0.13896003
43	0x3bbb0f2e	0.0057085967
44	0xbdbdfaa6	-0.09276323
45	0x3e022fb5	0.12713511
46	0xbe13cb99	-0.14433135
47	0x3e16b4cd	0.14717408
48	0xbd9dd18f	-0.07705986
49	0xbda69799	-0.08134384
50	0x3f018640	0.50595474
51	0xbcc98fc9	-0.024604695
52	0xbdb109ad	-0.08644424
53	0x3c38e731	0.011285589
54	0x3e8b3011	0.2718511
55	0x3d357b04	0.04430677
56	0xbe336930	-0.17520595
57	0xbe26b6ad	-0.16280623
58	0x3c98fabb	0.018674245
59	0x3c8a5339	0.016885387
60	0xbec9d1fa	-0.39418012
61	0xbe28fd0e	-0.16502783
62	0x3e8e6b7a	0.27816373
63	0x3c1aba12	0.009443777
64	0x3bd373d0	0.006453015
65	0xbf4534f6	-0.77033937
66	0x3c804549	0.015658038
67	0xbf887a8d	-1.06624
68	0x3e0cb752	0.13741806
69	0xbe1300be	-0.14355752
70	0xbe5d040f	-0.2158358
71	0xbe463ccd	-0.19359131
72	0x3f6a4046	0.91504323
73	0xbcc3d5e8	-0.02390571
74	0xbe79c0a7	-0.24389897
75	0x3e3cdfde	0.18444774
76	0x3eb942ae	0.36183685
77	0x3f6d739c	0.9275453
78	0xbdc67d5c	-0.09691879
79	0xbe81ec2a	-0.2537549
80	0x3de83162	0.11337544
81	0x3ce22f86	0.027610552
82	0x3ed8db3c	0.42354763
83	0x3ba36d15	0.004987369
84	0xbd1137e4	-0.035453692
85	0x3e9ca1d8	0.30592227
86	0x3e83e517	0.2576072
87	0xbef4c355	-0.47805277
88	0x3e8107bf	0.25201222
89	0xbea2d1be	-0.31800646
90	0x3d0f11a9	0.03492895
91	0xbe32ca5c	-0.17460006
92	0x3e126869	0.14297642
93	0xbe74719b	-0.23871462
94	0x3e9171e1	0.28407195
95	0x3d97c9ea	0.07411559
96	0xbdd40138	-0.10351795
97	0x3ef84147	0.48487303
98	0x3f705c47	0.93890804
99	0xbe05f4b8	-0.13081634
100	0x3e1b6111	0.15173747
101	0x3db74239	0.08948178
102	0xbe82491e	-0.2544641
103	0xbe2ddbb1	-0.16978337
104	0xbe41df7b	-0.18932907
105	0xbe521170	-0.20514464
106	0x3d9636cf	0.07334673
107	0x3f54739f	0.82988924
108	0x3de470ff	0.11154365
109	0x3e3fcdad	0.18730803
110	0xbdc2c3be	-0.09509991
111	0xbe90d458	-0.28287005
112	0x3eb3e2dd	0.3513402
113	0xbcd18fe3	-0.025581306
114	0xbe7bb045	-0.2457896
115	0xbf029adb	-0.5101754
116	0xbf700cff	-0.9376983
117	0x3e25cad1	0.1619065
118	0x3e9fff10	0.31249285
119	0x3e95cc24	0.2925731
120	0x3ee50fd8	0.4473865
121	0xbe870294	-0.26369154
122	0xbf00cedc	-0.5031564
123	0x3e3317d9	0.17489566
124	0xbe18fafa	-0.1493949
125	0xbe0102a4	-0.12598664
126	0xbea26b63	-0.31722555
127	0x3d87fb7e	0.06639765
128	0xbeba79c2	-0.3642102
129	0xbdfc7ac3	-0.123281024
130	0x3f1c916e	0.6115941
131	0xbe0e292d	-0.13882895
132	0x3e31625c	0.17322677
133	0x3e886e3d	0.26646605
134	0x3d967986	0.073473975
135	0xbe86a892	-0.26300484
136	0x3ecc43ac	0.3989538
137	0xbdff555d	-0.12467454
138	0x3f4a3595	0.7898801
139	0xbcbb62fb	-0.022874346
140	0xbebce5dc	-0.3689412
141	0x3e493359	0.19648494
142	0x3d01cc1c	0.031688794
143	0xbe1317b8	-0.14364517
144	0x3ea4eab7	0.32210323
145	0xbfc5714e	-1.5425203
146	0xbe450d8d	-0.1924345
147	0x3d493498	0.049122423
148	0xbdc71dea	-0.097225025
149	0xbf35b909	-0.70985466
150	0x3dc407d7	0.09571808
151	0xbeffcfe8	-0.49963307
152	0x3f077731	0.52916247
153	0xbdba9798	-0.091109455
154	0xbed4c630	-0.41557455
155	0xbe7ce2e6	-0.2469593
156	0x3e821aee	0.2541117
157	0xbcf895a6	-0.030344795
158	0xbd5847bb	-0.052802783
159	0x3d7e75c6	0.062124036
160	0xbf0872b7	-0.5330004
161	0x3dd54301	0.104131706
162	0x3de9b18c	0.114108175
163	0xbf022bb0	-0.5084791
164	0x3efc0e23	0.49229535
165	0xbd9b72b4	-0.07590237
166	0xbdb3d40b	-0.08780678
167	0xbe9c01c8	-0.3047011
168	0xbe2d9fc3	-0.16955476
169	0xbe88df54	-0.26732886
170	0x3d54a9c2	0.051919706
171	0xbcabcc85	-0.020971546
172	0x3ca63bd0	0.020292193
173	0x3e8c6b68	0.27425694
174	0x3ec657cf	0.38738868
175	0x3d18d62d	0.03731363
176	0xbcf938df	-0.030422626
177	0x3e1b42e1	0.15162231
178	0xbff33300	-1.8999939
179	0x3d911bdb	0.07085391
180	0x3e64e36d	0.22352381
181	0x3f8f5121	1.1196634
182	0x3ed69585	0.4191095
183	0xbc85ca20	-0.016331732
184	0x3f302a66	0.68814695
185	0x3ed0d6a2	0.40788752
186	0x3ea88a61	0.32918075
187	0xbe7f6439	-0.24940576
188	0x3e1eacc1	0.15495588
189	0xbe28793f	-0.16452502
190	0x3e5ee3c5	0.21766575
191	0x3fbef30f	1.4917926
192	0x3e901455	0.28140512
193	0xbe8101d2	-0.251967
194	0x3ec3f07e	0.38269418
195	0xbc5aae21	-0.01334718
196	0x3ecc85aa	0.39945728
197	0x3de1276b	0.109938465
198	0xbe338a76	-0.17533287
199	0xbe9a221b	-0.30104145
200	0xbdaf7fc3	-0.085692905
201	0x3e52995b	0.20566313
202	0x3efa14fa	0.4884413
203	0x3ddc702a	0.10763581
204	0xbd375289	-0.044756446
205	0xbf165ed9	-0.58738476
206	0x3e12d3d6	0.14338621
207	0xbc8aeed3	-0.016959583
208	0x3e96b0eb	0.29431853
209	0x3ec81fba	0.39086705
210	0xbe8dadbc	-0.2767161
211	0xbe3b0373	-0.18263035
212	0x3da72c21	0.08162714
213	0xbf364d91	-0.71212107
214	0x3ec448d5	0.38336816
215	0xbbd7de6d	-0.0065877945
216	0xbda843ac	-0.082160324
217	0xbdcf1c4f	-0.10112821
218	0x3e6d9227	0.23200284
219	0xbc8e7153	-0.017388022
220	0x3e90d664	0.28288567
221	0x3efd05d9	0.49418524
222	0xbe3f0ae7	-0.18656503
223	0x3f280072	0.6562568
224	0x3d43e727	0.047827866
225	0x3ec40a89	0.38289288
226	0x3e0abf0d	0.13549443
227	0x3f0ef6d6	0.5584539
228	0xbdfc043b	-0.123054944
229	0x3d8ae84a	0.06782587
230	0xbe167153	-0.14691667
231	0x3bcd477b	0.0062646247
232	0x3e98db84	0.29854977
233	0xbe296e24	-0.16545922
234	0x3e0132eb	0.1261708
235	0x3e82f319	0.25576094
236	0xbf18be81	-0.59665686
237	0xbe5002c6	-0.20313558
238	0x3f0d959f	0.5530643
239	0xbdd0fd84	-0.10204604
240	0x3d2617f9	0.040550206
241	0xbe2b9e5e	-0.16759631
242	0xbe0c24a3	-0.13685851
243	0xbe1662ce	-0.14686128
244	0xbdd3be6a	-0.10339053
245	0x3d33e20a	0.04391674
246	0x3e915012	0.283814
247	0x3e406eb9	0.18792237
248	0xbdec1869	-0.11528093
249	0xbe2c774d	-0.16842385
250	0xbe22318b	-0.15839212
251	0xbf354614	-0.70810056
252	0x3d141031	0.036148254
253	0xbde4b2ac	-0.111668915
254	0x3e2b42ea	0.16724744
255	0x3ed724f1	0.42020372

linear.1.bias f4 [20]
0	0x3e39b582	0.18135646
1	0x3e7d2cc0	0.24724102
2	0xbd9d3b63	-0.07677343
3	0x3bd48a0c	0.006486183
4	0x3cf6fb3e	0.030149098
5	0xbd1e07f9	-0.038581822
6	0x3e596076	0.21228203
7	0x3e9018bb	0.28143868
8	0x3d36b4fe	0.0446062
9	0x3d0074ec	0.031361505
10	0x3cab27a0	0.020892918
11	0x3d43a708	0.047766715
12	0x3d78a1fd	0.06070136
13	0x3dda4aaf	0.10658776
14	0x3d59ecd2	0.053204365
15	0xbd83f7ae	-0.064437255
16	0x3d07a8f6	0.033120118
17	0x3ad5193e	0.0016258133
18	0xbdb8c82a	-0.09022553
19	0x3e9f41dd	0.31104937

linear.2.weight f4 [20, 619]
0	0x3f9b0546	1.2110984
1	0x3fd6feb2	1.6796477
2	0x40a5ed7f	5.185241
3	0x3dbe1d1c	0.09282896
4	0x4101a299	8.102197
5	0xc09eaa1e	-4.9582663
6	0x407231a9	3.784281
7	0x3fa3821f	1.2774085
8	0x40051575	2.0794346
9	0x4023cf80	2.5595398
10	0xbfdc5dfb	-1.721618
11	0x3f34ab75	0.7057412
12	0xbd992c58	-0.07479161
13	0x3fe9418d	1.822313
14	0x406c94bb	3.6965778
15	0xbf52c139	-0.82326084
16	0x40e13be5	7.0385613
17	0xbf39ecce	-0.7262696
18	0x3dd33b89	0.1031409
19	0x3dd0985d	0.10185311
20	0xbd4cfc8e	-0.050045542
21	0xbe45f0df	-0.19330166
22	0xbe70843a	-0.2348794
23	0x3c39d103	0.011341336
24	0xbcf257cf	-0.029582886
25	0x3e8ef1a3	0.2791873
26	0xbedb4486	-0.42825717
27	0x3f4152e3	0.755171
28	0xbe312684	-0.17299849
29	0x3e5de61a	0.21669808
30	0x3e6f1394	0.23347312
31	0xbd6c9715	-0.05776127
32	0xbf188b37	-0.59587425
33	0x3f1e008a	0.6171957
34	0xbdfb10aa	-0.12259038
35	0x3ef16fd3	0.47155628
36	0x3e84267e	0.25810617
37	0xbee91021	-0.45520118
38	0xbbada373	-0.0052990257
39	0xbf1af8dd	-0.60535985
40	0xbe7f43f0	-0.2492826
41	0xbe90ef32	-0.28307492
42	0xbd0de801	-0.034645084
43	0xbe8e9825	-0.27850452
44	0x3df37a1f	0.11888527
45	0x3e551ade	0.2081103
46	0xbf207d9b	-0.6269166
47	0xbee59456	-0.44839734
48	0x3d07487a	0.033028103
49	0x3e4e7da3	0.20165114
50	0x3d243d36	0.040097438
51	0x3e5402d0	0.20704198
52	0x3ca02fd0	0.019554049
53	0x3e41f01e	0.18939254
54	0xbcbc8728	-0.023013666
55	0x3db404a3	0.08789947
56	0xbedac06b	-0.42724928
57	0xbf53ea57	-0.8277945
58	0xbe8117ac	-0.25213373
59	0xbedc7c70	-0.43063688
60	0x3d0e1085	0.034683723
61	0x3ebc3fea	0.36767513
62	0x3e60de38	0.2195977
63	0x3ee4fdff	0.44725034
64	0x3afb7717	0.0019185272
65	0x3efe65ce	0.49687046
66	0xbda7eda3	-0.081996225
67	0x3f287044	0.65796304
68	0x3e8cfb7c	0.27535617
69	0x3ed9a032	0.42505032
70	0x3ea25113	0.3170248
71	0xbe215ee6	-0.15758857
72	0xbf7e3e25	-0.99313575
73	0xbe27f26b	-0.16401069
74	0x3e628468	0.22120821
75	0x3a3b2f45	0.00071405276
76	0xbf52b52d	-0.823077
77	0x3eb9cf7a	0.36291105
78	0xbd59396d	-0.05303328
79	0xbb84c9c5	-0.004052373
80	0x3ee22be6	0.44174117
81	0xbdddc8e0	-0.108293295
82	0xbe9628c3	-0.29327974
83	0xbbb56c8c	-0.0055366214
84	0x3de0a622	0.10969187
85	0xbe6adc2f	-0.22935556
86	0xbed857ef	-0.42254588
87	0x3f4dc35d	0.80376226
88	0xbe788ae0	-0.24271727
89	0x3eab2ce6	0.33432692
90	0xbebf0eed	-0.37316075
91	0x3f8cd028	1.1001024
92	0xbe5e92a7	-0.21735631
93	0x3e3d3414	0.18476897
94	0x3e04ab37	0.12955938
95	0xbf418775	-0.75597316
96	0x3d18750d	0.037221003
97	0x3e962c89	0.29330853
98	0xbf819bde	-1.0125692
99	0xbf12a6a4	-0.57285523
100	0xbeddf2d3	-0.43349323
101	0x3e808b8b	0.25106463
102	0xbeb26d0d	-0.34848824
103	0xbd385dca	-0.04501132
104	0x3f8dc0a1	1.1074411
105	0x3f124794	0.5714047
106	0xbe6d6d29	-0.23186173
107	0x3c93816c	0.01800605
108	0xbe851cd0	-0.25998545
109	0xbf5d499a	-0.8644043
110	0xbd805e28	-0.06267959
111	0x3f363f42	0.71190274
112	0xbea7f515	-0.3280417
113	0x3e04fb93	0.12986593
114	0xbd9159e2	-0.07097222
115	0xbcb8c670	-0.02255556
116	0xbe01ca38	-0.12674797
117	0xbf02263a	-0.5083958
118	0xbe7bdabd	-0.24595161
119	0xbe0e3679	-0.13887967
120	0x3f53fa0b	0.8280341
121	0x3e77b074	0.24188405
122	0xbf12f776	-0.57408845
123	0x3dbc66c7	0.09199291
124	0xbe0f8cb5	-0.14018519
125	0x3e5dcbac	0.21659726
126	0xbab9be85	-0.0014171159
127	0xbec75388	-0.38930917
128	0x3f1cf149	0.6130567
129	0x3cfcb80a	0.030849475
130	0xbefcc0b6	-0.49365777
131	0x3f26c678	0.6514659
132	0xbe631629	-0.22176422
133	0xbdf3e78a	-0.11909397
134	0xbdd451b0	-0.10367143
135	0x3e4f59ae	0.20249054
136	0xbeac73eb	-0.33682188
137	0x3e80af74	0.2513386
138	0xbfee9395	-1.8638788
139	0x3e9cff35	0.30663458
140	0x3f16098b	0.5860831
141	0x3e0405a7	0.12892781
142	0x3e93af79	0.28844813
143	0xbef86839	-0.48517016
144	0xbfd5b0a8	-1.6694536
145	0x3f19c7d6	0.6007055
146	0x3dbc1a58	0.09184712
147	0xbe573ca7	-0.21019231
148	0x3d128dc7	0.03577974
149	0x3f4c53f7	0.7981562
150	0x3e02ec50	0.12785459
151	0x3d8b42b0	0.06799829
152	0x3f41bea3	0.75681514
153	0xbe37d3e7	-0.17951928
154	0x3e3b74cb	0.18306272
155	0x3b70d4ba	0.0036747889
156	0xbe3256f2	-0.1741598
157	0xbc872e5c	-0.016501598
158	0x3dbfbd2f	0.09362256
159	0x3dcfd5c2	0.10148193
160	0xbe87c06f	-0.26514003
161	0x3dbb8081	0.091553695
162	0xbd65557a	-0.05598972
163	0x3eba611f	0.36402223
164	0x3d5e9dbc	0.054349646
165	0x3f23e491	0.6402064
166	0x3ed865e7	0.42265245
167	0x3f049924	0.51796174
168	0xbf144c73	-0.5792915
169	0x3e239eaf	0.15978502
170	0x3d200440	0.039066553
171	0xbeed8c1b	-0.46395954
172	0xbe47222b	-0.19446628
173	0xbef7dd19	-0.48410872
174	0x3c2569d8	0.010096036
175	0xbdd6e562	-0.1049297
176	0xbdcb3b27	-0.09923392
177	0x3e055c39	0.13023461
178	0xbec183b1	-0.37795785
179	0x3df3af40	0.11898661
180	0xbe956bee	-0.29183906
181	0xbe9ca634	-0.30595553
182	0xbf73c43d	-0.9522131
183	0x3d08f944	0.033440843
184	0x3e82a896	0.25519246
185	0xbee26648	-0.4421866
186	0xbeec9be2	-0.4621268
187	0x3d0864ca	0.033299245
188	0xbdfa8c5e	-0.12233804
189	0x3e07bf4c	0.13256568
190	0xbdb1ecab	-0.08687719
191	0xbfb48c4a	-1.4105313
192	0xbebd20fd	-0.3693923
193	0xbd07bfe9	-0.033142004
194	0xbe5d4413	-0.21608
195	0xbdefe5eb	-0.11713775
196	0x3ef4dbb2	0.47823864
197	0x3ea0eade	0.3142919
198	0x3e3b9676	0.18319115
199	0x3ec5860b	0.3857883
200	0x3deb0957	0.11476391
201	0x3d177138	0.03697321
202	0x3eca61f6	0.39527863
203	0x3ed89cb2	0.4230705
204	0xbd0c8672	-0.034307905
205	0x3ef7dae2	0.48409182
206	0x3f84e1a0	1.0381355
207	0x3f172513	0.59040946
208	0xbeca0654	-0.39457953
209	0xbea1a4d4	-0.31571066
210	0xbe477306	-0.19477472
211	0xbce6385f	-0.028103052
212	0xbda168c1	-0.07881308
213	0x3dc967d2	0.09834255
214	0x3daa0e40	0.08303499
215	0x3e6980c0	0.2280302
216	0x3e7d23db	0.24720709
217	0x3e73f9ae	0.23825714
218	0x3e5f6fe6	0.2182003
219	0x3e60a54a	0.21938053
220	0xbf54aa88	-0.8307271
221	0x3f318003	0.69335955
222	0x3e9765ff	0.29570004
223	0xbfaa079a	-1.328357
224	0x3e2d6e76	0.16936669
225	0xbcd442bd	-0.02591073
226	0xbf233d1c	-0.6376512
227	0xbdfc9114	-0.12332359
228	0x3eee10e9	0.46497276
229	0xbef93ca0	-0.48679066
230	0x3e9df541	0.30851176
231	0xbcac2960	-0.021015823
232	0xbea080d3	-0.31348285
233	0x3f0e3ed6	0.5556463
234	0xbf0b6422	-0.54449666
235	0xbec408f4	-0.3828808
236	0xbf2592af	-0.64676946
237	0x3f1f5b83	0.6224901
238	0xbf46a20e	-0.77591026
239	0xbf2373ff	-0.6384887
240	0xbd22878c	-0.03968005
241	0x3edfe748	0.4373114
242	0x3f241819	0.6409927
243	0x3d836fc4	0.06417802
244	0x3ea5aea1	0.32359794
245	0xbd922665	-0.071362294
246	0xbecfb3f0	-0.4056697
247	0xbd2ea0b2	-0.04263372
248	0x3efe21d9	0.496352
249	0xbdc224a2	-0.094796434
250	0x3d2d23f1	0.042270605
251	0x3e29079b	0.16506808
252	0xbddb7b21	-0.10716844
253	0x3e5741f3	0.21021251
254	0x3e893884	0.2680093
255	0x3f3af2fb	0.7302701

linear.2.bias f4 [20]
0	0xbe873129	-0.26404694
1	0xbe8813f6	-0.2657773
2	0xbd79dc2f	-0.061001
3	0xbe5b31ac	-0.21405667
4	0xbdb74a22	-0.089496866
5	0xbe3eb34a	-0.18623081
6	0xbe53d596	-0.20686945
7	0xbedb54b2	-0.42838055
8	0xbe211974	-0.15732366
9	0xbe40a1e5	-0.18811758
10	0xbd2da281	-0.042391304
11	0xbe705345	-0.23469265
12	0xbd9619ca	-0.073291376
13	0xbe6d0986	-0.23148164
14	0x3cce0ed9	0.025153564
15	0xbd9b9de4	-0.075984746
16	0xbe3e6fe3	-0.18597369
17	0xbe4ccbdb	-0.1999964
18	0xbd58a3da	-0.052890636
19	0xbeb7c78e	-0.35894436
