Data/model_results_unphased_all_PRS/logistic_regression/onnx_models/final_model_chr19.onnx (onnx, 25053 bytes, 6 tensors)

linear.0.weight f4 [7, 281]
0.26318595 0.033819582 -0.5282024 -0.058453765 0.020061908 -0.83986455 0.02740689 0.35783225
-0.9965583 0.06614241 0.0416469 -1.0454046 -0.79866683 -0.004611074 -0.055475075 0.01579211
-0.85161 -0.034978237 0.13402906 0.14730711 0.15705119 -0.23264228 -0.03453047 -0.22695313
-0.22030921 0.23061387 -0.04828034 0.04634976 0.09918405 0.028032312 0.040745564 -0.040736027
0.5588932 -0.011067218 0.033643875 0.047574457 -0.47133556 -1.0539749 0.031793196 -0.032696705
-0.014321505 0.029686237 -0.15953691 -1.0267733 0.08885596 0.11092712 -0.06456794 -0.7016084
0.30685017 -0.122646295 -0.11332457 0.065570444 -0.009378472 -0.13872825 0.26990896 -0.028154394
0.10575532 0.052248947 0.14634427 -0.38182575 -0.3148506 -0.04685726 0.03512659 -0.0011933704
0.0020420467 0.0081268335 0.04387037 -0.042273838 -0.08393585 0.030880228 -0.10700664 -0.0605427
0.06088525 0.04800159 -0.0063863685 0.084764935 -0.0074667446 0.03707176 0.011725169 0.07963069
0.036967114 0.046352644 0.053088173 0.06049116 0.07805339 0.0005289506 -0.041606948 0.04805776
0.06651461 0.05306845 0.06653937 0.049682938 0.041578367 -0.0037647125 0.087985605 0.048852023
-0.0056342967 -0.019985307 0.05745917 0.0015466182 -0.03844666 0.0028726337 0.072239056 -0.09033538
0.13144472 -0.025066927 0.029980874 -0.02795331 0.08587304 0.05567383 -0.03381241 0.015498778
0.06048715 0.083728366 0.1328108 3.667295e-05 -0.015749415 -0.00047864197 0.0047022896 -0.054146975
-0.021832183 0.114871584 0.0437863 0.08079577 0.024220204 0.0053372285 -0.020861894 0.022758186
-0.012932991 0.095554546 0.15877461 0.031674072 -0.021063548 0.018438514 -0.05904291 0.06547869
-0.06930007 0.21209869 -0.047558103 -0.035485953 0.08669537 -0.00909702 0.004888117 -0.041792735
0.020383298 -0.0889711 0.08215413 0.09647163 0.08500281 -0.025892021 -0.18159956 0.041292723
-0.17808473 0.03943116 0.17225873 0.040578946 0.087914474 -0.03669377 0.02362244 -0.09925301
0.11804046 0.13097571 0.036648896 0.08707102 0.06318885 0.057521407 -0.41663992 0.0023146353
0.039771914 0.06309341 -0.085925184 0.02128778 -0.06733139 0.064303175 -0.059366394 -0.048665706
0.26730672 -0.0022235406 0.08371995 -0.028193451 -0.015046552 -0.014619329 0.08628786 0.07428104
0.0914758 -0.026770169 0.026363643 -0.037283413 0.00552159 0.057663757 0.08047258 0.24207804
0.06068047 -0.005680031 -0.07481335 0.0138484975 0.070227236 -0.24197179 0.0040733246 0.07110307
0.05300501 -0.10592827 -0.051282924 0.05771714 -0.024985591 -0.013250575 0.03682736 -0.044420477
-0.13429004 0.005386685 -0.18293871 0.092335485 0.07137562 0.005026413 0.052281912 0.054342207
-0.0037598512 0.12681587 0.0054897275 -0.0011672048 -0.03158896 -0.30197892 -0.002242973 -0.0979791
-0.0066644736 0.012494834 0.040083 0.051596683 -0.03392782 0.09018786 0.031349983 0.057098553
0.009231567 -0.000919049 0.0739864 -0.0036871762 0.11682301 -0.0068793106 -0.01191921 -0.072642736
-0.016487874 0.018352507 0.008680369 0.018247062 0.06595403 -0.0061471835 0.08275555 0.07409668
-0.045086596 0.03722339 0.022987485 0.022659235 0.016778892 -0.07359654 -0.18449573 -0.0031637326
00000000: 4fc0 863e 6786 0a3d 4638 07bf 376d 6fbd
00000010: df58 a43c 5d01 57bf 6a84 e03c ca35 b73e
00000020: 721e 7fbf ac75 873d f195 2a3d d1cf 85bf
00000030: 6e75 4cbf 7e18 97bb d539 63bd 745e 813c
00000040: 1d03 5abf 5745 0fbd ea3e 093e add7 163e
00000050: 07d2 203e c739 6ebe d26f 0dbd 6766 68be
00000060: bd98 61be 0b26 6c3e 9bc1 45bd 3fd9 3d3d
00000070: 0221 cb3d 05a4 e53c d2e4 263d d2da 26bd
00000080: a013 0f3f 4753 35bc 29ce 093d 6fdd 423d
00000090: e552 f1be a6e8 86bf 9539 023d fbec 05bd
000000a0: bfa4 6abc 8d30 f33c a55d 23be 4f6d 83bf
000000b0: 1dfa b53d c22d e33d 323c 84bd 9c9c 33bf
000000c0: 771b 9d3e fb2d fbbd b616 e8bd cc49 863d
000000d0: 2aa8 19bc c70e 0ebe 8231 8a3e 0ba4 e6bc
000000e0: 3f96 d83d fe02 563d 46db 153e aa7e c3be
000000f0: 1934 a1be 66ed 3fbd e6e0 0f3d de6a 9cba
00000100: dcd3 053b 6926 053c 6bb1 333d 5527 2dbd
00000110: 8fe6 abbd 88f8 fc3c 4c26 dbbd 9ffb 77bd
00000120: d062 793d 519d 443d be44 d1bb 3d99 ad3d
00000130: 98ab f4bb 8fd8 173d ec1a 403c 6a15 a33d
00000140: d46a 173d 45dc 3d3d fc72 593d 94c5 773d
00000150: 75da 9f3d 46a9 0a3a 0c6c 2abd 37d8 443d
00000160: d038 883d 4e5e 593d cb45 883d 5680 4b3d
00000170: 144e 2a3d 65b9 76bb cc31 b43d 0f19 483d
00000180: e89f b8bb 3ab8 a3bc 4f5a 6b3d e5b7 ca3a
00000190: 3f7a 1dbd cc42 3c3b 12f2 933d c101 b9bd
000001a0: 7299 063e 2859 cdbc 739a f53c 57fe e4bc
000001b0: 34de af3d 3e0a 643d e27e 0abd 96ee 7d3c
000001c0: 60c1 773d c779 ab3d 8eff 073e 48d1 1938
000001d0: eb04 81bc 3df2 fab9 aa15 9a3b 38c9 5dbd
000001e0: 68d9 b2bc cb41 eb3d 4359 333d 4178 a53d
000001f0: 7369 c63c ebe3 ae3b 90e6 aabc 606f ba3c
00000200: e5e4 53bc 1ab2 c33d d095 223e acbc 013d
00000210: 768d acbc 5e0c 973c fad6 71bd b119 863d
00000220: 32ed 8dbd 6630 593e 49cc 42bd b859 11bd
00000230: 588d b13d ab0b 15bc 7f2c a03b dc2e 2bbd
00000240: e0fa a63c 7b36 b6bd 6d40 a83d eb92 c53d
00000250: f415 ae3d 811b d4bc 3cf5 39be 8f22 293d
00000260: d85b 36be 9182 213d 9864 303e 1c36 263d
00000270: 810c b43d 354c 16bd d983 c13c 2945 cbbd
00000280: 32bf f13d 7f1e 063e 271d 163d 4a52 b23d
00000290: 2869 813d 919b 6b3d d451 d5be 23b1 173b
000002a0: e0e7 223d 1e37 813d 8bf9 afbd b663 ae3c
000002b0: 0ae5 89bd 62b1 833d 2d2a 73bd b155 47bd
000002c0: 6ddc 883e d2b8 11bb 5d75 ab3d f4f5 e6bc
000002d0: d085 76bc e985 6fbc b1b7 b03d a820 983d
000002e0: aa57 bb3d 1d4d dbbc 91f8 d73c 7eb6 18bd
000002f0: 74ee b43b d530 6c3d cfce a43d 4ee3 773e
00000300: 168c 783d 8e1f babb be37 99bd cfe4 623c
00000310: 4cd3 8f3d 74c7 77be 8679 853b 7d9e 913d
00000320: c81b 593d ecf0 d8bd 0b0e 52bd cf68 6c3d
00000330: 95ae ccbc f118 59bc 49d8 163d 3ff2 35bd
00000340: 5483 09be ca82 b03b 4954 3bbe 631a bd3d
00000350: 622d 923d 9cb4 a43b 8f25 563d ef95 5e3d
00000360: d667 76bb 05dc 013e 2ce3 b33b e5fc 98ba
00000370: 6d63 01bd fb9c 9abe d8fe 12bb 44a9 c8bd
00000380: a861 dabb 22b7 4c3c 122e 243d 0b57 533d
00000390: e6f7 0abd 6ab4 b83d d768 003d 2ce0 693d
000003a0: 0040 173c 56ec 70ba 2f86 973d 8da4 71bb
000003b0: e740 ef3d d76b e1bb ca48 43bc b7c5 94bd
000003c0: 9411 87bc ff57 963c 1b38 0e3c dd7a 953c
000003d0: e812 873d 506e c9bb be7b a93d 00c0 973d
000003e0: b9ac 38bd 8e77 183d 4050 bc3c dc9f b93c
000003f0: e373 893c c8b9 96bd 73ec 3cbe a056 4fbb

linear.0.bias f4 [7]
0.094186485 -0.029108936 -0.017025722 0.0508884 -0.00514613 0.07690286 0.033259403
00000000: d8e4 c03d dd75 eebc 8779 8bbc 5b70 503d
00000010: dea0 a8bb 3f7f 9d3d 033b 083d

linear.1.weight f4 [7, 281]
0.08224295 0.22278729 0.32586312 -0.0040904796 0.0056030313 0.2626587 0.15720728 -0.079861455
0.15507856 -0.0014416164 -0.027227627 0.02843051 -0.30523643 0.015484779 -0.011304204 0.06745166
0.21969539 0.08927225 0.084838666 0.06174272 0.2848481 -0.051870044 -0.0105668055 -0.07164952
0.16052514 0.2625665 0.032366324 -0.102750696 0.009216571 -0.06765693 -0.0730828 -0.015881285
-0.089155726 0.027372824 0.0411465 0.0510813 -0.06374954 0.16717373 -0.04106261 -0.022790713
0.06333156 -0.017553736 -0.0030311577 0.009108838 -0.020613944 0.0029587043 -0.052659277 0.09000973
0.01066524 -0.018493678 0.051861826 -0.12015233 0.0013315539 0.013710229 0.016021501 0.007820332
-0.07250542 0.04309036 0.23185055 -0.29689705 0.22829238 0.052270163 0.04607439 0.033052843
0.008502014 -0.0015074628 0.0015638438 -0.05920077 0.072166465 0.06268609 0.1151368 0.1291995
-0.09202059 -0.016300024 -0.020919964 0.037222262 0.09148385 0.070304096 0.049308393 0.023933563
-0.0185238 -0.052308932 -0.11693432 0.023418274 -0.15547991 -0.13498925 0.020827183 0.0137880305
0.044031832 0.0034535557 -0.011705109 0.13592203 0.0048129587 0.0071393135 -0.023363486 0.013729161
-0.03590013 -0.03079071 0.019240547 0.120501146 0.005038917 -0.029066905 0.07471943 0.057340506
0.09810444 0.12367834 -0.021840049 -0.05504666 -0.0030027137 0.024876315 0.021870585 -0.01914851
-0.041958854 -0.09194786 -0.037538838 0.024082404 -0.12080626 -0.023970917 0.032578804 -0.052402627
0.050767504 -0.07638909 -0.023643592 -0.057576895 0.052325774 -0.09746768 -0.034543 0.08230426
0.090623245 0.038428795 0.101334624 0.01587277 0.005480792 -0.067929395 -0.016081965 0.01133922
0.08097477 -0.21512526 0.09621746 -0.022890106 -0.17195992 0.027226165 -0.053884998 0.035213012
-0.08012995 0.008960348 0.04942141 -0.13598159 0.08276485 0.16050076 0.27459458 -0.004074306
0.036962863 0.029560229 -0.1734487 0.01552215 -0.009960143 0.09749799 -0.04908227 0.03585051
-0.10070709 0.046576943 -0.011837939 0.050316866 -0.015804606 0.036103886 0.020568125 -0.006160029
0.08935578 -0.026082752 -0.09234222 0.021558924 -0.030573491 0.0681538 -0.075304285 -0.045510527
-0.29053095 0.017165512 0.026408777 -0.08280096 0.1586776 0.027812695 -0.02270674 -0.18121338
0.025840629 0.0067194407 -0.07183155 -0.032961916 -0.023462946 0.023160547 0.058708135 0.062473956
-0.13936366 -0.01671969 0.02818048 -0.020038163 -0.07592779 0.19624338 -0.28426757 0.10029117
-0.002897666 -0.2885628 0.012242291 -0.069744155 -0.07302504 -0.0763735 0.013966861 0.03712297
0.011253234 -0.067722395 0.1039152 -0.058572385 -0.06858743 0.033254478 -0.050453145 -0.030425955
-0.010467258 0.04417504 0.029961787 -0.032716487 0.03711894 0.13173282 0.054565318 -0.14797005
-0.08177207 0.049959198 0.06585702 0.024075182 -0.016241513 -0.07665555 0.022549294 0.024575192
0.03266919 0.014099523 0.047676113 -0.026724072 -0.04340343 0.00420924 0.021949785 0.056593645
-0.029599393 -0.040903404 -0.0606332 0.018061457 -0.091573216 0.0091660675 -0.0008429877 -0.027012495
0.093578644 -0.08283526 -0.088102244 -0.0041525792 0.068230316 -0.07524644 0.13848661 -0.0016612432
00000000: fe6e a83d 5a22 643e 88d7 a63e 6e09 86bb
00000010: a299 b73b 337b 863e f2fa 203e 678e a3bd
00000020: eacc 1e3e 9ff4 bcba 790c dfbc 1ae7 e83c
00000030: f347 9cbe dfb3 7d3c 4535 39bc 1924 8a3d
00000040: d4f7 603e 5fd4 b63d e5bf ad3d efe5 7c3d
00000050: 9cd7 913e af75 54bd 6520 2dbc fcbc 92bd
00000060: b460 243e 1e6f 863e 8d92 043d f56e d2bd
00000070: 1a01 173c b78f 8abd 6fac 95bd 7819 82bc
00000080: 4797 b6bd f93c e03c 3b89 283d a03a 513d
00000090: 1e8f 82bd 972f 2b3e 4431 28bd 97b3 babc
000000a0: fab3 813d dacc 8fbc 63a6 46bb 3c3d 153c
000000b0: 93de a8bc d2e6 413b 41b1 57bd 0557 b83d
000000c0: 42bd 2e3c 0e80 97bc 116d 543d 6d12 f6bd
000000d0: 8987 ae3a dea0 603c 863f 833c da20 003c
000000e0: b97d 94bd 847f 303d 3b6a 6d3e e402 98be
000000f0: 7ac5 693e 3d19 563d 80b8 3c3d 6b62 073d
00000100: 084c 0b3c 0f96 c5ba e4f9 cc3a 827c 72bd
00000110: 03cc 933d 9161 803d d8cc eb3d e04c 043e
00000120: 4b75 bcbd a187 85bc 5860 abbc 5f76 183d
00000130: e25b bb3d 98fb 8f3d 99f7 493d 5210 c43c
00000140: 39bf 97bc e441 56bd 437b efbd aed7 bf3c
00000150: 2036 1fbe 9f3a 0abe c59d aa3c 31e7 613c
00000160: b95a 343d 0d55 623b c9c6 3fbc 252f 0b3e
00000170: 06b6 9d3b e7f0 e93b c864 bfbc 46f0 603c
00000180: 040c 13bd cd3c fcbc 5a9e 9d3c 4ec9 f63d
00000190: 801d a53b b81d eebc 8006 993d e1dd 6a3d
000001a0: fbea c83d 124b fd3d e7e9 b2bc 9b78 61bd
000001b0: 2dc9 44bb 6ac9 cb3c f129 b33c 56dd 9cbc
000001c0: 0cdd 2bbd 294f bcbd 53c2 19bd 7648 c53c
000001d0: 4669 f7bd a85e c4bc 5a71 053d 23a4 56bd
000001e0: 96f1 4f3d e271 9cbd 35b0 c1bc c0d5 6bbd
000001f0: 8d53 563d 239d c7bd f67c 0dbd 238f a83d
00000200: ae98 b93d 8367 1d3d 8788 cf3d 9d07 823c
00000210: 3798 b33b 911e 8bbd 53be 83bc 23c8 393c
00000220: 1ad6 a53d cc49 5cbe a90d c53d 0884 bbbc
00000230: 4316 30be 6809 df3c 84b6 5cbd 853b 103d
00000240: 2c1b a4bd 6cce 123c 1b6e 4a3d c23e 0bbe
00000250: 9e80 a93d 505a 243e a997 8c3e c281 85bb
00000260: 5f66 173d 4b28 f23c 899c 31be 9e50 7e3c
00000270: de2f 23bc 07ad c73d 7e0a 49bd fcd7 123d
00000280: 853f cebd 77c7 3e3d eaf3 41bc 0f19 4e3d
00000290: a978 81bc abe1 133d 7c7e a83c 12da c9bb
000002a0: 2a00 b73d 7fab d5bc eb1d bdbd 579c b03c
000002b0: 4275 fabc 3894 8b3d 2239 9abd 3f69 3abd
000002c0: 79c0 94be b09e 8c3c 3857 d83c 8d93 a9bd
000002d0: 617c 223e 73d7 e33c 7c03 babc 0090 39be
000002e0: baaf d33c c12e dc3b 6b1c 93bd 1303 07bd
000002f0: 5d35 c0bc 30bb bd3c f177 703d b1e4 7f3d
00000300: 59b5 0ebe bbf7 88bc c0da e63c 1327 a4bc
00000310: 0780 9bbd 06f4 483e 858b 91be 7565 cd3d
00000320: c5e6 3dbb 81be 93be e493 483c 06d6 8ebd
00000330: 278e 95bd b669 9cbd 43d5 643c 410e 183d
00000340: 7c5f 383c 0ab2 8abd 7ed1 d43d 99e9 6fbd
00000350: 9177 8cbd d935 083d f5a7 4ebd da3f f9bc
00000360: dd7e 2bbc e3f0 343d 6c72 f53c b901 06bd
00000370: 080a 183d f8e4 063e e27f 5f3d 7685 17be
00000380: 1d78 a7bd 04a2 4c3d 0ce0 863d 5139 c53c
00000390: ec0c 85bc 96fd 9cbd 4cb9 b83c ea51 c93c
000003a0: 21d0 053d b001 673c 0748 433d 71ec dabc
000003b0: ccc7 31bd aaed 893b 09d0 b33c bdce 673d
000003c0: 6d7a f2bc 548a 27bd 855a 78bd 9ff5 933c
000003d0: bd8a bbbd 462d 163c f2fb 5cba 4f49 ddbc
000003e0: 29a6 bf3d 88a5 a9bd f36e b4bd 5c12 88bb
000003f0: 56bc 8b3d ce1a 9abd 6fcf 0d3e 12be d9ba

linear.1.bias f4 [7]
0.0737328 0.08228992 0.04150869 -0.05840672 0.058717005 -0.035433903 0.024897214
00000000: 3901 973d 9e87 a83d 0405 2a3d e33b 6fbd
00000010: 3e81 703d 2423 11bd 3ef5 cb3c

linear.2.weight f4 [7, 281]
-0.31544948 -0.15181784 0.3383135 0.08147805 -0.060165316 0.5495636 -0.20003547 -0.26288852
1.0157448 -0.10288351 0.0011480259 1.0758146 0.6151406 0.013151985 0.003996875 -0.023847062
0.5886776 -0.004933304 -0.27176788 -0.13104542 -0.5950625 0.10477766 0.032511324 0.13019644
-0.040876843 -0.60908383 0.07938386 -0.05097916 -0.14251468 -0.08716992 -0.066751815 -0.013223012
-0.8522308 -0.022148594 -0.052315935 -0.06088486 0.57435006 0.9803674 0.025492826 -0.018382343
-0.02170825 -0.016607149 0.13160172 0.98771864 -0.05240945 -0.08271339 0.0170123 0.34839875
-0.3177408 0.07175233 0.04873897 -0.027577132 0.044536047 0.043285713 -0.32315332 0.081767574
-0.101865925 -0.14249916 -0.6801864 0.36089164 -0.03650065 -0.058258556 -0.04924189 -0.061851133
-0.06739638 0.0844338 -0.13577147 0.111388825 -0.093918234 -0.022805538 -0.07270104 0.019813886
0.0076770233 0.03284281 -0.07818873 -0.061379887 -0.085090585 -0.0473123 -0.07419528 -0.082294635
0.009857735 0.030342817 0.046392664 0.019672018 0.11054328 0.066096514 -0.011848827 -0.035139266
-0.05080504 -0.024946876 -0.05138246 -0.26949453 -0.08752144 0.030372424 -0.22236897 0.06349659
0.034770012 -0.029153148 -0.059370954 -0.082747966 0.0921134 -0.053872105 -0.07916679 0.022330673
-0.15983897 -0.08975431 -0.028563902 0.068544336 -0.06325182 -0.15106764 -0.10431664 0.016589845
-0.016275678 -0.03003595 -0.11058074 -0.05373445 0.094673745 0.014225006 -0.07313203 0.01674389
-0.2670932 -0.024500702 -0.09133568 -0.0821258 -0.040316675 0.21744394 -0.006330003 -0.012260876
-0.09113212 -0.008568992 -0.38238138 -0.027696203 0.0307418 -0.033677027 0.06918306 0.037597947
-0.078592144 0.041557748 -0.0077939504 0.07193395 0.10082974 -0.021730917 0.005293973 -0.014733915
0.03897037 0.17040445 -0.13740665 -0.022224426 -0.1468813 -0.08553822 -0.22859333 -0.11991307
0.13146122 0.0075830603 0.08861809 0.04825537 -0.024468765 -0.049697906 -0.05127022 -0.036440626
0.022404805 -0.12428972 0.0281024 -0.11684161 -0.057492804 -0.0017059124 0.25409764 0.021855691
-0.19881675 -0.041627135 0.09321283 -0.06222302 0.042808924 -0.11921354 0.042538587 0.11820528
0.20587361 -0.06898701 -0.17602834 0.027598796 -0.08967941 0.045200754 -0.0370038 0.040830273
-0.0883501 -0.04625813 0.008324389 0.022767581 -0.07452736 -0.013023413 -0.064857885 -0.30111834
0.12752584 0.021021092 0.07554021 0.05444866 0.059674725 -0.12128127 0.27446547 -0.13171971
0.0240719 0.26734114 -0.009248304 -0.023361396 0.09202985 -0.0027122037 -0.03187456 -0.06187971
0.03687152 -0.020659762 0.12484859 -0.08792814 -0.12557878 0.051369034 -0.065220326 -0.13172045
-0.028639821 -0.087268 -0.061258495 0.034334317 -0.06448197 0.0018669401 -0.041943938 0.13438089
0.05304918 0.04687157 -0.046409618 -0.062632844 -0.06869916 -0.12031451 -0.050700054 -0.07478942
-0.023448361 0.048924647 -0.062061083 0.045992993 0.028184861 -0.033012323 -0.0405991 -0.02853603
-0.04491259 0.02853902 0.060652643 -0.14407066 -8.871488e-05 0.012395354 -0.044243317 -0.052928634
-0.110745855 0.01926463 0.036776494 0.0331599 -0.055744912 0.16767086 -0.008869281 0.076997146
00000000: 9882 a1be 2376 1bbe 6d37 ad3e f7dd a63d
00000010: e86f 76bd 33b0 0c3f 19d6 4cbe 5399 86be
00000020: ed03 823f 97b4 d2bd 5b79 963a 4bb4 893f
00000030: db79 1d3f 6c7b 573c 38f8 823b ea5a c3bc
00000040: 93b3 163f 8ea7 a1bb 2925 8bbe c530 06be
00000050: 0456 18bf ab95 d63d 982a 053d 3752 053e
00000060: 7a6e 27bd ebec 1bbf 0194 a23d 86cf 50bd
00000070: 5eef 11be 2586 b2bd 2db5 88bd 55a5 58bc
00000080: cc2b 5abf f870 b5bc 3c49 56bd 6762 79bd
00000090: 9b08 133f 5cf9 7a3f 55d6 d03c 9196 96bc
000000a0: 80d5 b1bc b70b 88bc 9ac2 063e 21db 7c3f
000000b0: 4bab 56bd a365 a9bd 615d 8b3c 5261 b23e
000000c0: ecae a2be e3f2 923d 84a2 473d 70e9 e1bc
000000d0: 6e6b 363d 5c4c 313d 5a74 a5be c275 a73d
000000e0: 159f d0bd 4deb 11be b220 2ebf cac6 b83e
000000f0: b581 15bd 86a0 6ebd ddb1 49bd 9d57 7dbd
00000100: 1d07 8abd a1eb ac3d ad07 0bbe d31f e43d
00000110: 3458 c0bd aed2 babc 48e4 94bd bb50 a23c
00000120: 8a8f fb3b 2f86 063d 6a21 a0bd 7a69 7bbd
00000130: f943 aebd 8bca 41bd b2f3 97bd 178a a8bd
00000140: 5682 213c 8091 f83c 3c06 3e3d 3627 a13c
00000150: 8464 e23d 9c5d 873d 9521 42bc 31ee 0fbd
00000160: f218 50bd 645d ccbc 6a76 52bd 30fb 89be
00000170: 713e b3bd 97cf f83c b1b4 63be 800a 823d
00000180: 006b 0e3d 95d2 eebc f52e 73bd c477 a9bd
00000190: f3a5 bc3d ffa8 5cbd 3322 a2bd d1ee b63c
000001a0: d4ac 23be 1cd1 b7bd d8fe e9bc f960 8c3d
000001b0: 2c8a 81bd 7ab1 1abe f6a3 d5bd 6de7 873c
000001c0: 9254 85bc f40d f6bc 2878 e2bd a818 5cbd
000001d0: 4fe4 c13d 0010 693c 3fc6 95bd 7b2a 893c
000001e0: 71c0 88be b2b5 c8bc 330e bbbd 9231 a8bd
000001f0: 1923 25bd a0a9 5e3e ea6b cfbb d7e1 48bc
00000200: 7aa3 babd f564 0cbc 7ec7 c3be 26e3 e2bc
00000210: 3ad6 fb3c ecf0 09bd d9af 8d3d 4e00 1a3d
00000220: ebf4 a0bd 7538 2a3d 6564 ffbb 1b52 933d
00000230: d37f ce3d 0905 b2bc 1079 ad3b 8566 71bc
00000240: 659f 1f3d 817e 2e3e 54b4 0cbe 0010 b6bc
00000250: 0d68 16be aa2e afbd 5f14 6abe fc94 f5bd
00000260: c59d 063e 527b f83b 677d b53d 6ca7 453d
00000270: b872 c8bc 0890 4bbd b900 52bd c442 15bd
00000280: 488a b73c 9c8b febd 0137 e63c a74a efbd
00000290: 937d 6bbd ec98 dfba 1619 823e b50a b33c
000002a0: 9e96 4bbe 3781 2abd 5ee6 be3d 91dd 7ebd
000002b0: 6958 2f3d 3a26 f4bd f13c 2e3d 9c15 f23d
000002c0: 88d0 523e 1049 8dbd c640 34be df16 e23c
000002d0: d7a9 b7bd 6d24 393d 4c91 17bd a53d 273d
000002e0: e6f0 b4bd 2a79 3dbd 0563 083c 1483 ba3c
000002f0: cda1 98bd 2760 55bc 36d4 84bd 2f2c 9abe
00000300: 2296 023e 6d34 ac3c d3b4 9a3d 8f05 5f3d
00000310: 7c6d 743d 5162 f8bd bd86 8c3e 88e1 06be
00000320: 6f32 c53c f0e0 883e 3386 17bc 6660 bfbc
00000330: 257a bc3d 3abf 31bb e68e 02bd 9475 7dbd
00000340: 9706 173d a93e a9bc 9eb0 ff3d ab13 b4bd
00000350: b997 00be 5668 523d 3c92 85bd bae1 06be
00000360: 0f9e eabc 91b9 b2bd 30ea 7abd 24a2 0c3d
00000370: 200f 84bd 1db4 f43a 68cd 2bbd 259b 093e
00000380: 194a 593d 67fc 3f3d 0318 3ebd a645 80bd
00000390: 25b2 8cbd 7467 f6bd dcaa 4fbd 322b 99bd
000003a0: c716 c0bc 3665 483d c333 7ebd 2663 3c3d
000003b0: f0e3 e63c ee37 07bd 3e4b 26bd 64c4 e9bc
000003c0: 44f6 37bd aaca e93c e86e 783d 4287 13be
000003d0: 700c bab8 e215 4b3c 7b38 35bd b2cb 58bd
000003e0: b9ce e2bd dbd0 9d3c f3a2 163d add2 073d
000003f0: c754 64bd e9b1 2b3e 7650 11bc aeb0 9d3d

linear.2.bias f4 [7]
-0.084304675 -0.011154064 -0.06676304 -0.09211814 -0.00085511326 -0.028068831 -0.037045676
00000000: eea7 acbd 89bf 36bc 10bb 88bd 6fa8 bcbd
00000010: ae29 60ba 9bf0 e5bc 35bd 17bd
