Data/model_results_unphased_all_PRS/logistic_regression/onnx_models/final_model_chr15.onnx (onnx, 17661 bytes, 6 tensors)

linear.0.weight f4 [7, 193]
0	0xbf7c1b73	-0.98479384
1	0xbe736c43	-0.23771767
2	0x3f0d28fa	0.5514065
3	0x407e1044	3.9697428
4	0xbf6f1411	-0.93389994
5	0xbae2b20d	-0.0017295495
6	0xbde8a650	-0.113598466
7	0xbf7d9dca	-0.9906889
8	0xbf1d7dfb	-0.61520356
9	0x3f179834	0.5921662
10	0xbf082183	-0.53176135
11	0xbffa5758	-1.9557905
12	0x3fd88687	1.6916054
13	0x3f22e51c	0.63630843
14	0xbeac21c6	-0.33619517
15	0xbebb0e90	-0.36534548
16	0x3f5cd41c	0.86261153
17	0x40400a41	3.0006258
18	0x3eb05116	0.34436864
19	0xc0469081	-3.1025698
20	0xbf881fe1	-1.0634729
21	0x3f8c7e96	1.0976131
22	0xbf2a8396	-0.66607034
23	0xc108e428	-8.555702
24	0xbef2d577	-0.47428486
25	0x400562f9	2.0841658
26	0x3f8c7ca7	1.0975541
27	0x3f1c524c	0.61063075
28	0x3fda638a	1.7061627
29	0x3e237820	0.15963793
30	0xbf99f20e	-1.2026994
31	0x3f34cc6d	0.7062443
32	0x3e7b69f4	0.24552137
33	0xbf300694	-0.6876004
34	0x3ea5c2f5	0.32375303
35	0xbe7580a4	-0.23974854
36	0xbff08348	-1.8790064
37	0xc0867fcc	-4.2031
38	0xc0f4cd8f	-7.6500926
39	0xc09bb7be	-4.8661795
40	0xc08592d5	-4.174174
41	0x4089ce57	4.306438
42	0x3f158b3f	0.584156
43	0xbfa042c2	-1.2520373
44	0xc03fee8b	-2.9989345
45	0x400a6d28	2.1629124
46	0xbea60cb6	-0.32431573
47	0xbf7b6646	-0.9820293
48	0x3f2bbab4	0.6708176
49	0x3f94fbab	1.1639303
50	0xbf1baa55	-0.6080678
51	0x40347579	2.81967
52	0xbf2313f5	-0.63702327
53	0xbdf996d1	-0.12186969
54	0xbe6d1890	-0.23153901
55	0x3f2eb1d6	0.68240106
56	0x38f839e0	0.000118363416
57	0xbf964695	-1.174029
58	0xbe9dd0c8	-0.3082335
59	0xbcd5845e	-0.026064094
60	0x3d99fa76	0.07518475
61	0x3ead5ea1	0.3386126
62	0x3f0d906e	0.5529851
63	0x3e531274	0.20612508
64	0x3e1fcbdb	0.15605108
65	0xbdad52bc	-0.08463046
66	0xbf13b3c8	-0.576962
67	0x3ea04a87	0.3130686
68	0x3e82d2cf	0.2555146
69	0xbe07d163	-0.13263468
70	0xbf885fd6	-1.0654247
71	0x403bf803	2.9370124
72	0xbf4e825b	-0.80667657
73	0xbe0d8cca	-0.13823238
74	0xbd82c8ff	-0.06385993
75	0x3f2618e2	0.6488172
76	0xc010f536	-2.2649665
77	0xbe34ba09	-0.17649092
78	0x3f63b171	0.8894263
79	0x3ec27651	0.37980893
80	0x3fee43fc	1.8614497
81	0xbf2384b3	-0.6387436
82	0xbda98888	-0.082779944
83	0xbd760eac	-0.060072586
84	0x3eb39ebf	0.3508205
85	0x3df9e0c6	0.12201075
86	0x3c7eb6ce	0.015546514
87	0x3e735d79	0.23766126
88	0x3eacc73c	0.33745754
89	0xbead0d26	-0.33799094
90	0x3e60a8a5	0.21939333
91	0x3c8c4ed1	0.017127426
92	0x3e842876	0.2581212
93	0xbea9de11	-0.33177236
94	0xbfb3d82c	-1.4050345
95	0x3da1a480	0.07892704
96	0x3eee25dd	0.46513262
97	0x3f8ad253	1.0845436
98	0x3cdb9060	0.026802242
99	0xbe78cf1b	-0.24297754
100	0x3e4599da	0.19296971
101	0x3e8c1f6f	0.27367732
102	0xbdf58108	-0.119875014
103	0xbdd4ed95	-0.10396878
104	0xbf1745ff	-0.5909118
105	0x3ebd6b68	0.36996007
106	0x3ed160eb	0.40894255
107	0xbe3f1dbc	-0.18663687
108	0xbf3900b2	-0.72266686
109	0xbf697062	-0.9118711
110	0x3ddfec8c	0.109337896
111	0xbe8a738b	-0.27041277
112	0xbe8dcc75	-0.2769505
113	0xbf49feac	-0.78904223
114	0x3ee81fe5	0.45336834
115	0x3f46e3e8	0.7769151
116	0xbf1bbf2b	-0.60838574
117	0xbe51a107	-0.20471583
118	0xbe96798d	-0.2938961
119	0x3dcb3e12	0.09923948
120	0x3e5a3130	0.21307826
121	0xbe4827fa	-0.195465
122	0xbf035f52	-0.5131732
123	0x3f3270f5	0.6970361
124	0x3d9111b5	0.070834555
125	0xbd316244	-0.043306604
126	0x3ebe2bbe	0.37142748
127	0x3c19d685	0.009389524
128	0x3c98c4c2	0.018648509
129	0xbeb31da0	-0.3498354
130	0x3eda90af	0.4268851
131	0x3ee7d66a	0.45280772
132	0xbee48988	-0.44636178
133	0x3e0f6d80	0.14006615
134	0x3e46f9f4	0.19431287
135	0x3f3e89b5	0.74428874
136	0x3f00dcdd	0.5033701
137	0x3e60cbae	0.21952698
138	0xbebf3f8f	-0.3735318
139	0x3de7bf64	0.11315802
140	0xbf21b931	-0.63173205
141	0xbf168512	-0.587968
142	0x3ef214c8	0.4728148
143	0x3e588b09	0.21146788
144	0xbe7ff320	-0.24995089
145	0xbe7a43fb	-0.24439995
146	0x3df1e470	0.11811149
147	0x3d9fc9ab	0.07802137
148	0x3f9df3f5	1.2340075
149	0x3d8d0327	0.06885367
150	0xbf431a7f	-0.76212305
151	0x3e8bbe58	0.27293658
152	0xbe660823	-0.22464041
153	0x3f495683	0.7864763
154	0xbe957721	-0.2919245
155	0xbdcfced0	-0.10146868
156	0xbdd889de	-0.10573171
157	0xbf4f1d89	-0.8090444
158	0xbec32071	-0.38110688
159	0xbf8c6422	-1.0968058
160	0x3d22f92c	0.03978841
161	0xbd95ce49	-0.073147364
162	0x3f1deae0	0.61686516
163	0xbcc3fe8e	-0.023925092
164	0x3f574327	0.8408684
165	0x3f79fff7	0.97656196
166	0xbfbd3c48	-1.4784021
167	0xbdd4c7a0	-0.10389638
168	0xbefbe784	-0.4920007
169	0x3fc3a881	1.5285798
170	0xc077d463	-3.872338
171	0x3e9b9105	0.3038408
172	0x3f39e06d	0.7260807
173	0xbfe00b6a	-1.7503483
174	0x3d9e4ee0	0.07729888
175	0xbd906d2c	-0.07052073
176	0xbeaaaaf7	-0.3333356
177	0x400b6b01	2.178406
178	0xbeea3ff9	-0.45751932
179	0x3f8b4ff4	1.0883775
180	0xbe26d657	-0.16292702
181	0xbf24f313	-0.644334
182	0xbd3cd653	-0.046102833
183	0x3e115ef3	0.14196377
184	0x3e6e9845	0.23300274
185	0xbef91598	-0.48649287
186	0x3aad6ad0	0.0013230685
187	0x3f47a79a	0.77990115
188	0xbf84265c	-1.0324206
189	0x4022201e	2.5332103
190	0x3e99d164	0.30042565
191	0xbebddd66	-0.37082976
192	0xbff1e3b1	-1.8897611
193	0x3e940d7e	0.28916544
194	0x3e03c6f5	0.12868865
195	0x3d266311	0.04062182
196	0xbe53ca63	-0.20682673
197	0xbf0b06e4	-0.5430739
198	0x3e124e0e	0.14287588
199	0x3e7d82d4	0.24756938
200	0x3f092084	0.5356524
201	0xbe50f01d	-0.20404096
202	0xbdef84b7	-0.11695235
203	0x3e9e5494	0.30923903
204	0xbf03aab7	-0.51432365
205	0xbdcdf588	-0.10056597
206	0xbe463040	-0.19354343
207	0xbb9474e4	-0.004530536
208	0x3f270bef	0.65252584
209	0x3f1c966a	0.61167014
210	0xbecdfae1	-0.40230468
211	0x3e923de6	0.2856285
212	0x3f4b417b	0.7939679
213	0xbd08a863	-0.03336371
214	0xbe5e266f	-0.21694349
215	0x3eaed403	0.34146127
216	0xbeb07b8b	-0.34469256
217	0x3f43dc62	0.7650815
218	0xbf29d803	-0.6634523
219	0xbfd0ee7e	-1.6322782
220	0xbe9b13ed	-0.3028864
221	0x3f0a4595	0.54012424
222	0x3f3ad3cb	0.7297942
223	0xbea9998a	-0.33124954
224	0x3e468bec	0.19389313
225	0x3cfbe3b2	0.030748222
226	0xbeac45d2	-0.3364702
227	0xbe1ba6dd	-0.15200372
228	0x3fefdb72	1.8738844
229	0xbe6c5ffc	-0.2308349
230	0xbea8241f	-0.32840058
231	0x3e0acaa7	0.13553868
232	0xbdd0340e	-0.10166179
233	0x3f0df5af	0.5545301
234	0xbed3460b	-0.41264376
235	0x3e8cfc34	0.27536166
236	0xbe144c08	-0.14482129
237	0x3ee350b4	0.4439751
238	0xbe881b1e	-0.2658319
239	0x3ebf46c5	0.3735868
240	0xc069baf4	-3.6520357
241	0xbf5774ab	-0.84162396
242	0xbde7e078	-0.11322111
243	0x3e41d9aa	0.18930689
244	0xbfb2e9f0	-1.3977642
245	0x3fad2c83	1.3529209
246	0xbec32063	-0.38110647
247	0xbe96bf45	-0.29442802
248	0xbc47c8f9	-0.012193912
249	0xbe50b963	-0.2038322
250	0xbe8c30b8	-0.2738092
251	0xbf87f3fd	-1.0621334
252	0x3e51c564	0.20485455
253	0x3be92a0f	0.0071156095
254	0xbe0a56f8	-0.13509738
255	0x3fc75a40	1.5574417

linear.0.bias f4 [7]
0	0xbfa35320	-1.2759743
1	0x3f3bcee9	0.73362595
2	0x3ddf7236	0.10910456
3	0x3e98a882	0.2981606
4	0x3eebfad1	0.46089795
5	0x3dc4de09	0.09612662
6	0x3f3c2b83	0.73503894

linear.1.weight f4 [7, 193]
0	0x3eed33f9	0.46328714
1	0x3f60c0b0	0.8779402
2	0xbee18b9c	-0.44051826
3	0xbec37556	-0.38175458
4	0x3eb73ae2	0.35787112
5	0x3edfc14f	0.4370217
6	0xbd1881cc	-0.03723316
7	0x3e4e072e	0.20119926
8	0x3ef0e94b	0.47052988
9	0xbeda94dd	-0.426917
10	0x3e5bb350	0.21455121
11	0xbe85da59	-0.2614315
12	0xbe88d2ab	-0.26723227
13	0xbf00f040	-0.5036659
14	0xbe40216a	-0.18762746
15	0xbe5ad490	-0.21370149
16	0x3f0bed95	0.54659396
17	0xbdcd4734	-0.100233465
18	0xbdb93976	-0.09044163
19	0xbf2836a3	-0.6570837
20	0xbea8021d	-0.32814112
21	0x3cf06a06	0.02934743
22	0x3eb6a650	0.3567376
23	0xbef8cd52	-0.48594147
24	0xbe98f44f	-0.29873893
25	0xbf8c1380	-1.0943451
26	0xbf038711	-0.5137797
27	0x3bfed4e6	0.0077768443
28	0x3e7b4db4	0.2454136
29	0x3ff7064c	1.9298797
30	0x3ef533b3	0.47891006
31	0xbcc349e6	-0.023838948
32	0xbe3c33d0	-0.1837914
33	0x3e94aaf8	0.2903669
34	0x3ea3fa0c	0.32026708
35	0xbefc2520	-0.49247074
36	0x3f1c3885	0.6102374
37	0xbdb0b6e7	-0.08628636
38	0x3eb3cd25	0.3511745
39	0xbdb8b0a6	-0.09018068
40	0xbe71f9a3	-0.23630385
41	0x3f63ae43	0.8893778
42	0x3e0a51be	0.13507745
43	0xbecb9b57	-0.39766952
44	0x3eb7fcca	0.3593505
45	0x3e990fbe	0.29894823
46	0xbf1f4b82	-0.6222459
47	0x3fd0099b	1.6252931
48	0xbcb25d82	-0.021773104
49	0x3e2c6b02	0.16837695
50	0x3dde3d47	0.108515315
51	0xbf0aa7a3	-0.54162043
52	0x3f70ea76	0.9410776
53	0x3e9e8237	0.3095872
54	0x3f1c827a	0.6113659
55	0x3c12f068	0.00896845
56	0xbe4ce975	-0.20010932
57	0x3e8038cb	0.2504333
58	0x3ed64767	0.4185135
59	0xbdabd379	-0.083899446
60	0xbe75c9e0	-0.2400279
61	0xbe6c8aa1	-0.23099758
62	0xbda24f00	-0.07925224
63	0x3e3e3277	0.18573938
64	0xbebf701d	-0.37390223
65	0x3dcd6734	0.1002945
66	0x3eb1c81c	0.34722984
67	0xbdb2f0e5	-0.08737353
68	0xbe3a90db	-0.1821932
69	0x3e032f16	0.1281093
70	0x3f4509bf	0.76967996
71	0xbf782177	-0.96926063
72	0x3eb40559	0.3516033
73	0x3eb42e5b	0.35191616
74	0x3e94258d	0.289349
75	0xbe51c299	-0.2048439
76	0xbfe636ad	-1.7985436
77	0x3ddbf3df	0.10739874
78	0xbf4838c1	-0.782116
79	0xbe880f7c	-0.26574314
80	0xbf852b4f	-1.0403842
81	0x3f3f28f4	0.74671865
82	0xbde48077	-0.11157315
83	0xbc9e9046	-0.019355904
84	0xbd2a822c	-0.041628048
85	0xbe5984ed	-0.21242113
86	0x3e8bd2cb	0.2730926
87	0x3f6b37ac	0.91881824
88	0xbd49226e	-0.0491051
89	0x3d27afbd	0.04093908
90	0x3dcdddca	0.100520685
91	0xbd80a7e0	-0.062820196
92	0xbe37a5d2	-0.17934349
93	0x3e2d7472	0.16938952
94	0x3f87e104	1.0615544
95	0x3e18eaf0	0.14933372
96	0xbdb1f6d1	-0.086896546
97	0xbf27a68d	-0.6548851
98	0xbe4ac6ec	-0.19802445
99	0x3cce2737	0.025165183
100	0xbe62d8b8	-0.22152984
101	0xbe825189	-0.2545283
102	0x3ea07451	0.31338742
103	0xbc7d0192	-0.015442269
104	0x3e602fc2	0.21893218
105	0x3ed60122	0.4179774
106	0xbec7bd57	-0.39011642
107	0x3e39f89b	0.18161242
108	0x3e55c76b	0.20876853
109	0x3e8e7aab	0.27827963
110	0x3d22e27a	0.039766766
111	0x3c8c0bc8	0.017095461
112	0x3ddf94d3	0.10917058
113	0x3c9f2b61	0.019429864
114	0xbe88c780	-0.26714706
115	0xbe87c3a1	-0.2651644
116	0x3d702989	0.05863336
117	0x3e8ef821	0.27923682
118	0x3e620e74	0.22075826
119	0x3ea1b59a	0.31583863
120	0x3df861d0	0.12128031
121	0xbe2fc650	-0.17165494
122	0x3e899074	0.2686802
123	0xbec12fcc	-0.3773178
124	0xbdddd0bb	-0.10830828
125	0xbebdaf77	-0.37047932
126	0x3e257e78	0.16161525
127	0xbe71c4e1	-0.2361026
128	0xbd51fceb	-0.051266592
129	0x3d508c03	0.050914776
130	0xbcd3122b	-0.0257655
131	0xbe44cda0	-0.19219065
132	0x3eae5161	0.34046462
133	0x3e4e15a3	0.20125441
134	0xbe9dd4b6	-0.30826348
135	0xbe43fe95	-0.19140084
136	0xbdabc838	-0.08387798
137	0xbe9013b7	-0.2814004
138	0xbe93b913	-0.28852138
139	0xbdd663b9	-0.10468239
140	0x3e273c64	0.16331631
141	0xbd330327	-0.04370418
142	0x3e50da92	0.20395878
143	0xbc22da10	-0.009939685
144	0xbe23777d	-0.1596355
145	0xbd945191	-0.0724212
146	0x3ecfa950	0.40558863
147	0x3ea0a927	0.31379053
148	0xbf2c5d4e	-0.6732987
149	0xbda3d973	-0.080004595
150	0x3dd56ab4	0.10420743
151	0xbd2cc7d3	-0.042182755
152	0x3e14a06b	0.1451432
153	0xbe1d1bf5	-0.15342696
154	0x3db040e9	0.08606131
155	0x3ed0dbf9	0.40792826
156	0x3ea92e19	0.33042982
157	0x3f43b965	0.76454765
158	0x3e843372	0.258205
159	0x3ee5ac69	0.448581
160	0xbe813e08	-0.2524264
161	0x3dff2209	0.124576636
162	0xbf047191	-0.5173579
163	0x3e2b4ed7	0.16729294
164	0xbec3fafc	-0.38277423
165	0xbee1840f	-0.44046065
166	0xbe9596e4	-0.29216683
167	0x3e3ec00b	0.18627946
168	0x3e9bbbf9	0.3041685
169	0xbf0774c7	-0.52912563
170	0x3f4a83f0	0.7910757
171	0x3ec76b36	0.38948983
172	0xbec50b09	-0.38484982
173	0x3f026933	0.5094177
174	0x3e189cf9	0.1490363
175	0x3e02c677	0.12771021
176	0x3e8fd87c	0.28094852
177	0xbfa2f4a2	-1.2730906
178	0x3e99388a	0.29925948
179	0xbecd30e6	-0.4007637
180	0x3e4427a5	0.19155748
181	0x3e30d3a7	0.17268239
182	0xbda2cf96	-0.0794975
183	0xbe12380e	-0.14279196
184	0xbef96794	-0.48711836
185	0x3e57b97c	0.2106685
186	0x3e71e14a	0.23621097
187	0xbdccca59	-0.09999532
188	0x3e7354dd	0.23762842
189	0xbf70f492	-0.94123185
190	0xbec3e76c	-0.38262498
191	0xbeaeeae0	-0.3416357
192	0x3ecb0176	0.39649552
193	0xbeb4926b	-0.35267958
194	0x3f23439a	0.63775027
195	0x3eb52638	0.3538072
196	0x3f276695	0.653909
197	0x3f20967d	0.62729627
198	0x3e26b8aa	0.16281381
199	0x3df70824	0.120620996
200	0xbed99943	-0.42499742
201	0xbe7abaf0	-0.24485373
202	0x3e3ae6e6	0.18252143
203	0x3d9ee52f	0.07758557
204	0x3f47a205	0.779816
205	0xbca96130	-0.020676225
206	0x3c296169	0.010338166
207	0xbd553da9	-0.052060757
208	0xbd8352ea	-0.06412299
209	0xbf5f9bdb	-0.8734719
210	0x3e411e00	0.188591
211	0x3ccf8d5e	0.025335964
212	0xbf1fd2d5	-0.6243108
213	0x3ecefb68	0.40426183
214	0xbdc2b090	-0.09506333
215	0xbdf3781e	-0.11888145
216	0x3e463f4f	0.19360088
217	0x3b24627e	0.002508312
218	0x3ef26e6b	0.47349867
219	0x3fba6052	1.4560645
220	0x3eb89b0e	0.36055797
221	0xbee5a4c4	-0.4485227
222	0xbf6bab7a	-0.9205853
223	0x3d17a29e	0.03702032
224	0xbdc98bb9	-0.09841103
225	0xbe89dd19	-0.26926497
226	0x3ea28c4e	0.3174767
227	0x3ed77ea9	0.42088822
228	0xbf89ce2f	-1.0766047
229	0x3e8f0d5f	0.2793989
230	0x3e897335	0.26845708
231	0x3f2041cd	0.62600404
232	0x3e6c89a2	0.23099378
233	0x3e2a631d	0.16639371
234	0x3e32e5c4	0.17470461
235	0xbd7717ff	-0.06032562
236	0x3ed0ce2e	0.40782303
237	0x3d68f2f2	0.056872316
238	0x3f1636a8	0.5867715
239	0x3dbaddb6	0.09124319
240	0x3ffe7f24	1.988255
241	0x3d95475a	0.07289
242	0xbd4a5379	-0.049396012
243	0xbe88b339	-0.26699236
244	0x3fdf6994	1.7454095
245	0xc03e31e5	-2.9717953
246	0x3edf367c	0.43596256
247	0x3e07e8b8	0.13272369
248	0xbe8beba9	-0.27328232
249	0x3eca63ff	0.39529416
250	0x3daa7e6f	0.083248965
251	0x3f8b6349	1.0889674
252	0xbe0eea81	-0.13956644
253	0xbe153a09	-0.1457292
254	0x3f27261d	0.6529253
255	0x3ca24527	0.019808365

linear.1.bias f4 [7]
0	0x3e908dfd	0.28233328
1	0xbe0cf2bc	-0.13764471
2	0xbd38c01f	-0.045105096
3	0xbf047976	-0.51747835
4	0x3da97334	0.082739264
5	0x3da10a73	0.07863321
6	0x3effa282	0.4992867

linear.2.weight f4 [7, 193]
0	0x3eb5fd5d	0.35544863
1	0xbf8a93ea	-1.082639
2	0x3ea1d932	0.3161102
3	0xc0c46781	-6.1376348
4	0x3e9e9509	0.3097308
5	0xbf1d6e4d	-0.6149643
6	0x3dc0b686	0.094098136
7	0x3f7cc5fc	0.987396
8	0x3e17c29a	0.14820328
9	0x3db829d0	0.0899235
10	0x3e056911	0.13028361
11	0x3fd69927	1.6765488
12	0xbff1c950	-1.8889561
13	0x3d0b8b03	0.03406812
14	0x3f0db840	0.5535927
15	0x3f4cd2ee	0.80009353
16	0xbef1c317	-0.47219154
17	0xc05e3eb4	-3.472577
18	0xbe2f2c42	-0.17106727
19	0x40f7f9b0	7.7492294
20	0x3fd11826	1.6335495
21	0xbfc46df1	-1.5346051
22	0x3e0a161c	0.13484997
23	0x406db91a	3.7144227
24	0x3f4c20f7	0.797378
25	0xbfa8a1f0	-1.3174419
26	0xbf2716cc	-0.6526916
27	0xbee3dcf0	-0.445045
28	0xbfee21a4	-1.8604016
29	0xc0301e2a	-2.751841
30	0x3e940b64	0.2891494
31	0xbf52310c	-0.8210609
32	0x3d997842	0.074936405
33	0x3ecbbf84	0.39794552
34	0xbf96ff41	-1.1796647
35	0x3f782722	0.9693471
36	0x3f713f10	0.9423685
37	0x3fa9537c	1.3228602
38	0x408da5f3	4.4265075
39	0x405460b1	3.3184016
40	0x406f9d6d	3.7439835
41	0xc05fdf4f	-3.4980047
42	0xbf8b81a6	-1.089894
43	0x3fb26ecf	1.3940066
44	0x3ff26c14	1.8939233
45	0xc0763f18	-3.847601
46	0x3f80a27c	1.0049586
47	0xbfae1182	-1.3599093
48	0xbe3332a5	-0.17499788
49	0xbf4a12f2	-0.7893516
50	0x3ee511ee	0.44740242
51	0xc0e6b414	-7.209482
52	0xbf545667	-0.8294434
53	0xbee58e31	-0.44835046
54	0xbed15b5e	-0.4089002
55	0xbe4a826e	-0.19776317
56	0x3e607649	0.21920122
57	0x3f5f86d6	0.8731512
58	0xbe8987d2	-0.26861435
59	0x3d78541f	0.0606271
60	0x3e380f0c	0.1797449
61	0xbda67d66	-0.081293866
62	0xbe87661d	-0.26445094
63	0xbef1d2e5	-0.47231212
64	0x3e978316	0.29592198
65	0x3ce1823b	0.027527919
66	0x3e26a2a7	0.16272984
67	0x3da04cb8	0.07827133
68	0x3c5a90d8	0.0133401975
69	0xbc4db547	-0.012555427
70	0xbde97d8c	-0.11400899
71	0xbf870217	-1.0547513
72	0x3e814686	0.25249118
73	0xbea5a2d3	-0.32350788
74	0xbe882fcd	-0.2659897
75	0xbe3ca495	-0.18422158
76	0x4015a119	2.3379576
77	0xbc9e2915	-0.019306699
78	0x3e895c2f	0.26828143
79	0xbd89771e	-0.06712173
80	0xbee69b65	-0.45040432
81	0xbe55de63	-0.20885615
82	0x3eb144dc	0.34622848
83	0x3dfcf482	0.12351324
84	0xbe4f0a26	-0.20218715
85	0x3dc46d8c	0.09591207
86	0xbed75cb5	-0.42062917
87	0xbfb1a711	-1.387911
88	0xbe388dd9	-0.1802286
89	0x3ea768b2	0.32697064
90	0xbeaf8346	-0.3427984
91	0x3e12b4ef	0.14326833
92	0x3bd0116b	0.0063497326
93	0xbae66390	-0.0017577279
94	0xbe2a1178	-0.16608226
95	0xbe1e3e0f	-0.15453361
96	0xbeaaa542	-0.33329207
97	0xbdab9043	-0.08377125
98	0x3e5bcb35	0.21464236
99	0x3e5a99ed	0.2134778
100	0x3e768805	0.24075325
101	0x3cf0895b	0.029362371
102	0xbe4a3580	-0.19746971
103	0x3d919a02	0.07109453
104	0x3d762403	0.060092937
105	0xbf337813	-0.70105094
106	0x3dbe0e4e	0.09280072
107	0x3d83c2f0	0.06433666
108	0x3ec23ada	0.37935525
109	0x3f1a67bc	0.60314536
110	0xbdc7f285	-0.09763054
111	0x3ebc74d8	0.36807895
112	0x3e507f3b	0.20361035
113	0x3f271426	0.6526512
114	0xbd3f2bad	-0.04667251
115	0xbeb5cc2f	-0.35507342
116	0x3f0786bf	0.5293998
117	0xbe3c5923	-0.18393378
118	0xbe2879e3	-0.16452746
119	0xbe99cb3e	-0.30037874
120	0xbe4c7b58	-0.19968927
121	0x3ec12344	0.37722218
122	0x3dd9c858	0.10633916
123	0x3dfc1fb8	0.12310737
124	0x3e089a05	0.13340004
125	0x3f0bb57f	0.54573816
126	0xbed22b19	-0.41048506
127	0x3e58898d	0.21146221
128	0x3d0d0aac	0.034434006
129	0x3ebeb0f2	0.37244374
130	0xbe28a044	-0.16467386
131	0xbe63b47b	-0.22236817
132	0x3ddef944	0.108873874
133	0xbeaca6a9	-0.33720902
134	0x3e6f311e	0.2335858
135	0xbe91bec6	-0.2846586
136	0xbeeaf392	-0.45888954
137	0x3e5360ea	0.20642439
138	0x3efc43c5	0.49270454
139	0xbcd9e61b	-0.02659898
140	0x3eb71acc	0.35762632
141	0x3f2615ff	0.64877313
142	0xbf0559a6	-0.5208992
143	0xbe8cc600	-0.27494812
144	0x3eeb09c2	0.45905882
145	0x3e85a1f7	0.26100132
146	0xbefcabff	-0.49349973
147	0xbf01c6eb	-0.5069415
148	0xbf403283	-0.75077075
149	0xbc07561d	-0.008260277
150	0x3f1419be	0.5785178
151	0xbe9ea12b	-0.30982336
152	0x3c82f574	0.015986182
153	0xbefa61ed	-0.48902836
154	0x3d88da9a	0.0668232
155	0xbedfafb3	-0.43688735
156	0xbebb2fa2	-0.36559778
157	0xbef75567	-0.48307344
158	0x3dfd4abc	0.1236777
159	0x3ea8f56c	0.32999742
160	0x3e95f8be	0.29291338
161	0xbc9aa31c	-0.018876605
162	0x3dd9da6b	0.10637363
163	0xbd738299	-0.05945072
164	0xbead6384	-0.33864987
165	0xbee977b6	-0.45599145
166	0x40050f42	2.0790563
167	0xbaa34da7	-0.0012459055
168	0xbc7e9540	-0.015538514
169	0xbf2a1155	-0.66432697
170	0x3fa4ac4f	1.2865084
171	0xbf6af7b8	-0.9178424
172	0xbdfb24dc	-0.1226289
173	0x3f4b883b	0.79504746
174	0xbeb0a65e	-0.34501928
175	0xbe0b6ab2	-0.1361492
176	0xbdb1aef5	-0.086759485
177	0xbf0162f9	-0.50541645
178	0x3d52e6b8	0.05148956
179	0xbf515c65	-0.8178161
180	0xbd646e6f	-0.05576938
181	0x3ee9c0e8	0.45654988
182	0x3e9075f7	0.28215
183	0x3dd473ae	0.10373627
184	0x3e9a50da	0.3013981
185	0x3e8302c3	0.25588045
186	0xbedff234	-0.43739474
187	0xbf2aa7d3	-0.6666233
188	0x3f16e33c	0.5894048
189	0xbf960366	-1.1719787
190	0x3e279b40	0.16367817
191	0x3f2bcf35	0.6711305
192	0x3f5ce5fe	0.8628844
193	0x3e831344	0.25600636
194	0xc023fa2e	-2.5621448
195	0xbf6fa62e	-0.93612945
196	0xbf44d632	-0.76889336
197	0xbede3fe4	-0.4340812
198	0xbe6d0863	-0.2314773
199	0xbf4c3880	-0.7977371
200	0xbf044d53	-0.5168049
201	0x3f54dbcd	0.8314789
202	0xbd649a8f	-0.05581146
203	0xbf3712d5	-0.7151311
204	0xbf1271d7	-0.57204956
205	0x3e3694b1	0.17830159
206	0x3ed1bdd4	0.4096514
207	0x3dcd3a3a	0.100208715
208	0xbf724729	-0.9463983
209	0x3f0e9e0b	0.55709904
210	0x3ef6da37	0.4821336
211	0xbf1989ca	-0.59975874
212	0xbf41e427	-0.7573876
213	0xbf144679	-0.5792003
214	0x3f358fd3	0.70922583
215	0xbed008e7	-0.40631792
216	0x3e9f5cc0	0.3112545
217	0xbf8a5cb1	-1.0809537
218	0x3dbc62c1	0.09198523
219	0x3f04ff3d	0.5195196
220	0xbe303dcb	-0.17211072
221	0xbd23555a	-0.03987632
222	0x3f10befd	0.56541425
223	0x3f176b85	0.59148437
224	0xbe17be58	-0.14818704
225	0x3eb79700	0.3585739
226	0xbd34f2c4	-0.04417683
227	0xbf67335d	-0.9031275
228	0xbf81d485	-1.0142981
229	0x3dab45a9	0.08362896
230	0x3d62a34d	0.055331517
231	0xbfa5dcf7	-1.2958058
232	0xbd75341d	-0.059864152
233	0xbf87ca60	-1.0608635
234	0x3eba137e	0.36342996
235	0xbedb0021	-0.42773536
236	0xbf016f6a	-0.5056063
237	0xbf3b0fa0	-0.73070717
238	0xbf07b6d1	-0.5301333
239	0xbf5ca19c	-0.86184096
240	0x4061335d	3.51876
241	0x3fd0be01	1.6307985
242	0x3eb08309	0.34474972
243	0x3d4c6a7c	0.04990624
244	0xbff5d322	-1.9205058
245	0x40371f5c	2.861289
246	0x3d256f45	0.040389318
247	0x3e5e390b	0.21701448
248	0x3f0a677e	0.54064167
249	0xbe75ac51	-0.23991515
250	0x3eb99d79	0.36252955
251	0xbda866d8	-0.08222741
252	0xbe142b8f	-0.14469741
253	0x3dafd3f8	0.08585352
254	0xbf3da999	-0.7408691
255	0xc00968e4	-2.147027

linear.2.bias f4 [7]
0	0x3f2963de	0.6616801
1	0xbf6e3e8c	-0.9306419
2	0xbe5a28f9	-0.21304692
3	0xbe017d97	-0.12645565
4	0xbf930b36	-1.1487796
5	0xbe425f08	-0.18981564
6	0xbfbefe52	-1.4921362
