Data/model_results_unphased_all_PRS/logistic_regression/onnx_models/final_model_chr10.onnx (onnx, 129027 bytes, 6 tensors)

linear.0.weight f4 [18, 590]
00000000: 12c8 9cc0 4264 0b3e 5f49 13c0 9f70 9dc0
00000010: 990a d3c0 2417 f63f fa93 b9c0 a4cb 18be
00000020: b0b3 64c0 70b5 c7c0 4a84 b5bf 980b 923f
00000030: 6da3 bcbf 5356 0cc1 d07d bbbf 64c6 98c0
00000040: 3984 b6c0 4f12 0b40 16c4 8e40 d86e a2c0
00000050: b44b ac3f 60e8 dec0 0b39 1ac0 12cc 433e
00000060: d242 ac3f b902 a8c0 bd3f 7c40 726f 6ec0
00000070: eb5e 1bbe dd04 ddbf fba9 473f 0b13 f33d
00000080: a604 39bc 0996 69be b2ad 983f 3af2 1f3b
00000090: dc1d c3bd fba1 9fbf e280 efbd 7215 0e3e
000000a0: bc52 873d eec5 033f 57c9 e93e f525 d0bf
000000b0: 87e7 d1be 8f1a 033f cd8e 9c3d 601e 053f
000000c0: 0748 34be 5d36 9d3e f58c e03e cb69 5a3f
000000d0: 2dde 2cbf 6450 ebbb e5d8 8a3f fdb6 2bbe
000000e0: c705 063f 5276 70be 2250 fabe f137 e43e
000000f0: 792f 483f 2597 d6be a39d a4be 89fe bb3d
00000100: 1d6d f03e 2afd adbe c3be 0b3f c2ca 463f
00000110: a741 1cbf 2fde fa3f 2b68 ffbd a955 6e3e
00000120: aa96 643f b4a9 463e 2368 98bc 12e2 2f40
00000130: 808d 1640 1c94 da3f 56bb d8be 1e4c 613f
00000140: d578 403f 231a c63e 0284 93bf 80b5 8abf
00000150: 8d54 b5bc da06 ca3d e412 563e 4158 c13e
00000160: 04fd 8cbf 3335 30c0 b310 e0bd 7327 1d3e
00000170: cd9a 043e c9b0 36bc 0b65 b43e c57a b13e
00000180: 7e05 87be 2b72 5ebf 4635 1bbf 11df 0e3f
00000190: 2f1f 12c0 cfd7 633e 0827 71be 6b6f 073f
000001a0: bc49 80be af93 a5bf 1dc3 e5bd aa0d 1a40
000001b0: 1ac8 0dbf 0ef6 663e a5ca 3f3e 6772 443e
000001c0: 659b 773d ace8 7f3f 3044 b8be 4d35 0040
000001d0: 1999 a0bf 4bae fd3c 1abd cabf 3021 60bf
000001e0: 6400 4dbb dc2d 7dbf 00bf c73e 920d 39be
000001f0: ef5f 85be c005 3a40 df85 053f 9312 cf3f
00000200: 34a8 cabd 8d62 a9be 5f05 e23d c3ff 573e
00000210: f425 1cc0 c614 213f 930b dd3e 7191 ccbf
00000220: b345 e13e 667a a0bf 40bb 79bf 61b7 63be
00000230: 3e9d 093f 4168 8e3e 7250 cb3e a180 af3e
00000240: 21d8 a0bf 6c3c 253f e28e 84be 4de0 89bd
00000250: 51ee ba3f c355 b6bf bb2b bfbc b2d5 b2be
00000260: 0052 633f 9c2e 2abe 3f28 1940 846a f6be
00000270: daa4 abbf e03d 373e 9d93 c73e eb46 513f
00000280: 2ffe 023f 1abc 56be e198 a53f e993 31bf
00000290: 0af1 c0be 1943 7c40 c5cd 513f 15dd 44be
000002a0: 0d02 b6bd 77e4 81bf 33e3 83bf 2e8e cf3f
000002b0: fdf0 613f 8e95 f8bf 861f 82bf 01ae f3bf
000002c0: 1b05 bdbe fc66 9bbe 2de0 84be d61b 13be
000002d0: 8607 e23d 82ea b73e b887 b8bf 9ce8 47bf
000002e0: 7267 093e 0d51 c2bd 45a4 be3e 92d3 88bf
000002f0: 6821 a83f 9332 053f 0ce9 d4be 5d1d e9be
00000300: 80f8 10c0 2117 11bf 0b2a 3abf d4da 57be
00000310: 600d 7b3f 6866 b73f f478 0cc0 6327 293f
00000320: 18d5 f2be 555a e5be e006 a53f 48f5 90c0
00000330: b919 323e 58e3 3240 4899 fabe 20a8 193f
00000340: 2e24 b8be d66a a4bf 9ed3 17be 27f8 5e3f
00000350: c5e8 133d 1443 8c3d 0217 1d3f a73a 6e3d
00000360: 01bb 1fbd 1a8f 9bbf 2969 fabf 3405 403f
00000370: ad97 f0be 51ce e1bd 2178 cabe 1448 17be
00000380: 4d72 51bd d799 1d3e 9aa8 cbbe 9d5e 88bf
00000390: 9748 3cbf c7a8 1dbf 0f62 b5be bb1e 8abe
000003a0: 6787 b53e a690 e3be a008 3fbe d0b4 da3d
000003b0: 78cd e23f 78ab debd 4ec7 a33e 34b1 a83f
000003c0: c263 1a40 4719 bb3f 5bea 98c0 08ba 1dbe
000003d0: b495 81be 6e3a bdbd 8edc 123e 1d32 74bd
000003e0: 3326 343e b4a0 af3c 2540 bb3e 231f 063e
000003f0: 11f6 a63e 468c e2bf 5113 953f 8cfd 3abe
-4.8994226 0.13612464 -2.3013532 -4.9199977 -6.5950437 1.9225812 -5.7993135 -0.14921433
-3.5734673 -6.240898 -1.4180996 1.1409788 -1.4737374 -8.771075 -1.464777 -4.7742176
-5.7036405 2.1729925 4.4614363 -5.0760307 1.3460603 -6.965866 -2.4097316 0.19120815
1.3457892 -5.2503324 3.9413903 -3.725552 -0.15172927 -1.7267109 0.77993745 0.118688665
-0.011292612 -0.2281114 1.1928008 0.0024405853 -0.095271796 -1.2471308 -0.11694504 0.13875368
0.06607577 0.5147389 0.45661423 -1.6261584 -0.40996954 0.512124 0.076444246 0.51999474
-0.17605601 0.30705538 0.43857542 0.8531768 -0.67526513 -0.007181214 1.0847441 -0.16769023
0.52352566 -0.23482636 -0.4888926 0.4457393 0.7819744 -0.4191219 -0.32151517 0.09179408
0.46958247 -0.3398221 0.54587954 0.77653134 -0.6103768 1.9599055 -0.1247104 0.23274864
0.89292395 0.19400674 -0.018604344 2.7481732 2.3523865 1.7076449 -0.42330426 0.8800677
0.75184375 0.38691816 -1.152466 -1.083664 -0.022135044 0.09864588 0.20905644 0.37762645
-1.1014714 -2.753247 -0.10940685 0.1534708 0.12949677 -0.011150547 0.3523334 0.34663978
-0.26371378 -0.86892956 -0.60628164 0.5580912 -2.2831533 0.22250293 -0.23550045 0.52904385
-0.25056255 -1.2935694 -0.112188555 2.407084 -0.55383456 0.225548 0.18729647 0.19184266
0.06045093 0.99964404 -0.35989523 2.0032532 -1.2546722 0.030966898 -1.5838959 -0.8755064
-0.003128075 -0.988981 0.3901291 -0.18071583 -0.26049754 2.906601 0.52157396 1.6177543
-0.098953635 -0.33083 0.11036181 0.21093659 -2.4398165 0.6292232 0.43172893 -1.5981885
0.4399849 -1.2537353 -0.97551346 -0.22237922 0.5375556 0.27813914 0.39709812 0.34277824
-1.2565957 0.6454532 -0.2589026 -0.06732235 1.4603978 -1.4244922 -0.023336282 -0.34928662
0.88797 -0.16619343 2.3930814 -0.4812814 -1.3409684 0.17894697 0.38979807 0.8174884
0.51169103 -0.20970193 1.293728 -0.6936632 -0.37683898 3.9415953 0.81954604 -0.19224961
-0.0888711 -1.0147847 -1.0303711 1.6215265 0.88258344 -1.942064 -1.016587 -1.9037477
-0.36917958 -0.30352008 -0.25952283 -0.14366087 0.11036591 0.35921103 -1.4416418 -0.7808931
0.13418368 -0.094881155 0.37234703 -1.0689566 1.3135195 0.52030295 -0.4158405 -0.45530215
-2.2651672 -0.56675917 -0.727204 -0.2107957 0.98067284 1.4328127 -2.1948824 0.66075724
-0.47428203 -0.4479548 1.2892723 -4.5299416 0.17392625 2.795126 -0.4894507 0.60022163
-0.35965103 -1.2845104 -0.1482682 0.870974 0.03611066 0.06848732 0.6136323 0.058161404
-0.0389967 -1.2153046 -1.9563342 0.7500794 -0.4699072 -0.1102568 -0.39544776 -0.1477359
-0.051134396 0.15390716 -0.3977707 -1.0653874 -0.73548263 -0.6158566 -0.35426375 -0.2697657
0.35454866 -0.44446295 -0.18655634 0.106790185 1.7718954 -0.10872549 0.31987995 1.3179078
2.4123387 1.4617089 -4.778608 -0.15402997 -0.25309527 -0.0923966 0.14341947 -0.059618104
0.17592697 0.021438934 0.36572376 0.13097815 0.3260961 -1.7699058 1.164652 -0.18260783

linear.0.bias f4 [18]
00000000: d93a c03e 226a bd3d ede2 053e 28f6 d13d
00000010: bba9 943d ddbb f5bd fcec 933e 60b7 103e
00000020: 234f 3f3e 3670 063c 7af4 3a3e f0af 363d
00000030: 262b 923e cfa1 d83d 2a39 78bc 8365 fdbe
00000040: 434e 973e 445e 3f3e
0.37544897 0.09248759 0.13074847 0.10252029 0.07258936 -0.11998723 0.28891742 0.14132452
0.18682532 0.008205464 0.18257323 0.04460138 0.28548545 0.105777375 -0.015150348 -0.4949151
0.29551896 0.18688303

linear.1.weight f4 [18, 590]
00000000: 31f8 0e40 e02e ee3e de3e 15bf 4556 983f
00000010: 3a4c c93f 32be 1f3f 6d94 7d3f 7c6e 85bf
00000020: 24d6 ff3f 6673 d03f 2553 cfbf d8d4 5cbe
00000030: 335d c7be 6d54 0340 f91b 0ebf b09d 1640
00000040: dda1 b33f d647 ecbf e4cf 13c0 0282 3e3f
00000050: 57bf a23e 471b b23f 03d0 2f3f 4066 97be
00000060: b4a7 e4bf 3330 9d3f f501 08c0 5ab9 5bbe
00000070: 28ba 8db9 7fef 1ebe dafd 08bf 33a6 38bb
00000080: b3af 443e f36b ac3e 391c 30bf a549 123e
00000090: f82b d03e a6ee ac3f 27fd fb3e ee6c 9fbe
000000a0: b64f 2b3d de12 bc3a 2f21 69be 4dea 1a3f
000000b0: 3b9d ed3d f7a4 c1be 05de 08bd f5d0 383e
000000c0: d53b 413d 8ad0 cebd b1e8 2dbe 4d70 12bf
000000d0: 6684 0f3f d38d 263e 403f f7be 614b 49bd
000000e0: a708 98be 66cd 763e 69dc 143f b846 1fbe
000000f0: a843 36bf 82fa 0e3f 5039 393b b016 36bd
00000100: 33de 97be d142 c13e 006d e7be cad1 98be
00000110: 5b28 cebf 0487 19bf 934e 8b3d 4348 d03e
00000120: cc6c 19bf 1dbd 15bf 66f7 8d3e b447 c7bf
00000130: f2ab d0bf f9d0 a4bf c9e4 063f 3929 1bbe
00000140: fcaa d5be 13f2 bdbe e5f7 1bbe 7f0b 203f
00000150: 7e81 fa3d 91e7 183d 7c37 0fbe d1c6 90be
00000160: 4d1f 763f 0ec2 c23f 4eab 99bd 3c95 debd
00000170: 5e25 6cbe 59d6 f8be d14d 21be 6180 d7bd
00000180: 70b7 06bf 4302 303f ea30 113c 0987 28be
00000190: 1c3f a73f 1089 dc3f a0fe 83bf c2aa e6be
000001a0: f393 dc3e c6a5 243f bb0d 35bd 733e 38bf
000001b0: 7260 d73f 30ac 2b40 aaf5 253f 5e5c 54be
000001c0: 0a93 a4be e6f4 c1be 16a6 863f de8c a2bf
000001d0: b3e6 54bf 7d62 2c3e dd6f b53f fb83 ad3e
000001e0: 5730 233e 303b 053f a77c 2cbf d7ed b5bd
000001f0: c1ea f83e 8291 8fbf 1cb7 0dbf 1d59 a0bf
00000200: 2749 63bd 9ebb 61bc 885e c63d ca19 9dbe
00000210: 041d 1a40 fb31 b5be ae06 f2be 41be 453f
00000220: 680e 64bd 6a26 943f 1a3a 483f 693c 033e
00000230: fb1e f9be fa74 5c3e 7f73 8cbd a908 2a3e
00000240: 2bd6 5e3f 03e7 d1be bc06 46bf 0cc3 8ebe
00000250: 9de5 9dbf 3433 f83e fe17 c73c c17f 9cbe
00000260: 46d4 78bf c478 383e 1bde 0dc0 1c71 843f
00000270: 9cf3 9d3f 3046 d83d 2101 d8be ec24 09bf
00000280: 79be 56bf 3c4c 68be 401a aebf ea9a 063f
00000290: e387 f03e 9b99 8ec0 c3d5 88bf 4767 a33e
000002a0: 472e 66bc 39f0 403f e3ea a83f 1f22 95bf
000002b0: 4676 66bf aa78 d13f dbd8 f43f d49d c13f
000002c0: 8efd a43c 2f54 ad3f 29d3 c9bc 8a89 abbd
000002d0: 322d 263f fe4f bd3e 3fa3 cb3f 9b78 e33e
000002e0: bb2c acbf e3c6 bb3b 632a 95be 75b6 4f3f
000002f0: 09cc f3be 1869 33bf a91f e9be d535 a43e
00000300: 488d 8d3f cc2b 603f b74b c63e 90a5 003f
00000310: 0824 1bbf a2c5 a7be e21d d0bf 02bd 12bf
00000320: b801 b13f 28f1 b33e 1352 57bf 7632 9d3f
00000330: 1fa9 d03d 04b7 7bbe a358 1b3f 651e ab3d
00000340: a80b ce3e 43f0 13bd 5f89 93be 2b08 613d
00000350: 2764 3f3e f7a0 32bd 924c 2cbf e31b ccbc
00000360: 7a4d 1bbf bdf1 093e 257f 3d3f 6150 babe
00000370: 0cd1 cdbe 2cf8 df3c 7616 8dbf 1222 35bc
00000380: 1bba 063f 0bba c8bc 3a21 043e 94f1 543f
00000390: ff79 073f c0ff 1f3f de6e 5f3e efe3 b33d
000003a0: e582 19be 4c8b 113e c21d 2a3e 7416 21be
000003b0: 0f8d 96bf efa1 4a3d 8e3c 9fbe de92 04bf
000003c0: 193b 07c0 0289 63bf 6d08 7240 17b4 69bd
000003d0: 7ae2 a63e 3e7a 333f 6b13 743d ed5a 89bf
000003e0: 7c4f 873d 19a7 a63e d8f5 29bd 472d 7ebe
000003f0: fdfa f8bd 2667 d13e cf76 2cbf 804e a63e
2.2338984 0.46520138 -0.5829905 1.1901327 1.5726388 0.6239959 0.99054605 -1.0424342
1.9987226 1.6285217 -1.6197249 -0.21565568 -0.38938293 2.052028 -0.5551143 2.3533745
1.4033772 -1.8459423 -2.3095636 0.74417126 0.31786606 1.3914574 0.68676776 -0.29570198
-1.7863679 1.2280334 -2.1251194 -0.21457425 -0.00027032313 -0.15521048 -0.53512347 -0.0028175234
0.19207649 0.3367611 -0.68793064 0.14285906 0.40658545 1.351033 0.49216577 -0.31137794
0.041824065 0.0014348885 -0.22766565 0.60513765 0.11602255 -0.3782117 -0.03341486 0.18048461
0.0471762 -0.100983694 -0.16983296 -0.5720261 0.560614 0.16265039 -0.48290443 -0.049144153
-0.296941 0.24101791 0.5814882 -0.15554321 -0.71196985 0.55850995 0.002826292 -0.04445523
-0.29661712 0.3774629 -0.45200348 -0.29847556 -1.6106066 -0.5997164 0.06802096 0.4068013
-0.59931636 -0.5849169 0.27727813 -1.5568757 -1.6302474 -1.2876273 0.5269285 -0.15152444
-0.41732013 -0.3709875 -0.15231283 0.6251754 0.1223173 0.037330214 -0.1398601 -0.28276685
0.9614151 1.5215471 -0.07503377 -0.10868308 -0.2306113 -0.48601034 -0.15752341 -0.10522533
-0.52623653 0.6875345 0.00886176 -0.16457762 1.3066134 1.7229328 -1.031208 -0.45052153
0.43081626 0.6431545 -0.044202548 -0.7197029 1.6826308 2.6823845 0.6482798 -0.2073836
-0.32143432 -0.37882155 1.0519435 -1.2699239 -0.8316452 0.16834445 1.4174763 0.33889756
0.15936409 0.5204344 -0.67377704 -0.08883255 0.48616603 -1.121628 -0.5535753 -1.2527195
-0.055489685 -0.013777642 0.09685999 -0.30683738 2.408021 -0.35389695 -0.4727072 0.7724343
-0.0556778 1.1574223 0.78213656 0.12816013 -0.4865645 0.21528998 -0.06857967 0.16604866
0.87045544 -0.4099656 -0.77354026 -0.27883184 -1.2335697 0.48476565 0.024303433 -0.30566218
-0.97198904 0.18014818 -2.2166812 1.0347018 1.2339969 0.10560262 -0.4218836 -0.53571963
-0.8388439 -0.22685331 -1.3601761 0.5258013 0.46978673 -4.4562507 -1.0690235 0.31914732
-0.014049119 0.7536655 1.3196682 -1.1651038 -0.9002422 1.6364949 1.9128679 1.512629
0.020140436 1.3541316 -0.024636822 -0.08375843 0.6491271 0.36975092 1.5909194 0.44427952
-1.3451151 0.0057304963 -0.291339 0.8113778 -0.47616604 -0.70082235 -0.45531967 0.3207232
1.1058741 0.8756683 0.3872964 0.5025263 -0.60601854 -0.3276797 -1.625912 -0.57319653
1.382865 0.35144925 -0.8410961 1.2281024 0.10188507 -0.24581534 0.60682124 0.08355407
0.40243268 -0.036117803 -0.28815743 0.05493943 0.18690549 -0.04361054 -0.6730434 -0.024915641
-0.60665095 0.13471122 0.7402213 -0.3638945 -0.40198553 0.027340017 -1.102248 -0.011055486
0.52627724 -0.024502775 0.129033 0.8318112 0.52920526 0.6249962 0.21819636 0.08783709
-0.14991339 0.14213294 0.16612914 -0.15731221 -1.1761798 0.04947084 -0.31100887 -0.517866
-2.112982 -0.8888093 3.7817643 -0.057056513 0.32594663 0.701084 0.05958883 -1.0730873
0.06606957 0.3254936 -0.04149422 -0.2482196 -0.12157247 0.4089901 -0.6736879 0.32481766

linear.1.bias f4 [18]
00000000: 883e 53bd 9091 013b bebb 63bd 6c69 37bd
00000010: 2273 803d 2aa7 183e 241e 343d dda3 1e3e
00000020: ae59 90bd a615 a63d 5690 b43e 7707 32bc
00000030: e49a 443e 9bfc 453e 8d6d c13e 93e2 e53e
00000040: d17c e1bd e16d 363e
-0.051573306 0.00197706 -0.055598967 -0.044778273 0.0627196 0.14907518 0.043974057 0.15492196
-0.07048355 0.08109598 0.3526637 -0.010866038 0.19199711 0.19334643 0.37778893 0.44899425
-0.11010135 0.17815353

linear.2.weight f4 [18, 590]
00000000: c536 0bbf 4b13 10c0 adb2 4240 7157 823f
00000010: 5d58 a840 5225 9cc0 3fd3 393f c51f d43f
00000020: fb39 903f ca94 d13f 714f 7840 7577 61c0
00000030: 7e48 0640 e54f 9140 a698 1d40 ad93 2040
00000040: 629f 8d40 08fa b0bd fc4e d0c0 361a a03f
00000050: 1fcb 8fc0 97c1 2040 ae79 be3f b8fc 18bc
00000060: ca26 803f 4d8a 6c40 b4e0 b3c0 ffe1 7d40
00000070: a232 613e c566 d23f 546e 89be 6649 03be
00000080: 2829 b6be 1d79 9abe 6b20 1bbf d263 bcbe
00000090: 6dcf 19bf 6f18 e8be 8d8f 47bf 42b2 a83e
000000a0: 9f34 87be c227 62bf b303 8dbe 2146 453f
000000b0: 4dd4 b43e cffe 1f3d de84 293c 4ab9 ebbf
000000c0: 30a0 193e b75e 33be d037 a5be 1d4e 1cbe
000000d0: eb68 98bc 0562 9ebe 75b3 65bf f6ac c23e
000000e0: 6968 82be 98ef 6cbe ab15 b9be 9ef2 c4be
000000f0: 3fba 993d dee0 e9be fbe6 fd3e 8043 87bc
00000100: c71c 17be 5ffe 77be abd9 b6bc ce8a fcbe
00000110: 154f 3c40 2cbb 2dc0 ecfc 143d d160 bebf
00000120: 10f8 43bf 3d5e 4e3f 379a f2be d0ae debf
00000130: 645e b6bf 2ae4 10bf d9bc ccbe 85cf a0bf
00000140: 9305 dabe 76b0 933c 4fdb 183f ffdc 1e3f
00000150: 969c 3dbe 0f4d 8abe 95e2 de3d 69fd 88bb
00000160: 598d 8bbc ad29 c73f 3ce4 853e 6377 32bc
00000170: bc82 e33e 1532 963f fad3 b9be 1416 bfbe
00000180: c884 f03f f488 063e c138 743e 4c14 0dbf
00000190: c9fb 0140 fcf0 35c0 0e4e 3c40 bbc7 2abf
000001a0: a497 1dbf d3bb 3c3f 5e5c 893e ca6c 2bbf
000001b0: bb7a e0bf e301 6ec0 fea7 0fc0 2bb6 903d
000001c0: 2efb 203f 3371 b4bf 4695 a6bf aeb9 4dbf
000001d0: 32a6 3440 aed9 babe d65a eb3e dbf6 453f
000001e0: 4c81 c3be 5a4b 133f 7526 463f a6aa 1f3f
000001f0: 2f40 15bf 695b 70c0 c6e6 973e 3a07 2e3f
00000200: 170e 6f3f 156d 2b3f 0973 cbbe 853e 853e
00000210: e084 07bf 1eef dbbe 9893 513e 2858 bf3f
00000220: 5fcd 02bf fbe9 72be 4780 a8be caf8 943e
00000230: 7669 843d 608e 66bf 351e ebbe c9cc 6fbf
00000240: b3be 013f a17b acbe a9be 1d40 c08f 0a3f
00000250: 7257 0d3d 7fbb 973f 1a87 d23d dbf3 a83f
00000260: 318f bc3e 9c5d 04be f731 efbe 068c 82bf
00000270: 16e9 46be e7f3 06bf 06c5 c33e afb9 cb3d
00000280: d06d 233f 1b20 613f 7b16 9f3e 29c3 4b3e
00000290: b68d e5be 4efc 263e f373 003f 20a7 06be
000002a0: ff5c 223e d316 413f 3062 5dbf df49 b9be
000002b0: c3e8 d13d ee15 453e aa55 83c0 c440 d43d
000002c0: 8c63 8b3f ef36 d6bf fdb8 e93e 9c3b 053f
000002d0: 2169 c8bf e493 16c0 b41b 7abf e79e fc3e
000002e0: 67f0 d33f 7684 f83c 1095 943d 7d4d d93d
000002f0: 3792 33c0 686e 0e3f e295 863f b81a 123f
00000300: 43a3 873f 9928 60bf e8d3 7a3e 6b08 1dbf
00000310: d233 04bf 6a2f 81c0 2e56 3440 b464 10bf
00000320: 251c c0bf bd57 d3bd 4036 18bf e92a c13f
00000330: 25a8 16bf 7cf4 22c0 22b8 483d 933d 10bf
00000340: 896c 56be f010 b23f ad35 4d3f 592c 05c0
00000350: 534e 92be 4b0a 79be 9c54 c03e 9d7b adbd
00000360: 096b 8f3f 555a 1040 07c2 fb3f c441 03bf
00000370: e328 883f a15d 0d3e 2221 6d40 71d9 2e3f
00000380: 3e11 87bf 5ad7 5bbe e964 c33e 441c 41be
00000390: 1e54 193e d757 01bf beff a73d 18b1 0a3f
000003a0: 1c23 dcbe bd80 ef3e 14cd 3b3c e637 553d
000003b0: f7cb 98bf 636b 443e 8eb2 7836 0d19 a5bf
000003c0: a9df 06be c1de 9abf 9044 c2bf 6994 133f
000003d0: 2ef7 a2bd 0322 ccbf 4dc2 c3be 66ae f53f
000003e0: 72d7 ddbe ed67 37bf 5949 b1be 572e 743e
000003f0: da49 c1be 135e 1840 031b 7dbf dc17 a7be
-0.54380447 -2.2511775 3.0421555 1.0182935 5.2607865 -4.8795557 0.7258796 1.6572195
1.1267694 1.6373532 3.8798487 -3.522916 2.0981746 4.5410028 2.462442 2.5090134
4.425706 -0.0864144 -6.5096416 1.2507999 -4.493545 2.5118158 1.4880884 -0.009337597
1.0011837 3.6959412 -5.6211796 3.9669187 0.21991971 1.6437613 -0.26841986 -0.12820968
-0.35578275 -0.30170527 -0.6059634 -0.36794907 -0.6008213 -0.4533114 -0.77953416 0.329485
-0.26407334 -0.88341916 -0.27541885 0.77060133 0.35318223 0.039061364 0.010346619 -1.8415921
0.15002513 -0.175166 -0.32269144 -0.15264173 -0.018604716 -0.30934158 -0.89726955 0.38022584
-0.25470284 -0.23138273 -0.36149344 -0.38466352 0.07506227 -0.45679373 0.49590287 -0.016511679
-0.14757071 -0.24218129 -0.022320589 -0.4932465 2.9423268 -2.714549 0.036374018 -1.4873296
-0.7655039 0.80612546 -0.47383282 -1.7397099 -1.4247556 -0.5659815 -0.3998783 -1.256333
-0.42582378 0.01802848 0.5970964 0.62055963 -0.18516764 -0.27011916 0.10883061 -0.0041805995
-0.017035173 1.5559593 0.26150692 -0.010892722 0.4443568 1.1734034 -0.36294538 -0.37321532
1.8790522 0.13138181 0.23849775 -0.55109096 2.0309927 -2.8428335 2.942264 -0.66711015
-0.6155951 0.73724097 0.26828283 -0.66962874 -1.7537454 -3.7188652 -2.2446284 0.07065996
0.6288327 -1.4097046 -1.3014305 -0.8036145 2.8226438 -0.364942 0.4596774 0.77329797
-0.38184583 0.5753685 0.7740243 0.62369764 -0.5830106 -3.7555792 0.29668254 0.67979777
0.93380874 0.6696332 -0.39736202 0.2602426 -0.52937126 -0.4295587 0.20466459 1.4948778
-0.5109462 -0.23722069 -0.32910368 0.2909606 0.064654276 -0.90060997 -0.45921484 -0.9367185
0.5068161 -0.3368807 2.464762 0.54125595 0.034507222 1.1854094 0.10279675 1.3199419
0.36827996 -0.12926334 -0.46717808 -1.0198982 -0.19424853 -0.52715915 0.38236254 0.09947526
0.63839436 0.87939614 0.3107184 0.19898666 -0.4483468 0.16307184 0.50176924 -0.1314969
0.15855788 0.7542545 -0.8647795 -0.36189172 0.10249474 0.19246647 -4.104207 0.103639156
1.0889754 -1.6735514 0.45648947 0.5204408 -1.5657083 -2.3527765 -0.9769852 0.49339983
1.655774 0.0303366 0.07254994 0.10610483 -2.8057992 0.55637217 1.0514491 0.5707202
1.0596699 -0.8756195 0.24494898 -0.6134097 -0.5164157 -4.037038 2.81776 -0.5640366
-1.5008589 -0.10319469 -0.5945778 1.509122 -0.5885032 -2.5461721 0.049003728 -0.56343955
-0.2093984 1.3911419 0.8016003 -2.0808318 -0.28575382 -0.24320333 0.37564552 -0.08470843
1.120454 2.2555134 1.9668587 -0.51272225 1.0637478 0.13805248 3.7051473 0.6830054
-1.0552137 -0.21468869 0.38162926 -0.18858439 0.14973494 -0.5052466 0.08203076 0.54176474
-0.42995536 0.46777907 0.011462469 0.052055262 -1.1937245 0.1918159 3.7058812e-06 -1.289827
-0.13171257 -1.2099229 -1.5177174 0.5764833 -0.07957302 -1.594788 -0.38234177 1.9193847
-0.43328434 -0.71642953 -0.34626272 0.23845802 -0.37751657 2.3807418 -0.9886934 -0.3263539

linear.2.bias f4 [18]
00000000: 61d3 03bf a62c 1abe b2a3 19bd 52e2 38bc
00000010: 56d1 3dbe f511 ddbd c51a b3be ee2d 87be
00000020: bbd1 21be 2a8e f9bd 41d7 01bf 5a58 0cbd
00000030: 7294 0dbf 35b3 43be 543f ccbe 5037 c0bc
00000040: 7878 eabe e316 afbe
-0.51494414 -0.15056095 -0.037509628 -0.011284428 -0.18536887 -0.10794441 -0.3498136 -0.2640223
-0.15802662 -0.12185319 -0.50719076 -0.034263946 -0.55304635 -0.19111331 -0.39892066 -0.023463875
-0.45795035 -0.3419715
