Data/model_results_unphased_all_PRS/linear_regression/onnx_models/final_model_chr15.onnx (onnx, 8763 bytes, 2 tensors)

linear.weight f4 [7, 303]
000000 2b e5 ac 3d 82 d9 85 bc 92 a2 cf be eb d8 43 bd
       0.08442148 -0.016339067 -0.4055372 -0.04781429
000010 a1 43 f2 3a 1b 61 ad bc 17 99 a2 3d 20 a8 9b b9
       0.001848329 -0.021164468 0.07939356 -0.00029689167
000020 96 e9 e6 bc 67 de 31 39 ae d1 ab 3d 47 c6 52 be
       -0.028187554 0.00016962887 0.083896026 -0.2058345
000030 09 c6 b5 bc 96 1b b4 3c f8 63 a1 3d a5 3e 08 bd
       -0.022189157 0.02198581 0.07880396 -0.033262867
000040 83 85 90 be 19 20 a0 3b 16 50 5f 3e c4 1c ea 3d
       -0.2822686 0.004886639 0.21807894 0.11431268
000050 5e 1d c9 bd 26 76 e9 3c 0a 22 3f 3e 58 42 0c 3d
       -0.098200545 0.02849872 0.18665329 0.034242958
000060 90 c7 b4 bd 9e a3 fc bd e8 56 20 bd 84 96 12 be
       -0.08827126 -0.12335895 -0.03914538 -0.1431523
000070 dd 1c 6d bd ad f1 e5 3c 40 a7 36 bd 9c ed 8b bb
       -0.057888854 0.028069342 -0.044593096 -0.0042702686
000080 3c 5e b4 3d 10 4c ca 3d 4c 1b c2 3d 33 fd 38 3e
       0.08807036 0.09877789 0.09477863 0.18065338
000090 16 0e fe 3d 55 56 97 3e 5a bd b2 3e 92 25 94 3e
       0.124050304 0.29558054 0.3491009 0.28934914
0000a0 ff 56 9a be 29 53 b0 bd 73 d9 15 3e 92 36 2c 3e
       -0.30144498 -0.086096115 0.14633732 0.16817692
0000b0 71 ae c9 3c 8f 3e fd bd b8 05 31 3e ee 24 8c bc
       0.024619313 -0.12365448 0.17287338 -0.017107453
0000c0 65 28 53 bd bb 08 dd 3b 28 e2 9b bc ab e1 12 3d
       -0.051552195 0.0067454255 -0.019028738 0.035859745
0000d0 be c6 7e be 88 6b 5b 3d f4 6e 4d 3d 38 79 21 bd
       -0.24880502 0.053569347 0.05015464 -0.039422244
0000e0 67 aa 72 3b f8 ef bf 3c 8a 03 ec 3d 15 44 c2 bb
       0.0037027837 0.023429856 0.115241125 -0.005928526
0000f0 bf 1a c8 bc 5f 4c 0b bd 35 02 80 bc a5 8c c4 bc
       -0.024426816 -0.03400838 -0.015626052 -0.023992846
000100 36 37 76 bd 6e 6b bb bb 0b bd 02 3d c0 15 ef 3c
       -0.060111247 -0.0057195937 0.031918567 0.029185176
000110 1b f1 24 3d 0f d9 20 3c 40 cd 08 bc 34 88 19 3d
       0.040269 0.009817376 -0.008349717 0.03748341
000120 9b 85 b4 bc dd 1f 0c be bd 36 ba 3a 60 d9 cd 3c
       -0.022036364 -0.1368403 0.0014206987 0.025128067
000130 2f ea 08 bc 44 af 43 bc 4e e7 43 3d 30 01 e6 bc
       -0.008356615 -0.011943642 0.04782801 -0.028076738
000140 62 70 0b bd a8 fc ce bc 93 d7 23 be aa 82 0f 3c
       -0.034042723 -0.02526696 -0.16000204 0.00875918
000150 18 1d f8 3c 4f 3d 89 3b 4b 85 e3 bb 77 7f b0 3c
       0.03028731 0.0041882168 -0.00694338 0.021545155
000160 04 d9 db bb 7a 70 84 bd a0 bb e2 3b fd 8d f0 3c
       -0.00670922 -0.06466766 0.0069193393 0.02936458
000170 9b 0d b8 3b e9 47 8c 3c 73 1c 19 3b ca 8e 82 3b
       0.0056168563 0.017124133 0.0023362904 0.003984307
000180 fc f1 5b 3c 7e 2e f3 3d 59 2c 0c 3b 79 34 78 bc
       0.013424393 0.11874102 0.0021388738 -0.015149229
000190 bf 5e 9e bd cf 43 0b 3c 31 d4 2b 3d d0 4d 5a bc
       -0.07732915 0.008500054 0.04195041 -0.013324216
0001a0 39 53 4b 3d fc 4a 8e 3c af f2 db bc 75 9b 2b bc
       0.049639914 0.01736974 -0.026849119 -0.010474076
0001b0 f3 53 6c 3d 63 31 64 3c 81 ed f0 bc 80 e3 f9 bb
       0.057697248 0.01392779 -0.029410126 -0.007625997
0001c0 87 7f a1 bb d7 ee 86 3c 78 80 1a bd 76 62 d8 bb
       -0.0049285325 0.01647131 -0.037720174 -0.0066035343
0001d0 d6 4c b4 3c 5b f9 7e 3c c9 92 1e bd 3c b4 ae 3c
       0.022009294 0.015562381 -0.038714204 0.021326177
0001e0 0e ac 03 3e 2b 65 21 3d 17 34 79 3c db ff 18 3c
       0.12858602 0.039403122 0.015210173 0.009338344
0001f0 ef 0b 75 3c 86 68 cf 3b 65 dd 86 bc 6e 2e 24 bd
       0.0149564585 0.006329599 -0.016462991 -0.04008334
000200 24 10 f9 bc 10 34 47 3c fa 20 c5 3b c0 bc 21 3d
       -0.030403204 0.012158409 0.006015894 0.039486647
000210 db 77 15 3b 41 66 91 3d 3b 3c 9b bc 8c 63 88 bc
       0.0022807035 0.070995815 -0.018949619 -0.01664903
000220 6c 86 2b 3d 99 3b 02 3d 59 57 c3 bc 47 66 4a bd
       0.04187624 0.031795118 -0.023845362 -0.049413946
000230 a8 e9 bd 3c 16 b0 04 3d c4 9f 8a 3c 2a 0b 23 bc
       0.023182705 0.03239449 0.016921885 -0.009951392
000240 7f 99 e0 ba 16 c6 98 bc 09 0c 43 bc 09 b4 69 bc
       -0.0017135589 -0.018649142 -0.011904725 -0.014264115
000250 0f 99 40 3b c2 56 d6 3c 5f e6 be 3d 60 aa 3a bd
       0.0029388105 0.026164416 0.093212835 -0.04557264
000260 cf 9d 5b bb ac 2e a2 3c a5 f3 c4 bb 94 67 a4 3d
       -0.003351081 0.019797646 -0.00601049 0.080275685
000270 f7 fc 5a bb bd 3e f2 bc ef 91 19 3c 94 2c 3a 3c
       -0.003341494 -0.029570932 0.009373172 0.011363167
000280 c2 31 a8 3c 37 3f 03 bc e3 0e 3a 3d f8 ce 88 3c
       0.020531539 -0.008010677 0.045424353 0.016700253
000290 7e 43 89 3b de de 34 bb 7a 02 15 3c 65 26 81 bc
       0.004188954 -0.002759866 0.009094829 -0.015765378
0002a0 cf 02 0a 3d 52 49 79 ba 64 35 4e bb 20 48 bc 3c
       0.033694085 -0.0009509522 -0.0031464929 0.02298361
0002b0 c9 3d 43 3d 3f ea 25 3c 61 6e ad 3b e6 dc 1b b9
       0.047666345 0.010126649 0.005292699 -0.00014864243
0002c0 9c 1e 41 3d a5 91 d0 3c 58 37 28 3d d0 7e 17 3c
       0.047148332 0.025460074 0.041068405 0.009246543
0002d0 49 de e7 bc 6a 26 72 bc eb 29 aa bb 5e 4a ff 3c
       -0.028304236 -0.014779666 -0.0051929853 0.03116339
0002e0 cc 87 61 3d f2 c0 9a 3c c9 03 c9 3c 16 c8 bf 3c
       0.055061147 0.018890832 0.024537938 0.023410838
0002f0 fe 52 3a bc c8 7e ba bd ba 97 88 bb e8 00 91 bd
       -0.011372326 -0.09106213 -0.004168478 -0.07080251
000300 85 9c 4c bd cb 3e eb 3d c5 05 ed 3b 0a 8b b7 ba
       -0.049953956 0.11486586 0.007233354 -0.0014003229
000310 58 25 96 3c df dc a9 3c 8a 7c 77 3d 00 cd bf 37
       0.018328354 0.020735202 0.060421504 2.2864435e-05
000320 e8 53 d4 3b cc 2d 56 bc 11 e8 d5 3c b7 11 87 bd
       0.006479729 -0.013072442 0.026111634 -0.06595176
000330 5c ed 84 bb de 9c c0 bc 38 19 15 bc ed c3 94 3c
       -0.0040566158 -0.0235123 -0.009100251 0.018159831
000340 3a fc 01 3d 7c 35 81 bd f8 73 95 3c a1 69 70 3c
       0.031734683 -0.063090295 0.018243775 0.014673621
000350 49 25 a8 3b d6 d5 5c bc a8 34 af 3d b1 9f b9 bb
       0.005131398 -0.013478717 0.08554965 -0.0056647887
000360 6a e6 75 3c 86 ba 2a bc aa b6 91 3c e1 45 33 bd
       0.015008548 -0.010420447 0.017787296 -0.043767814
000370 ca aa 93 3d b7 13 4a bd c1 a8 81 3c 0b 86 a7 bc
       0.0721031 -0.049335208 0.015827538 -0.020449659
000380 d1 55 b9 bd 57 f9 89 bc b6 f8 42 3b c5 fb b2 bc
       -0.09049571 -0.016842527 0.0029750294 -0.021848569
000390 ce c7 81 3c de 76 bb 3c 71 59 19 3d db 13 4f 3c
       0.015842345 0.022883829 0.037438814 0.012639011
0003a0 06 9f 40 3d b8 41 26 3c 1a c7 e6 3b 7a 14 59 bd
       0.047026657 0.0101475045 0.0070427777 -0.052998044
0003b0 90 8f 2e bd 51 6c 5a 3d 28 fe 89 3a 18 43 ba 3c
       -0.04261738 0.053325955 0.0010528015 0.02273707
0003c0 3a 1b 1f 3c ce 99 a4 bc 33 f5 10 bd b5 4f e8 ba
       0.009711081 -0.020092871 -0.03539009 -0.001772395
0003d0 f9 ee 46 bd 05 20 96 3d 91 b4 92 3c 10 ec 59 3d
       -0.048567746 0.07330326 0.017908366 0.053203642
0003e0 7a fc ed bc c4 96 69 3c de c5 a7 3b e0 17 8b 3b
       -0.029051054 0.014257137 0.005120023 0.0042447895
0003f0 15 4e 5e 3c 0c 0e e4 3b c5 6b 55 3d ab 11 28 3d
       0.013568421 0.0069596823 0.05210473 0.041032474

linear.bias f4 [7]
000000 55 92 10 3e a0 d0 44 bd 86 14 78 3d 5f d9 1b 3d
       0.14118321 -0.048050523 0.060566448 0.038049098
000010 4c ca 89 3c bd 3a 6a 3d d6 5c 09 3d
       0.016820095 0.057184923 0.0335358
