Data/model_results_unphased_all_PRS/linear_regression/onnx_models/final_model_chr18.onnx (onnx, 9935 bytes, 2 tensors)

linear.weight f4 [9, 268]
0.00019925355 0.007850921 -0.03319574 0.11003128 0.023061596 -0.020316888 0.026345171 0.03491913
0.048689365 0.024697784 0.0024746042 0.0042652604 0.010202525 0.04378752 -0.0207671 0.26656562
0.17748515 1.442885e-05 0.015660498 0.10775996 -0.0024553055 0.030866733 0.21534118 -0.0038617447
0.27559015 -0.030612156 -0.0612823 0.0017507856 0.07393213 0.009597402 0.002420477 0.20346409
-0.21180987 0.030885985 -0.044249367 -0.0014796891 -0.010561762 -0.030955125 0.0038203946 0.0047014635
0.004749584 0.022708304 -0.01624846 0.0020213677 -0.0045396443 -0.007947191 -0.0026210223 -0.0024738545
-0.004060929 0.005060488 0.007886633 0.00491801 -0.0043377825 0.007304039 0.020048194 -0.00583378
-0.06561248 -0.0032606449 -0.004905485 -0.009589471 -0.01840188 -0.007880034 0.010704463 0.015030281
0.0015544094 0.0057002567 -0.011964348 0.07490743 0.009789478 0.017553268 -0.0012958393 0.024742864
0.012803524 0.008338305 0.01762371 0.006526767 -0.0048502646 0.00088748545 -0.0017533448 -0.013734113
-0.027880335 0.0039808303 -0.007519362 0.0114803305 0.0031530533 -0.012758125 0.018183343 -0.009562592
0.032833204 0.0337456 -0.0031830485 -0.011252365 0.0066341767 0.011994082 0.003983729 -0.0076782284
0.033765323 -0.0015547515 -0.03740653 -0.0032825114 0.0034424737 -0.023994511 0.005611647 0.003584695
-0.021984056 0.009888205 0.016952455 0.017526183 -0.0015066278 0.014953552 0.0071745273 0.01786216
-0.029624386 -0.040380005 -0.026976416 0.008878512 -0.005104436 -0.0051836167 -0.010349713 0.014900951
-0.08143805 -0.009236932 0.0019735242 0.0066129486 0.07831879 0.00082491373 -0.0009870529 0.007685933
-0.015273962 -0.015993003 0.002880515 -0.0072539817 -0.0070445496 0.0109319305 -0.011940136 0.03440371
0.0025515556 -0.005432806 -0.012631394 -0.008708029 0.0007613265 -0.010829135 -0.0045765494 -0.006059758
-0.013669358 -0.0013828366 0.023734445 0.002094909 0.001252505 0.024592418 -0.0072690197 -0.008537929
-0.0055340496 0.043770406 -0.0007767104 0.009920058 -0.020027459 -0.0036118247 0.007965006 0.021876343
-0.0041229785 -0.01935509 0.023593875 -0.0012973582 3.178393e-05 0.00044904154 0.011599476 0.014502963
-0.019393282 0.0047235275 0.024647366 -0.0019070738 -0.03116771 -0.004837315 -0.014929009 -0.0019410369
-0.022837602 -0.0018110924 -0.0065424335 -0.021767983 0.01646552 0.0038928513 -0.009150488 -0.005662653
-0.012442549 0.004192517 0.0137717575 0.011441772 0.016174 -0.0074574277 0.0063967276 0.00026581963
0.00045151505 -0.0026498865 -0.012189909 0.014210185 0.0014657419 -0.0017908904 -0.00076362886 -0.003390142
-0.008881859 0.019743275 0.02417508 -0.023853928 0.010717538 0.006288784 -0.021398738 0.00015831803
0.00017096598 0.048097182 -0.0025310302 -0.008726288 0.0045972364 0.014055654 -0.0069436505 -0.0011873785
-0.008992021 0.002955697 -0.0055387276 -0.012968056 0.0106408335 -0.0039354786 0.01697458 -0.08216582
0.013176223 -0.0019159466 0.0034083999 0.038112998 -0.0130404215 0.01412652 0.003262722 -0.0009268032
-0.0121325115 -0.0012997586 -0.025377573 -0.007727645 -0.015359049 -0.02276884 0.0046498617 -0.016826032
0.02408069 -0.013306299 -0.03507356 0.060205437 0.006905085 -0.022863802 0.0042969217 0.004353688
-0.01170032 0.026929539 -0.016136212 0.008734935 0.019556263 0.04421556 0.0032830564 0.0013479653
00000000: b8ee 5039 26a1 003c 42f8 07bd 1458 e13d
00000010: aceb bc3c 9a6f a6bc d4d1 d73c 5d07 0f3d
00000020: 806e 473d 0253 ca3c f82c 223b 99c3 8b3b
00000030: 7e28 273c 8b5a 333d c41f aabc 4a7b 883e
00000040: abbe 353e 7013 7237 724a 803c 41b1 dc3d
00000050: 31e9 20bb 3bdc fc3c 6682 5c3e 5315 7dbb
00000060: 271a 8d3e 58c6 fabc 2603 7bbd 9e7a e53a
00000070: bb69 973d 6c3e 1d3c dea0 1e3b e458 503e
00000080: b0e4 58be 9b04 fd3c d33e 35bd 21f2 c1ba
00000090: 3e0b 2dbc 9a95 fdbc 965f 7a3b bc0e 9a3b
000000a0: 66a2 9b3b c406 ba3c 7e1b 85bc ec78 043b
000000b0: 4cc1 94bb ef34 02bc 75c5 2bbb 6420 22bb
000000c0: 8b11 85bb 73d2 a53b f036 013c 4227 a13b
000000d0: f523 8ebb b856 ef3b 1c3c a43c 4b29 bfbb
000000e0: d65f 86bd 8bb0 55bb 31be a0bb 281d 1dbc
000000f0: 8abf 96bc 421b 01bc c661 2f3c 9141 763c
00000100: 53bd cb3a 38c9 ba3b 1d06 44bc 1169 993d
00000110: 0c64 203c dfcb 8f3c 27d9 a9ba 8cb1 ca3c
00000120: dfc5 513c 639d 083c 995f 903c 7dde d53b
00000130: f8ee 9ebb 24a6 683a 7dd0 e5ba 0c05 61bc
00000140: 4d65 e4bc a071 823b fb64 f6bb ff17 3c3c
00000150: 75a3 4e3b 7407 51bc 3cf5 943c 6bac 1cbc
00000160: 1c7c 063d d438 0a3d b19a 50bb d75b 38bc
00000170: 8263 d93b d382 443c f189 823b a699 fbbb
00000180: 824d 0a3d cec8 cbba 9737 19bd 671f 57bb
00000190: 209b 613b 2390 c4bc e8e1 b73b 34ed 6a3b
000001a0: e817 b4bc 2302 223c e0df 8a3c 1293 8f3c
000001b0: 0a7a c5ba beff 743c 4c18 eb3b aa53 923c
000001c0: d7ae f2bc 8165 25bd a5fd dcbc 2e77 113c
000001d0: 1d43 a7bb 54db a9bb d891 29bc 1e23 743c
000001e0: fec8 a6bd 8056 17bc 3e56 013b 6fb1 d83b
000001f0: 9a65 a03d 063f 583a 0060 81ba 47da fb3b
00000200: a43f 7abc c203 83bc 06c7 3c3b cfb2 edbb
00000210: f7d5 e6bb d71b 333c 8fa0 43bc e8ea 0c3d
00000220: 0038 273b ae05 b2bb e8f3 4ebc 1fac 0ebc
00000230: c293 473a af6c 31bc e1f6 95bb ef90 c6bb
00000240: 71f5 5fbc 4c40 b5ba bd6e c23c be4a 093b
00000250: 182b a43a 0a76 c93c f530 eebb abe2 0bbc
00000260: f956 b5bb 9948 333d 279c 4bba bd87 223c
00000270: a010 a4bc 5db4 6cbb a87f 023c 0436 b33c
00000280: 0d1a 87bb 918e 9ebc f147 c13c 1e0c aaba
00000290: bc4f 0538 566d eb39 bb0b 3e3c d69d 6d3c
000002a0: a9de 9ebc d2c7 9a3b 46e9 c93c c7f6 f9ba
000002b0: 6d53 ffbc 5782 9ebb cd98 74bc 646a feba
000002c0: ec15 bbbc 2d62 edba e961 d6bb c552 b2bc
000002d0: b3e2 863c 351f 7f3b eeeb 15bc c78d b9bb
000002e0: d5db 4bbc 6261 893b f0a2 613c 4576 3b3c
000002f0: 567f 843c 705d f4bb a49b d13b b55d 8b39
00000300: 53b9 ec39 b8a9 2dbb 2fb8 47bc d6d1 683c
00000310: 231e c03a 4fbc eaba 442e 48ba 252d 5ebb
00000320: 3785 11bc a6bc a13c d10a c63c 5069 c3bc
00000330: 9d98 2f3c 2512 ce3b 684c afbc 2c02 2639
00000340: 5545 3339 8d01 453d a4df 25bb b4f8 0ebc
00000350: 6aa4 963b b049 663c 9087 e3bb d0a1 9bba
00000360: 4553 13bc 5eb4 413b 377e b5bb f877 54bc
00000370: e456 2e3c 30f5 80bb 460e 8b3c 8e46 a8bd
00000380: 16e1 573c 8020 fbba 765f 5f3b 601c 1c3d
00000390: 7ea7 55bc eb72 673c 64d3 553b b6f4 72ba
000003a0: 71c7 46bc a95c aaba a1e4 cfbc 2f38 fdbb
000003b0: 85a4 7bbc b885 babc de5d 983b bfd6 89bc
000003c0: de44 c53c aa02 5abc 4ba9 0fbd fa99 763d
000003d0: 0d44 e23b de4c bbbc 31cd 8c3b 62a9 8e3b
000003e0: b3b2 3fbc 569b dc3c 1730 84bc f91c 0f3c
000003f0: 7534 a03c 601b 353d 8c28 573b 36ae b03a

linear.bias f4 [9]
-0.023818843 0.03483161 0.06132272 0.16888347 0.20830412 -0.055201244 0.13438042 0.036907554
0.06894687
00000000: bc1f c3bc 97ab 0e3d 882d 7b3d caef 2c3e
00000010: ad4d 553e b31a 62bd 059b 093e 602c 173d
00000020: 0434 8d3d
