Data/model_results_unphased_all_PRS/linear_regression/onnx_models/final_model_chr8.onnx (onnx, 36710 bytes, 2 tensors)

linear.weight f4 [21, 433]
-0.019356517 -0.0088299215 -0.009422458 -0.010624528 -0.020598931 9.569e-05 0.015293483 0.0025236001
-0.009241602 0.03779354 0.005596366 -0.035738297 -0.011290614 0.00057342433 -0.011628803 -0.018010942
0.008740515 -4.5996672e-05 -0.008147271 -0.013281985 0.028693024 -0.007555464 0.0076995827 0.006114151
-0.0061540594 0.04899265 -0.014099583 -0.0014000037 -0.06782087 -0.008373189 0.009174167 -0.0063582556
-0.06192733 0.0063143005 0.011976836 -0.01597799 -0.031029958 0.0083724065 -0.01351693 0.027338946
0.006276008 0.0053734644 -0.007510093 -0.050510634 0.0076010777 0.02162244 0.01105555 -0.005624854
-0.0013964723 0.022509865 0.06357811 0.004099679 -0.017059758 0.003152369 -0.031573407 -0.004351162
-0.006596091 -0.015766667 0.08524174 0.0035540706 0.038818073 -0.034060884 -0.0028222345 0.03227977
0.01390417 -0.07406421 -0.017845642 -0.010891612 -0.017989758 -0.028895577 -0.03066969 0.029758325
-0.0014759364 -0.042034026 -0.009358537 -0.009735468 0.013507366 0.032447487 -0.00017709921 -0.011016957
-0.0077764583 -0.014387015 0.0138135925 0.04091262 -0.02811258 -0.027724557 0.008156618 -0.1069616
-0.026173688 0.011679327 -0.010358321 0.0046917363 0.013174999 -0.009155932 -0.01276853 -0.03261784
0.01379861 -0.009819513 -0.0033850016 -0.018362734 -0.0013142738 -0.01612736 0.089044586 -0.0038236433
0.0007234675 -0.0121465735 0.036044843 -0.027102018 0.02499781 -0.060220532 -0.0032434964 0.024594296
0.0074496116 0.011326215 -0.0083656525 0.021843877 0.011561864 -0.01683865 -0.0019766197 0.04681364
0.034023352 -0.020694938 -0.039954595 -0.022975886 0.03434221 -0.0038884776 -0.018736733 0.021415016
0.011303601 0.059418652 0.035495564 -0.05801534 -0.026816772 0.005284355 -0.26394555 -0.0021781507
0.012954814 -0.015705025 0.0013121269 -0.018804593 0.047626395 -0.043758746 -0.04949142 0.013028752
-0.010251927 -0.0040372782 -0.011405724 -0.012760885 -0.044360336 -0.008359971 0.021677962 -0.023778563
0.0055024205 0.019105025 -0.0065615675 0.012164054 -0.008014103 -0.022505434 0.0143755255 0.0014920564
0.011135948 -0.019775007 0.08485876 -0.0027959868 -0.018759115 0.035503503 0.03344272 -0.010169609
0.022375604 -0.021371242 -0.011681474 0.00802603 0.024255097 0.008636965 -0.027898291 -0.017021438
0.027561454 0.012657064 -0.012336459 0.012415699 0.013659296 0.047117848 -0.034294844 0.0036455053
-0.017726695 0.0007689365 -0.017767705 0.023124363 -0.027821682 -0.036169674 0.0102790445 -0.02239402
-0.022436252 0.025338229 -0.00778093 0.07795386 0.005039845 -0.0015882511 -0.019333545 0.014384628
-0.011794899 -0.009818095 0.03190263 -0.012424299 0.016176946 -0.014319773 0.017226841 -0.0048181685
0.0022034491 0.005788996 0.03232488 -0.0077033965 -0.02421102 -0.026055152 -0.009948184 -0.031677317
0.024683772 -0.023906253 0.006440217 0.013701243 -0.013821084 -0.035981126 0.008905891 0.03288435
0.00632496 0.005407698 0.010535455 0.05662674 0.020204494 0.02213202 0.049036372 -0.0054047136
0.0038148416 0.013991436 0.0014077766 -0.014699793 0.0044006025 -0.0019276227 -0.014898335 0.04315986
0.013754629 0.01695085 -0.021211239 -0.05844543 0.012820541 -0.02897049 0.01050175 0.0013912319
-0.0013845147 -0.02586411 0.016298415 -0.029480748 0.008523505 0.031914018 -0.021229325 -0.0065562185
00000000: 8f91 9ebc 60ab 10bc a760 1abc 8012 2ebc
00000010: 17bf a8bc 2dad c838 8491 7a3c fc62 253b
00000020: 176a 17bc 66cd 1a3d b861 b73b 5262 12bd
00000030: 44fc 38bc db51 163a bc86 3ebc af8b 93bc
00000040: 6134 0f3c 8dec 40b8 227c 05bc af9c 59bc
00000050: a20d eb3c d393 f7bb c84c fc3b 3759 c83b
00000060: fea7 c9bb 84ac 483d f001 67bc 5480 b7ba
00000070: abe5 8abd b32f 09bc 3f4f 163c ea58 d0bb
00000080: 83a7 7dbd 31e8 ce3b 7e3a 443c 46e4 82bc
00000090: 8a32 febc 6b2c 093c 1d76 5dbc edf5 df3c
000000a0: f9a6 cd3b e313 b03b 3a17 f6bb 3de4 4ebd
000000b0: 7612 f93b 8b21 b13c 5622 353c b250 b8bb
000000c0: d609 b7ba 9c66 b83c 3d35 823d 9a56 863b
000000d0: e8c0 8bbc fa97 4e3b 1e53 01bd 3194 8ebb
000000e0: 0624 d8bb 1929 81bc 3993 ae3d 69eb 683b
000000f0: b3ff 1e3d 6d83 0bbd 3df5 38bb cb37 043d
00000100: 51ce 633c faae 97bd 0631 92bc bb72 32bc
00000110: 425f 93bc 6bb6 ecbc 003f fbbc bbc7 f33c
00000120: 3574 c1ba df2b 2cbd 8d54 19bc 8381 1fbc
00000130: 004e 5d3c a8e7 043d b5b3 39b9 7880 34bc
00000140: a9d1 febb 84b7 6bbc 6852 623c fe93 273d
00000150: 5a4c e6bc 9c1e e3bc 56a3 053c af0e dbbd
00000160: 346a d6bc a65a 3f3c f2b5 29bc 23bd 993b
00000170: f3db 573c c302 16bc 1933 51bc 499a 05bd
00000180: 9113 623c 06e2 20bc e7d6 5dbb 726d 96bc
00000190: b643 acba 861d 84bc 025d b63d 1796 7abb
000001a0: 15a7 3d3a 6c02 47bc c2a3 133d 0d05 debc
000001b0: 35c8 cc3c cea9 76bd d790 54bb fa79 c93c
000001c0: df1b f43b 9791 393c 1710 09bc eef1 b23c
000001d0: f96d 3d3c 35f1 89bc 2d8a 01bb a9bf 3f3d
000001e0: 125c 0b3d 6e88 a9bc 6ea7 23bd ed37 bcbc
000001f0: 6baa 0c3d d4d5 7ebb c77d 99bc 8b6e af3c
00000200: bd32 393c f960 733d cc63 113d 7ea1 6dbd
00000210: d9ae dbbc 6228 ad3b df23 87be 4ebf 0ebb
00000220: 6e40 543c d3a7 80bc acfb ab3a 170c 9abc
00000230: e513 433d 5f3c 33bd 84b7 4abd 8c76 553c
00000240: b3f7 27bc 254b 84bb 13df 3abc 0813 51bc
00000250: 2fb3 35bd 43f8 08bc fb95 b13c 43cb c2bc
00000260: a64d b43b 2482 9c3c 6b02 d7bb be4b 473c
00000270: 964d 03bc 515d b8bc 5387 6b3c 1b91 c33a
00000280: 8d73 363c 32ff a1bc 6eca ad3d e03c 37bb
00000290: b7ac 99bc 1f6c 113d 3cfb 083d 6f9e 26bc
000002a0: 0b4d b73c be12 afbc a763 3fbc 9c7f 033c
000002b0: a0b2 c63c 0f82 0d3c f58a e4bc 8b70 8bbc
000002c0: 8fc8 e13c 935f 4f3c dc1e 4abc 376b 4b3c
000002d0: 3dcb 5f3c a5fe 403d c078 0cbd 6ee9 6e3b
000002e0: 9337 91bc 7492 493a 948d 91bc 4e6f bd3c
000002f0: 4cea e3bc a726 14bd 7069 283c aa73 b7bc
00000300: 3bcc b7bc 1e92 cf3c 2cf7 febb 46a6 9f3d
00000310: 4925 a53b dd2c d0ba 6261 9ebc 81ad 6b3c
00000320: 643f 41bc 13dc 20bc 55ac 023d 498f 4bbc
00000330: 8485 843c 7b9d 6abc 4e1f 8d3c bae1 9dbb
00000340: be67 103b 9eb1 bd3b 1867 043d c66c fcbb
00000350: 3056 c6bc 9d71 d5bc b5fd 22bc 13c0 01bd
00000360: 9f35 ca3c 0cd7 c3bc 7508 d33b 2e7b 603c
00000370: d471 62bc f260 13bd 04ea 113c bdb1 063d
00000380: 9c41 cf3b 0f33 b13b e79c 2c3c 71f1 673d
00000390: e583 a53c 364e b53c 5dda 483d 061a b1bb
000003a0: 6c02 7a3b 563c 653c 2585 b83a 67d7 70bc
000003b0: ee32 903b 49a8 fcba 2518 74bc 65c8 303d
000003c0: 185b 613c 82dc 8a3c 31c3 adbc 7a64 6fbd
000003d0: 3f0d 523c 8553 edbc 880f 2c3c ff59 b63a
000003e0: 9b78 b5ba f8e0 d3bc 4184 853c 9c81 f1bc
000003f0: 2ca6 0b3c 46b8 023d 1fe9 adbc 8cd5 d6bb

linear.bias f4 [21]
-0.010948006 0.032934196 0.039167996 0.04598803 -0.029585741 -0.024731614 -0.035072707 -0.024276009
0.048720486 -0.033720814 -0.005421359 0.06462651 0.016079089 -0.023352947 -0.02660285 -0.03851754
0.006129338 0.012322891 0.034884498 0.0486298 0.039556745
00000000: 445f 33bc 02e6 063d 9f6e 203d f25d 3c3d
00000010: cc5d f2bc f499 cabc 66a8 0fbd 7bde c6bc
00000020: 228f 473d d61e 0abd a8a5 b1bb e75a 843d
00000030: 4bb8 833c ae4e bfbc 38ee d9bc 91c4 1dbd
00000040: 9dd8 c83b f3e5 493c 0ce3 0e3d 0b30 473d
00000050: 4106 223d
