Data/model_results_unphased_all_PRS/linear_regression/onnx_models/final_model_chr13.onnx (onnx, 2409 bytes, 2 tensors)

linear.weight f4 [5, 107]
-0.025953846 0.051579546 0.15158832 -0.0043315166 0.10664413 0.21130255 -0.099617615 0.05252321
0.108198486 -0.030014766 0.06332578 -0.02099891 0.02519704 0.009046189 0.012649486 0.030086234
0.07820435 0.012190287 0.38706607 -0.018450916 0.13342598 -0.0033326226 0.11177893 0.31440046
0.041686263 -0.16602246 0.087107785 0.1185818 -0.010197795 0.23564674 0.013174192 -0.25409916
-0.010465203 0.0701837 0.06657287 0.012346282 -0.0014617238 -0.009943056 0.031910785 -0.014598757
0.001194109 0.03563826 0.030438501 0.013156158 0.061742507 0.018378211 -0.021122374 0.029155439
-0.054643556 0.081376985 -0.053933736 0.033231284 0.09802768 0.016071344 -0.0025251273 -0.016467927
0.023721492 -0.020002795 -0.0043175775 -0.008940626 -0.014559511 0.040235933 0.0020930732 -0.043117672
-0.004482257 -0.063713424 -0.09567984 -0.0016061427 0.0015370619 -0.063808106 -0.00691019 0.01111175
0.08717664 0.0037667276 -0.0040263147 0.21772829 -0.08485998 -0.017041007 -0.026313838 0.013686598
0.048114646 -0.020015629 0.07565009 -0.0049628536 -0.08769759 0.016913157 -0.091310635 0.027410248
-0.036429655 -0.02549989 -0.004607453 0.021008538 -0.023693688 -0.024224639 -0.024265708 0.08726849
-0.020550502 0.014787787 0.0115175815 0.020747952 -0.037481084 0.024675997 0.109472424 0.017324636
-0.021941349 0.1083249 -0.06448414 0.00024594617 -0.0002070837 7.457988e-05 0.0010073509 -0.000108751556
-0.00046052007 0.0006417443 0.00025084242 -0.0010016748 -0.00045282586 0.00038962974 0.0010183813 -0.00019170174
-0.00054217456 -0.00011753338 0.0009218036 0.00013414261 0.0007153776 -0.0005306882 0.00060308474 0.0007132006
0.0012141961 -0.0003120108 -1.1320059e-05 0.0007340853 0.00012344198 -0.00047476383 0.0024869666 0.00068367727
0.27482063 9.308146e-05 0.7174628 0.00039329374 -0.0006869706 -0.00022920077 0.00010564014 0.0006281174
0.0011933906 -0.02166256 0.0011219629 0.00042714563 0.00028178512 0.0007701268 0.00018174268 0.0009369873
0.0013280822 -0.00029482017 -0.0006513676 -8.120494e-05 -0.0014219868 -0.00065521704 -0.00011124497 -0.0058863536
3.8074664e-05 -0.00019028624 6.646711e-06 0.00016799482 0.0008920891 0.00027627492 0.0006436075 0.0004451124
0.0003574385 0.0011942441 0.0009223425 0.0007150745 0.021823918 0.0012074026 0.0010299714 0.00069226726
4.1397652e-05 -0.00087329804 -0.0018610588 -0.0006929805 -0.00072908454 -0.00038380534 -0.00057093386 -0.0021488783
-0.0003300523 0.0054384167 0.0016013624 -0.0023602876 0.00027076094 0.00060027366 0.000547804 0.0005764028
0.00036265864 0.00196519 0.0016156529 0.0009394875 -0.00026355288 -0.00040798605 0.00014447802 -0.00063489884
-0.00021076971 -0.00025084586 -0.0002698983 -4.55224e-05 0.00044084742 -0.00044101154 0.0004817211 -0.0019541476
0.00080167776 0.00089549925 0.0007220223 0.00030658333 0.0002272589 -0.000938666 0.0010440052 0.0021725998
0.023356011 0.0010368143 0.012168149 -0.02885655 0.0058449614 -0.0037693712 0.005766478 0.002129588
-0.0042599584 -0.0059466735 -0.0030254493 1.7261904e-05 -0.010172735 -0.00072740513 -0.012841434 0.0018420278
0.0057542976 -0.0033154648 -0.011302929 0.009133483 0.02067777 -0.005923496 -0.0031730554 -0.030112917
0.03249262 0.16518372 0.0025424638 0.1375731 0.008595962 0.3339303 0.040201 -0.004730003
0.10267864 0.008105798 0.015412156 -0.017443907 -0.01286917 0.010212357 -0.001857994 0.0035617426
00000000: 299d d4bc 1345 533d f839 1b3e 65ef 8dbb
00000010: 3d68 da3d b25f 583e 5204 ccbd 9422 573d
00000020: 2b97 dd3d 87e1 f5bc f2b0 813d e805 acbc
00000030: 066a ce3c 7736 143c ca3f 4f3c 6877 f63c
00000040: 9a29 a03d c5b9 473c 862d c63e 6026 97bc
00000050: d2a0 083e 2168 5abb 5aec e43d 19f9 a03e
00000060: 37bf 2a3d cb01 2abe 9165 b23d 04db f23d
00000070: a714 27bc 614d 713e 91d8 573c 4919 82be
00000080: 3e76 2bbc 79bc 8f3d 5b57 883d 0f48 4a3c
00000090: 5097 bfba 33e8 22bc e2b4 023d a02f 6fbc
000000a0: a683 9c3a 6df9 113d 2a5a f93c ed8c 573c
000000b0: b6e5 7c3d e78d 963c d408 adbc 63d7 ee3c
000000c0: ecd1 5fbd faa8 a63d 9fe9 5cbd 871d 083d
000000d0: bcc2 c83d 0da8 833c 9b7c 25bb bfe7 86bc
000000e0: 9353 c23c e7dc a3bc 777a 8dbb b47b 12bc
000000f0: 048b 6ebc 6fce 243d f12b 093b 289c 30bd
00000100: e6df 92bb 2f7c 82bd cbf3 c3bd 3585 d2ba
00000110: 3d77 c93a d3ad 82bd e06e e2bb 0f0e 363c
00000120: ab89 b23d 34db 763b 2def 83bb 2af4 5e3e
00000130: 12cb adbd 9599 8bbc 1e90 d7bc c13d 603c
00000140: dd13 453d d1f7 a3bc 6fee 9a3d 6f9f a2bb
00000150: cb9a b3bd 768d 8a3c 1201 bbbd 758b e03c
00000160: 4337 15bd 25e5 d0bc 1efa 96bb 191a ac3c
00000170: 4419 c2bc c072 c6bc e1c8 c6bc d2b9 b23d
00000180: 8759 a8bc 7948 723c 3db4 3c3c 9cf7 a93c
00000190: c485 19bd 5125 ca3c 1433 e03d 65ec 8d3c
000001a0: 58be b3bc 72d9 dd3d 4310 84bd 56f2 8039
000001b0: 9c24 59b9 c567 9c38 1609 843a 8c11 e4b8
000001c0: f571 f1b9 bb3a 283a 8083 8339 a14a 83ba
000001d0: 4269 edb9 3847 cc39 357b 853a 8b03 49b9
000001e0: b820 0eba 417c f6b8 31a5 713a a2a8 0c39
000001f0: 2e88 3b3a e21d 0bba 5518 1e3a 15f6 3a3a
00000200: a925 9f3a 6195 a3b9 48eb 3db7 a16f 403a
00000210: 3470 0139 b9e9 f8b9 60fc 223b ce38 333a
00000220: 4ab5 8c3e ba34 c338 a4ab 373f fe32 ce39
00000230: d115 34ba 9d55 70b9 1e8b dd38 3fa8 243a
00000240: 8b6b 9c3a ae75 b1bc d40e 933a 84f2 df39
00000250: 8fbc 9339 56e2 493a 2e92 3e39 27a0 753a
00000260: 0b13 ae3a 1892 9ab9 8ac0 2aba 924c aab8
00000270: f661 baba dfc2 2bba 304c e9b8 50e2 c0bb
00000280: 5cb2 1f38 9387 47b9 d006 df36 c427 3039
00000290: 16db 693a fed8 9039 c5b7 283a fa5d e939
000002a0: 9566 bb39 2f88 9c3a 5bc9 713a d673 3b3a
000002b0: 13c8 b23c b541 9e3a 1b00 873a 4579 353a
000002c0: 64a2 2d38 0aee 64ba c5ee f3ba 22a9 35ba
000002d0: 0920 3fba 7b39 c9b9 b9aa 15ba 32d4 0cbb
000002e0: df0a adb9 bf34 b23b cee4 d13a 0eaf 1abb
000002f0: ebf4 8d39 af5b 1d3a 819a 0f3a bd19 173a
00000300: 3823 be39 6bca 003b 51c4 d33a f047 763a
00000310: 782d 8ab9 f6e6 d5b9 067f 1739 576f 26ba
00000320: 1002 5db9 f683 83b9 2381 8db9 4eef 3eb8
00000330: 8a21 e739 9137 e7b9 838f fc39 2811 00bb
00000340: af27 523a f0bf 6a3a 1946 3d3a ebbc a039
00000350: 594c 6e39 cf10 76ba 00d7 883a 2d62 0e3b
00000360: 1b55 bf3c b7e5 873a eb5c 473c 9264 ecbc
00000370: 1787 bf3b 8e07 77bb b9f4 bc3b 8f90 0b3b
00000380: 1f97 8bbb 50dc c2bb 9e46 46bb a8cd 9037
00000390: 8bab 26bc 55af 3eba e164 52bc 3270 f13a
000003a0: 8c8e bc3b 4548 59bb ec2f 39bc 9ba4 153c
000003b0: 6d64 a93c e319 c2bb 09f3 4fbb 5daf f6bc
000003c0: fb16 053d ec25 293e 779f 263b f6df 0c3e
000003d0: 14d6 0c3c eaf8 aa3e cea9 243d 24fe 9abb
000003e0: 2e49 d23d 2ece 043c 4483 7c3c 86e6 8ebc
000003f0: 36d9 52bc bb51 273c ef87 f3ba 206c 693b

linear.bias f4 [5]
-0.09027369 -0.019775005 0.010269345 0.0031512873 0.08913948
00000000: 6ae1 b8bd 31ff a1bc c140 283c d485 4e3b
00000010: c28e b63d
