Data/model_results_unphased_all_PRS/linear_regression/onnx_models/final_model_chr2.onnx (onnx, 86270 bytes, 2 tensors)

linear.weight f4 [21, 1023]
000000 b4 dd ea bb ae 99 65 bc 6c 98 86 ba 3e 88 7b 3e
       -0.0071675424 -0.014013691 -0.0010268814 0.24563691
000010 6e 21 bc be de 12 e8 be 50 a6 f0 3e ef d0 59 3d
       -0.36744255 -0.45326895 0.47001886 0.05317777
000020 d0 65 e4 bd f2 13 e2 3a c9 88 4f 3e 49 db 87 bd
       -0.11152232 0.0017248376 0.20267023 -0.06633622
000030 58 b2 09 3e fe 3f 77 3c e0 e2 f2 3c fa a2 9f bd
       0.13446939 0.0150909405 0.029649198 -0.07794757
000040 a3 35 d6 bd d4 e0 47 3d 86 f5 41 3d b2 5c 33 3d
       -0.10459449 0.048798397 0.04735329 0.043789573
000050 d3 6b 03 be e5 03 1e 3c 49 5b c7 bd 98 7a 8f bc
       -0.128341 0.009644483 -0.09734208 -0.017514512
000060 10 ca e1 bc 24 20 18 bd e9 4a e8 bc 41 68 c3 3d
       -0.027562171 -0.037140027 -0.028356032 0.09541369
000070 1e bf f6 39 6a ae 1f 3c cc fb a7 3c be 16 48 3e
       0.0004706317 0.009746173 0.020505808 0.19539925
000080 50 20 08 3c 46 09 6a 3b 2f 81 0a bb ab c4 49 3c
       0.008308485 0.0035711094 -0.0021134128 0.012314956
000090 ad eb ed 3b cd 38 65 3d fa b1 c6 bc 64 5e 26 bb
       0.0072607608 0.055962373 -0.024254788 -0.002538585
0000a0 fa 91 54 3d ad cd f6 3c 0e 36 31 3d cd dc 1a 39
       0.051897027 0.03012737 0.04326444 0.00014768839
0000b0 79 6f 46 bd 6a 90 de 3c 42 0f 8f bc 24 91 1c 3c
       -0.048446152 0.027168471 -0.01746333 0.009556089
0000c0 42 c7 18 bd 83 de 6a bc 58 5a 11 3c 5c af de bb
       -0.037299402 -0.0143352775 0.008871637 -0.006795807
0000d0 cd b4 d2 3c 54 c5 97 bc 6e 49 24 bd 9b 3d b8 bc
       0.025720978 -0.01852671 -0.04010909 -0.022490313
0000e0 f4 b0 6f 3c 22 2b eb 3a 08 ec 04 bc 70 af 8d 3d
       0.014629591 0.0017941932 -0.008112915 0.06918228
0000f0 4b 5f 48 3c 84 9b 0d bd 17 b4 9d 3c 80 0c dd bb
       0.012229751 -0.03457214 0.019250913 -0.006745875
000100 50 7f c6 3c ca 8f 31 3c ae 59 99 3c b9 4d 21 bd
       0.02423063 0.010837505 0.01871952 -0.039380763
000110 7c fe 89 ba 04 5a 8f bc 29 a3 a2 bc 88 59 5e 3b
       -0.0010528113 -0.017498977 -0.019853191 0.0033927877
000120 0c cd 32 bc 5e a3 7f 3c 34 e3 61 3b 80 fd 37 3c
       -0.010913145 0.015602915 0.00344677 0.011229873
000130 18 6b 8a bd bb b8 de bc cf 32 45 bc 54 f5 b7 3c
       -0.06758708 -0.027187696 -0.0120360395 0.022455849
000140 7f 6b f5 bc b3 2b ff 3b f4 82 19 bc 93 88 62 bc
       -0.029958485 0.007787192 -0.009369601 -0.013826507
000150 8b a9 34 bc f8 b6 98 3b 4a 61 76 3c 8f 02 6d 3c
       -0.01102675 0.0046604834 0.015037844 0.014465942
000160 f9 0e 14 bd ec 3a d8 3c 95 e6 db 3c f3 31 f3 bc
       -0.03614709 0.026395284 0.026843349 -0.029686904
000170 84 9f 94 ba 3c 6a 9c 3a cb 9e 53 bc 15 48 3d bc
       -0.0011339043 0.0011933516 -0.012916277 -0.01155283
000180 4d f7 af bc e0 e7 a5 bc f5 4e 8a 3b 49 ac 06 bd
       -0.021480227 -0.020252168 0.004220838 -0.032879148
000190 b0 0e 2e bd f9 32 bb 3c 3a 9b 2a 3c 70 40 fb 3b
       -0.042494476 0.022851454 0.010412985 0.0076675937
0001a0 37 ff 5d bc 27 67 2c bd 78 64 60 bc e3 46 56 bb
       -0.0135496175 -0.04209056 -0.013695829 -0.003269606
0001b0 4b 20 8c 3c e0 de 58 ba b9 d2 45 3d 0f 97 55 3c
       0.017105242 -0.0008272957 0.048296664 0.013036503
0001c0 01 fd 04 bd 42 a6 b9 3b 28 7d ff 39 2a 10 88 3c
       -0.032467846 0.0056655714 0.0004873064 0.01660927
0001d0 e4 0b 47 bd 9e 9a c1 3c 96 93 8b 3c 79 2b c9 bc
       -0.048595324 0.023633298 0.017038148 -0.024556862
0001e0 ad 2f 98 bc d5 ad 20 bd 15 9e 8a bc 33 79 56 3a
       -0.018577421 -0.03922828 -0.016921083 0.0008181512
0001f0 33 c6 57 3c 49 d2 11 bd f7 c9 89 3a f7 b1 86 3d
       0.013169813 -0.035600934 0.0010512461 0.06576913
000200 5e 64 e0 3c 22 a0 cc 3c 57 9a 89 3b 28 93 91 bc
       0.027391609 0.024978701 0.004199307 -0.017770365
000210 87 36 5c bd f5 c4 12 bc 3e 5e c7 3c 72 66 61 bd
       -0.05376294 -0.008958091 0.02433693 -0.05502934
000220 d1 96 9b 3c 68 09 85 b9 5e 94 0e bd 16 db 50 3b
       0.018992813 -0.00025374745 -0.034809463 0.0031868867
000230 17 5c 96 bc 64 42 57 bc 10 7d f3 38 f8 4c 1e bc
       -0.018354459 -0.013138387 0.00011610438 -0.0096619055
000240 9e 25 04 bd 41 b8 12 3c dd d4 22 3d 44 a2 f3 3c
       -0.032262437 0.008955062 0.039753783 0.02974046
000250 24 37 1f 3c 90 59 47 3c b4 8e 02 bc 3a c9 b1 3c
       0.009717736 0.012167349 -0.007968593 0.021702398
000260 5c a0 c4 3c 08 a5 59 3b 12 a3 ea 3c ea c8 49 3c
       0.024002247 0.0033209939 0.028642211 0.012315968
000270 a6 37 a1 bb 5d 83 53 bc f9 98 03 bc 2a 00 81 3c
       -0.004919964 -0.012909737 -0.008032077 0.015747149
000280 66 7a 65 bb c6 07 4b bc 3b dd ef bb ff 90 ac 3a
       -0.0035015582 -0.01239199 -0.007320074 0.0013165771
000290 17 7a 01 bd db 2a 29 3c 65 67 de bc 94 9a c9 bc
       -0.031610575 0.010325159 -0.027148912 -0.024609841
0002a0 df ed b0 bb 6e f5 a5 3c 4d a1 67 bd f1 36 9c 3b
       -0.00539945 0.020258632 -0.056550313 0.0047672917
0002b0 30 9d 56 3d 38 2c 0b bc 2e 08 eb 3b 68 ca 60 bc
       0.052396 -0.008494429 0.007172606 -0.013720132
0002c0 d2 61 9b bc 4b b1 88 3b f8 48 dc b7 bb 8d da 3c
       -0.018967543 0.0041715256 -2.6260022e-05 0.02667891
0002d0 18 d7 7d 3b ff 5d 8d bc 17 ac c1 3c 9f d6 10 bc
       0.0038732942 -0.017256735 0.02364163 -0.008840232
0002e0 de 4e af bb 15 c0 99 3b ff 6b 90 3b 8c 23 7c ba
       -0.005349978 0.0046920874 0.0044074054 -0.0009618334
0002f0 da 37 cb bc 8f 18 39 3d 48 36 67 3b 36 af 4d 3d
       -0.024806906 0.045189437 0.0035280157 0.050215922
000300 2c 7e be b9 99 96 ce bc 8e e2 24 ba 37 a4 40 3d
       -0.0003633363 -0.025218295 -0.0006289863 0.047031607
000310 3f 9c ec 3d 81 07 ed bb 11 cc b7 bc 57 27 cc 3b
       0.11553239 -0.0072335606 -0.022436174 0.0062302756
000320 94 46 01 3c c8 10 d5 bc 84 77 51 3d ff f8 6d bb
       0.007890362 -0.026008978 0.05113937 -0.0036311743
000330 d4 c3 f5 3a 9b 31 39 3a 93 f8 a6 3b 25 4a a2 3c
       0.0018750378 0.0007064582 0.0050955503 0.019810745
000340 c7 d2 08 bd ec bc 7d 3c 3d d5 96 3b ef e0 d2 3c
       -0.033404138 0.015486937 0.0046030567 0.025742022
000350 46 8f 86 3a 31 fe 93 bc bf 17 14 3c 35 6a 5e 3c
       0.0010266087 -0.018065544 0.009038865 0.013575126
000360 82 dc 20 bc 57 22 65 bb d4 14 72 bc 80 4e c7 bc
       -0.009818198 -0.0034963095 -0.014775474 -0.024329424
000370 f6 d5 0d bc 9e f2 65 3d 6c 8e 66 3d 9a 85 9a 3c
       -0.008656969 0.05613958 0.056288168 0.018862534
000380 ca 84 5b 3d 37 6d 03 bd 0e 37 7c bd be 68 d0 bc
       0.053593434 -0.032086577 -0.06157594 -0.02544057
000390 04 ba 12 bc 69 16 41 3c 60 62 49 bc 10 c4 1f bb
       -0.008955482 0.011785128 -0.012291521 -0.0024378337
0003a0 ba df cb b8 b2 2a 87 3c 53 01 bf 3c 40 6b c1 39
       -9.7214666e-05 0.01649985 0.023316061 0.00036891736
0003b0 db 30 12 3c 7b db 13 b9 e2 b4 13 3d 18 1d 2b bc
       0.008922781 -0.00014100775 0.036061175 -0.010443948
0003c0 77 40 2c 3d fa 47 5f 3b a6 b1 8a bc 68 f4 e1 3c
       0.042053666 0.003407 -0.016930413 0.027582362
0003d0 fd 52 1f 3c 4b e9 9f 3c 6c e5 62 bc 41 e5 9d 3b
       0.009724376 0.019520422 -0.013848644 0.004818589
0003e0 0c 03 a8 bc 54 97 ad 3c 5e 80 65 bc c3 be 8a bc
       -0.020509265 0.021190323 -0.014007656 -0.016936665
0003f0 bd 27 38 3c 9d 44 c5 3c ad 01 c3 bc 49 4e 0f 3b
       0.011239943 0.024080569 -0.02380451 0.002186673

linear.bias f4 [21]
000000 f0 b3 9b 3c 08 dd e2 3c a7 8e cb 3c af 81 57 bc
       0.0190067 0.027693287 0.024848295 -0.013153478
000010 71 8c 99 bc 3b f9 f2 3c a9 fe cb 3c 85 16 0c 3d
       -0.018743725 0.029659858 0.024901705 0.034201164
000020 ba d0 64 bc 5c 36 2c 3c 1b 84 39 bc 5b e0 61 3c
       -0.01396578 0.010511007 -0.011323 0.013786401
000030 05 bb 67 3c b2 b4 38 3c b2 db 24 3c c2 0c ae 3c
       0.01414371 0.01127355 0.010062145 0.021246318
000040 d2 ef a1 3c 4a da 99 bc 5f 1a 89 3b bf ca 8e bc
       0.019767676 -0.018780846 0.004184052 -0.017430661
000050 d9 0b 3b bc
       -0.011416399
