Data/model_results_unphased_all_PRS/linear_regression/onnx_models/final_model_chr12.onnx (onnx, 42754 bytes, 2 tensors)

linear.weight f4 [17, 624]
00000000: c62e 8139 32b5 5d3c 58ed 083c b39e 453b
00000010: 74b1 a13c bc8b 9a3d 4bab 8b3c 01c9 89bc
00000020: f470 533c 8548 723d 3daa 22bb 3dc7 66bd
00000030: 9faa 3c3d b97a 833c 5411 1bbd a627 553d
00000040: c552 6ebb ac93 12bd bced a1bc 6b58 b7bc
00000050: 0e9f bf3b 2f79 073c e78d 323c 2ea9 84bc
00000060: 33ac 6dbc 02d5 eb3c 7fec 8c3b fb36 00bd
00000070: 1a6b e73d 78bc 0abd a0a8 33bb 669f 233d
00000080: f816 aebc 2a24 5a3c 4818 50bd 85d2 ee3d
00000090: d262 783c 4fbb 14bc 5a82 803d 73f6 703c
000000a0: 0339 febb 16e3 bdbb 28e6 99bc e3ac bebb
000000b0: 66e9 cdbc 681f 68be de92 073d 19ce 1fbd
000000c0: 755b dfbc 4a14 19be f958 2a3d 799e 233d
000000d0: ec29 bbbd b79a 21bd cb73 563d c751 adbc
000000e0: 685e 803d 99d8 01be 5152 65bd 096a 97bd
000000f0: f6b0 783d ed50 6d3d 0036 d4bc 5912 86ba
00000100: c5ad 193b 0a1a 60bd cf06 c93c 0e27 00be
00000110: 23d6 d1bc c922 07bd 0fa0 5ebd 192d 7c3c
00000120: 419b 1bbc 0a12 19bc cc50 863d 7525 9abd
00000130: ee0f 213d b85e 9fbc 8461 26bd 4bb6 4fbc
00000140: 9ccb a6bc 6454 253a 5dbb 123d 307c 6f3c
00000150: d2cb ad3c 598e 8b3c 2889 e83d bf05 183d
00000160: f683 b5bc b4e4 e03c 46a4 b6bd 8435 a13c
00000170: f8b5 8d3c 040e 44bb c403 323d f6a4 853c
00000180: 28b9 333d b77b 83bd 7a5d 413d 9ad3 e03c
00000190: 5463 1fbc 859f 5e3c d014 49bd 879f ecbd
000001a0: 53e4 31bc 8094 f83c 9517 0c3d 0beb 9a3c
000001b0: 108b fcbc 6310 cbbc 116e c53d bcb1 633d
000001c0: c4a7 26bc 0529 3bbd dd46 3f3c 81c6 2f3c
000001d0: c498 6d3b 790d c23c 316d a83c ef7c 7e3d
000001e0: aed4 b5bc 7f2e 0e3c e6b7 693b 1272 02bb
000001f0: d38c a1bd dda5 fdbc 726e 58bc 263f 643c
00000200: 7452 faba 4b0f 04bc adb3 d13b 03ef 1fbc
00000210: d2a2 c839 48b2 273c c8ec 713c a041 adbc
00000220: 9245 d9bc 05ea 893c 4c03 9d3c 44ea 5bbd
00000230: 250a 09bd 5277 81bb fedb aebc 2551 a3bc
00000240: 7c4d 803d 2980 2a3c f59a 07bc ddf8 3f3d
00000250: 0f03 1e3c 2ddb a63c 5fac 11bd 8695 aa3b
00000260: 4b7e 73bb 1eb2 4b3d 32ac 94ba 0b62 f6bc
00000270: bdf5 003d f10f 2c3c c295 dcbb 07a4 8c3c
00000280: 4065 abbc 977a edbb ab86 a8bd 0e7c 8fbc
00000290: 4cec dc3c c865 58bc 2dee 033c deec 1abd
000002a0: a606 ab3c fd52 aebb 648c 143b 4f1a ec3c
000002b0: 3dcb 23bd e4d0 173d f7c1 2fbd 4b9b 053d
000002c0: acd5 8d3c a885 d2bd 7f4d 19bd 0014 f9ba
000002d0: f4fc 9bba 0144 823c 5b62 973b b386 c9bc
000002e0: 0c14 7abc ea8a 5abd 6612 76bb af63 0d3d
000002f0: 0b14 2abd 423b 7d3c 1bcf 18bd fb5a bb3c
00000300: 0c04 c33d 6927 0d3d a26a 2c3d b26a 66bd
00000310: f361 9e3d c547 c9bc 825c 62bc 683c 07bc
00000320: d1bd 3a3c bc9a 273d f7ed a3bc cfa8 bbbb
00000330: 9865 bb3c e13b 1f3d 2f2e 343d 5a74 673b
00000340: 3a0d 84bc f6ec 093d 09a5 3fbc 5937 b1bc
00000350: a78b 083d 9e82 81bb 322f 333d f52e 543c
00000360: f9e4 123d dabf 783b 8ce4 e7bd 2dbc 9d3b
00000370: 7355 423d 7811 2a3d 04aa ccb9 ea91 97bd
00000380: f543 523d 7364 873c b18d 2c3a 8e0e 43bd
00000390: 0a56 22bd 9d65 2dbc 6a5c 26bd 87f5 073c
000003a0: 85ef 4abd f231 4e3d 472e ce3b be39 1c3c
000003b0: 3f6e febb a74a 943d cf93 063c de65 373e
000003c0: 52f5 f2ba 73cf fa3d c9f6 113d 5d0a 36bd
000003d0: 8eb6 3a3d d5f6 343a a162 d4bc 1a4e 303d
000003e0: 6796 b7bc 4a94 07bd 5b5d d63d 8005 973d
000003f0: 570c 393c fd33 f23c f9ba 09bd 5bcd 0c3d
0.00024639646 0.01353197 0.008357368 0.0030154407 0.019737937 0.075461835 0.017049452 -0.016819479
0.012905348 0.05915119 -0.0024820708 -0.056342352 0.046061154 0.01604973 -0.037858322 0.052039765
-0.0036365252 -0.035785362 -0.01976668 -0.022381028 0.005847818 0.0082686385 0.01089809 -0.016193952
-0.0145063875 0.028788093 0.0043006535 -0.031302433 0.11299725 -0.033871144 -0.002741374 0.039946936
-0.021251187 0.013314286 -0.050804406 0.11661247 0.015160279 -0.009077861 0.062748626 0.014707196
-0.007758261 -0.005794893 -0.018786505 -0.0058189495 -0.025135707 -0.2266823 0.033099048 -0.03901491
-0.02726529 -0.14949146 0.041588757 0.039946053 -0.09138855 -0.03945419 0.052356523 -0.021157159
0.062680066 -0.12680282 -0.055986706 -0.073932715 0.060715638 0.057938505 -0.025904655 -0.0010228857
0.0023449522 -0.054712333 0.02453938 -0.12514898 -0.025614804 -0.032992158 -0.054351863 0.0153916115
-0.009497465 -0.00934268 0.065583795 -0.075266756 0.039321832 -0.019454345 -0.040620342 -0.012677739
-0.02036076 0.00063068257 0.035823215 0.014617011 0.021215353 0.01703565 0.113542855 0.037114855
-0.02215765 0.027452804 -0.089180514 0.019678839 0.017298684 -0.002991558 0.043460622 0.016314011
0.04387775 -0.06420081 0.047208287 0.02744465 -0.0097282715 0.013587837 -0.049092114 -0.11553865
-0.010857659 0.030344248 0.034202177 0.018910905 -0.030828029 -0.024788087 0.09640134 0.055589423
-0.010171834 -0.045693416 0.01167461 0.010728479 0.0036254385 0.023688065 0.020559879 0.062130865
-0.02219614 0.008678078 0.003566259 -0.0019904417 -0.07888188 -0.030962879 -0.013209926 0.013931071
-0.0019098059 -0.008060287 0.006399593 -0.009761575 0.00038268283 0.010235377 0.014765926 -0.021149457
-0.026522432 0.016835222 0.019166611 -0.05369021 -0.03345694 -0.0039509917 -0.021345135 -0.019936154
0.06264779 0.010406532 -0.008276691 0.046868194 0.009644284 0.020368183 -0.035564777 0.005205813
-0.0037154134 0.049730413 -0.0011342822 -0.030076047 0.031484354 0.010501848 -0.0067317197 0.017168058
-0.020922303 -0.00724728 -0.08228811 -0.017515209 0.026968144 -0.01320786 0.008052391 -0.03782355
0.020877194 -0.0053199516 0.0022666687 0.028821139 -0.039988745 0.037064448 -0.04290959 0.032618802
0.0173138 -0.10279399 -0.03742742 -0.0019003153 -0.0011900947 0.015901567 0.004619879 -0.024600362
-0.015263569 -0.053355135 -0.0037547587 0.034518894 -0.04152302 0.015456023 -0.037306886 0.022870531
0.09522256 0.034461413 0.04209388 -0.056254096 0.07733526 -0.024570355 -0.013816001 -0.008254148
0.011397795 0.04091905 -0.020010931 -0.0057269107 0.022875592 0.038875464 0.043989357 0.0035317154
-0.016119588 0.03367325 -0.011697062 -0.021632837 0.033336308 -0.0039523384 0.04374618 0.012950649
0.035862897 0.003795615 -0.11322889 0.004813692 0.047444772 0.041520566 -0.00039036584 -0.07400878
0.05133434 0.01652739 0.0006582393 -0.047621302 -0.039632834 -0.0105833085 -0.040615477 0.008298284
-0.04954483 0.0503406 0.006292138 0.009535251 -0.007764607 0.07240801 0.008213951 0.17909953
-0.0018536246 0.12246599 0.035635743 -0.044443477 0.045584254 0.0006903236 -0.025925936 0.043043233
-0.022410585 -0.033100404 0.10467025 0.07374096 0.011294446 0.029565806 -0.033625577 0.03437553

linear.bias f4 [17]
00000000: 6699 0b3d 6efc a13c ce52 083d ed04 f23c
00000010: 2fb1 ebbc e07c d33c bdac 763c 84be a238
00000020: bc47 8dbc 6aa9 fc3a 98d0 3c3c d01b ccbc
00000030: 559e 7c3d 6c56 223c b39c b9bb 49fc 62bd
00000040: b145 71bc
0.03408184 0.019773688 0.033282094 0.029543364 -0.028771011 0.025816381 0.015055832 7.760248e-05
-0.01724612 0.0019276564 0.011524342 -0.024915606 0.061674435 0.0099083 -0.005664432 -0.05541638
-0.014726088
