Data/model_results_unphased_all_PRS/linear_regression/onnx_models/final_model_chr9.onnx (onnx, 22150 bytes, 2 tensors)

linear.weight f4 [14, 390]
00000000: 2b76 513c 14d6 e13c e414 8c3d 7a61 aebb
00000010: 301f d73d c43e c63d 8210 fa3c 3658 00bb
00000020: c952 05bd c510 863d 03ad 8f3b 0b0b e53d
00000030: 219f 15bd 6e79 ad3b 3604 c33c 2928 f23e
00000040: 2ce0 223d a688 6ebd f3f2 40bc 4234 38bc
00000050: fedc 6b3b 71de 3bbc c7d8 a13c 9fbf e9bb
00000060: 1bdd 55bd d086 f5bc 8023 a1bc d96b bc3c
00000070: 10ad 1f3d 5450 003e 4923 b43c e386 8cbb
00000080: 1693 383f bcb4 5e3d 69e2 783b 69aa f63c
00000090: 364f 2bbc 4148 b53b 3678 27bc 6898 2a3c
000000a0: 888a c43b 786a 24bc fbe2 383c 913d f7bc
000000b0: f9a3 413c 7d31 063c 00b3 e03b 7b82 c83b
000000c0: 513a 68bb 0035 8d3c d4ed a6ba ae96 373c
000000d0: 20e9 373c ab97 223c e208 68ba 5342 0bbc
000000e0: c33e a5bb f973 35bb a0e3 83bb 23aa 133a
000000f0: 9f01 87bc 3e1f 77bc 47e2 d8bc 39d9 e639
00000100: 0861 183c 5b54 033c de46 64bc bc47 52bd
00000110: 13d1 cfbb 8e0e d73b cdad 7abc e411 053d
00000120: e8a4 8cbc 763c c7bc bcfa 5abc d838 b3bc
00000130: 2b40 b03b c746 333c 7756 8f3c f9c7 32bc
00000140: 84f8 6abc 48cb 9fba 19bc 1bbd 7f68 3b3b
00000150: 754b 1ebb 2d78 3bbd 3572 9d3c 8b26 b73b
00000160: 899b 8dbb 9f0c c7ba f358 0abc b0e1 243c
00000170: 8f4b 763b 7600 a1bc dfd7 4dbb ffa5 4bbc
00000180: 7980 20bc 3040 b3bb 9474 4a3c 2c2c c2ba
00000190: a6de f23c 4392 3cbb b1f5 cfbb 89b1 9f38
000001a0: ec37 c0bc 82e1 533c 89d3 e4bb e23f b5bb
000001b0: 12ce 2f3c 1302 f8bb 3167 a23b 6fa3 d5bc
000001c0: 4bf1 8b3c 222c 47bb 90fe fdbc b62b 953c
000001d0: fea3 87bb 3dc1 153c c667 e5bc 8ea4 a3bd
000001e0: 7d9d 9c3b b127 10bd b987 8b3c c60d 663c
000001f0: d0b6 f53b 9ed5 503d 99e7 ae3c 1f15 4abc
00000200: c9a2 a33d e262 f3ba 5646 8b3b d51e 61bc
00000210: 3e47 a6bc a85c 533c 9831 9dbc b608 15bc
00000220: 7d6d a43b 77e6 673b b39b 833c 3126 3a3a
00000230: b765 043d c341 c4bc 4e26 133d f3ce 423b
00000240: 1801 31ba 508b 1a3d c9ff 3fbc 8959 62ba
00000250: 6908 343c cfb9 273d 72bc 2ebc f8f3 15bd
00000260: b10c a03c bd41 ef3b 3b88 873c d2f6 893c
00000270: c24f 903c 0e3f 9a3c 4759 1fbd ba9f b13c
00000280: c1d7 abba f750 863c 4af4 21bc 5c83 d9bb
00000290: bc1e 2d3a d1f5 70bc 2dbc 11bb 703b e9bc
000002a0: 7d84 503c 2181 253c df68 3fba 7fb2 01bd
000002b0: 2fbb 023c da52 5ebb e61a c4bc 77e9 eb3c
000002c0: d9e4 1cbb f1fa b2bc 0679 fabc 043b 1c3c
000002d0: 93e4 823c 4663 92bb b2d2 713c f446 ed3b
000002e0: b875 3bb9 61e4 473c 0c94 f13c 4269 823c
000002f0: 154d 473d 2531 05bd 9881 55bd 0f77 d03c
00000300: 5c50 f3bb 28cf f83c 91e1 863b c9e6 e3bc
00000310: 7f6f c1ba ee58 70bb 081a 9cbc 2679 78ba
00000320: 86d8 10bc 6cb8 5b3c cf87 043c 3ce1 9bbc
00000330: 72c9 adbb 50bd 2a3c c10b 96bc aa2a c33b
00000340: 8de2 7d3c 5e90 acbc 8fe1 65bc 4b98 a03b
00000350: d7df 043d dac9 cdbb 21ea 30bc 122e 293c
00000360: f6a8 13bd f913 98bc 1002 f43c b204 61bb
00000370: fac6 de3b 4edd 693c f8bb 8c3c 90d8 b63c
00000380: 9f58 9ebc ac2b 13bc 5ee4 823c 233c 62bc
00000390: f6c0 23bb 8356 f73a 041c 32bc 1b3e f73b
000003a0: ac66 d53b 397e e5bc 8003 0e3c b8c9 173c
000003b0: cee1 d2ba 26cb 55bb 9c72 803c 00b8 baba
000003c0: 0c30 633b 3df2 133c e3b2 d2bb a131 98bc
000003d0: d4e1 0d3d 051a 373b 2c5b 43bd 8d27 0b3d
000003e0: fdf9 173d c948 423c 25b7 563c 883e 59bc
000003f0: 543c 803c 9283 bdbb a7ff 59bc 6ada f83a
0.012784521 0.0275679 0.06839922 -0.0053216787 0.105039954 0.0967994 0.03052545 -0.0019583828
-0.032549653 0.06546167 0.0043846383 0.11183747 -0.03652871 0.0052940166 0.023805719 0.47296265
0.03976457 -0.058235787 -0.011776674 -0.011242928 0.0035989876 -0.011466608 0.019756688 -0.0071334387
-0.052212816 -0.02997151 -0.019670248 0.023000645 0.038983405 0.12530643 0.021989482 -0.0042885407
0.72099435 0.05437158 0.0037976748 0.030110555 -0.010455897 0.005532295 -0.010221532 0.010412313
0.0059979595 -0.01003515 0.011284585 -0.030180724 0.011818879 0.00819051 0.006857276 0.00611907
-0.003543515 0.017237186 -0.0012735673 0.011205358 0.011225015 0.009923856 -0.00088514213 -0.0084997
-0.005042882 -0.0027687533 -0.0040249377 0.00056329573 -0.016480265 -0.015083132 -0.026475085 0.00044030862
0.009300478 0.008015717 -0.013932912 -0.051337942 -0.0063420623 0.0065630144 -0.015300226 0.032487765
-0.017168477 -0.024320822 -0.013365444 -0.021877691 0.005378743 0.010942168 0.017497284 -0.010911935
-0.014341477 -0.001219132 -0.03802118 0.002859622 -0.0024153863 -0.045768905 0.019219497 0.0055893115
-0.0043215198 -0.0015186256 -0.008444059 0.010063574 0.0037581658 -0.01965354 -0.0031409187 -0.012429713
-0.009796255 -0.005470298 0.012356896 -0.001481419 0.029647183 -0.0028773702 -0.0063464274 7.614779e-05
-0.023464166 0.012932183 -0.006983225 -0.005531297 0.010730283 -0.0075686066 0.004956149 -0.026078908
0.01708283 -0.0030391295 -0.031005174 0.01820932 -0.0041394224 0.00914031 -0.028003585 -0.07990371
0.0047795163 -0.035194103 0.017032491 0.01404137 0.0074985996 0.05098497 0.021350669 -0.012334137
0.07990033 -0.0018568898 0.004250328 -0.013740261 -0.020297643 0.012900509 -0.019188687 -0.009096315
0.005017935 0.003538517 0.016065454 0.0007101028 0.032323565 -0.023957139 0.035925202 0.0029725402
-0.0006752177 0.037730515 -0.011718699 -0.00086345576 0.010988333 0.040948685 -0.010665046 -0.03660962
0.019537302 0.007301538 0.016544452 0.016841326 0.017616156 0.018828895 -0.0389035 0.021682609
-0.0013110564 0.016396029 -0.009884903 -0.0066379737 0.0006604006 -0.014707045 -0.0022237406 -0.028470725
0.0127269 0.0101015875 -0.0007301699 -0.031664368 0.007979198 -0.0033923895 -0.023938607 0.028797848
-0.0023940115 -0.021848174 -0.030575287 0.009535555 0.015978133 -0.0044674007 0.014759706 0.0072411243
-0.00017877563 0.012200446 0.02948954 0.015919331 0.048657496 -0.03251757 -0.052125543 0.025447397
-0.007425351 0.030372217 0.004116245 -0.027820008 -0.001475796 -0.00366741 -0.019055381 -0.0009478502
-0.008840686 0.013410669 0.00808902 -0.019028299 -0.005303555 0.010421112 -0.018316152 0.0059560137
0.015495908 -0.021064933 -0.014030828 0.0049009672 0.032440033 -0.006280166 -0.010798008 0.010325925
-0.036049806 -0.018564211 0.02978614 -0.0034335074 0.006798622 0.014273955 0.017179474 0.022320062
-0.019329367 -0.00898258 0.015978035 -0.013808283 -0.002498684 0.0018870387 -0.010870937 0.0075452453
0.0065124836 -0.02801429 0.008667827 0.009264402 -0.0016089024 -0.0032622307 0.01567965 -0.001424551
0.003466609 0.009029922 -0.0064300164 -0.018578352 0.034639195 0.0027939093 -0.04769437 0.033973265
0.03710364 0.011858174 0.0131051885 -0.0132595375 0.015653767 -0.0057835067 -0.013305581 0.0018985991

linear.bias f4 [14]
00000000: 7b72 9cbc 1cb0 16bd f262 8cbc 02ca 93bc
00000010: 38e2 1f3d be85 f03c bbaa a23b 3f72 253d
00000020: 4e09 863d 577f fabc e216 32bd 5ab9 113d
00000030: 3762 bf3c 00f6 4a3d
-0.019097557 -0.036789045 -0.017137025 -0.01804066 0.0390341 0.029360648 0.0049642003 0.040392157
0.065447435 -0.030578298 -0.043478854 0.035577156 0.023362262 0.04955101
