Data/model_results_unphased_all_PRS/linear_regression/onnx_models/final_model_chr8.onnx (onnx, 65690 bytes, 2 tensors)

linear.weight f4 [21, 778]
00000000: 2fcb c3bd fa80 e4bd 14d1 f23d 571a e7bd
00000010: 4de7 26be fa01 6c3d 4c7b d83e 7d23 e63a
00000020: 3532 2ebd 7973 24be 496a a23c 8104 3dbd
00000030: 697c d83c 953b e63c cdcf 663c 57ae ac3d
00000040: 893b 78bc 7bb2 243d 7412 163e 4801 623e
00000050: be5d 3c3d 8399 8a3e 64a1 72bd 2c37 f53a
00000060: d908 b3bb db71 22be 24f9 bf3d f45d bebd
00000070: d653 4c3b 5e1c 79bc 64ba 49bc a2ac 013c
00000080: cd55 59bb 4c9d 2a3c 91bd 5bbc 7901 bebc
00000090: b731 8cbc f81f e5bb 531f fd3b f079 9f3c
000000a0: 7eee 863c d98b 9cb8 341c 7b3a 6df9 08bd
000000b0: 8e1f 353c df18 653c be56 ea3a 8713 48bc
000000c0: 89d9 6fbc 4098 043c 5229 3bbc 8883 403c
000000d0: 2dab 013c 13e8 d5bb 969c 2c3c a2e4 8c3b
000000e0: 0444 873c 8863 c63c 1ab8 753b e11e a2bb
000000f0: 815c 083c 3da4 903b 377a 053d e14e d93b
00000100: 9a1b b23c a58f dbbc cda3 063d 13c1 90bc
00000110: 27a1 95bd 361b 39bd 5360 8c3b 2c92 84bc
00000120: 85cd 9d3c 08aa 2c3b 0221 91bb 2513 94bc
00000130: 52c6 f7bb e712 b93c 2a7d 9c3c 3743 643a
00000140: ac84 9cbb aaf5 93ba 69a6 683b 1703 003c
00000150: 233b 843b b7bb 993c 7cbd 0cba 8550 9cbb
00000160: ceaf 073c f4d9 323a 6c0a 36bc 0fb2 63bd
00000170: 688f d3bb d40d b0bb 431c 79bb 1e3b 11bc
00000180: df6a 55bb 01ff 6bbd be5d d73c d9e1 bd3b
00000190: b927 073b acc6 2cbd e0ff b0bb d830 dbbc
000001a0: aae7 09bd 6b95 153d 7775 093b 7233 6bbc
000001b0: f7ce eb3a 03fa 5bbc 23c2 b43c 3294 b73c
000001c0: 1d5e c8bd 0250 bd3a c356 92bc 205c c4bc
000001d0: 8122 7abb cfa0 ba3c c42f 46bc a688 3f3c
000001e0: 438f 06ba a643 b3bc 6828 b03c 39af 8d3c
000001f0: 5c9d 213c 32ed 523c ec40 00bc c6a5 83bc
00000200: ea50 2aba 7fd5 0c3c 10f6 81bc dd13 923a
00000210: dcd1 ae3c e0ff 9b3c 37b9 bdbc be03 eabb
00000220: 4286 1c3c 7e9c b5bb 3130 aebc 92f2 ebbc
00000230: 3ab8 d8bc 47d7 dabc 8f74 b2bc 9d51 fe3b
00000240: 95ea 4a3c ef16 99bc 907e 2a3d a14d fbbc
00000250: 9fb3 e1bc 735e 67bd 8acc 32bc 0e18 9c3c
00000260: 311e 8d3c 8e3b 60bc 3e5a 01bb 32d7 ef3b
00000270: aa5c 293d 5977 5a3c 9abd 153c f84b dabc
00000280: 6c2c 49ba 16d8 4fbc 2880 e63b c693 8cbc
00000290: e8f4 723c d072 66bc d3e5 0e3b 148b c73b
000002a0: e20a 23bb afee ed3b ce84 cf3b 6321 ebbc
000002b0: 7c32 4cbc dabd 3dbc 46fb 13bc 6c72 e63a
000002c0: 636a fe3c 3576 11bc b67a 7d3a ee0a c83c
000002d0: 4a5b 4e3c 868a aebd 36f5 1abd 69c7 02bb
000002e0: 7a37 c43b 2e6e 76bb e7eb 5dbc 023c 903c
000002f0: 64d0 413c 737c e6ba a9b4 813c 147a a73c
00000300: a085 a93b d317 a8bc 489b 1dba 90e2 873b
00000310: 30f7 fd3c d4a7 f73b 040c 78bd 38b5 dcbb
00000320: b2b9 92bb b852 093c d744 03bc 4aa5 e03c
00000330: 2e17 f83b 05b9 8dbc 015f 22bb 8027 5f3c
00000340: d986 69bc 7447 a1bc 0a39 f63b 856d 83bc
00000350: 8b84 873d d31b 9fbb 5789 f9bc a309 a6bc
00000360: d9a9 cf3c 12df bc3b 8cc1 3ebb f431 d13c
00000370: 2ef5 093c 293b 2bbc 55ef ba3c e6e0 653d
00000380: 901d dbbc f364 9dbc 62c0 913c 86d5 2bbb
00000390: a75f 49bd 718c 0a3c ae6a 8a3b c8a8 713c
000003a0: 2a0f c4bb 7c8d 46bb 2562 343c 0e5c 18bc
000003b0: 5335 673c 15df 5dbc 938d 51bb e090 353c
000003c0: 7ef1 dabc 842d 40bc 00d7 143c 8a93 f5bb
000003d0: fbca 15bb c276 e0bb 7cda ac3c a7be 953c
000003e0: a9b8 97bd 3a3c 74ba e91f 04bd 2fdb b33c
000003f0: 9cd7 e0bb 1b63 143d 34b4 03bd 5f10 33bc
-0.095602386 -0.11157413 0.11856285 -0.11284321 -0.16299172 0.057619072 0.42281568 0.0017558184
-0.04252835 -0.16059674 0.019826071 -0.046146873 0.02642651 0.028104583 0.0140876295 0.0843169
-0.015150913 0.040209275 0.14655477 0.22070801 0.045987837 0.27070245 -0.059235945 0.0018708459
-0.005463701 -0.15863745 0.09373692 -0.09295264 0.00311779 -0.015204517 -0.012312505 0.007914694
-0.0033162714 0.010413479 -0.013411895 -0.023194062 -0.01711355 -0.0069923364 0.0077246814 0.019467324
0.016471144 -7.464708e-05 0.0009579093 -0.033440996 0.0110548865 0.0139829805 0.0017878634 -0.012211687
-0.014639267 0.00809294 -0.011423426 0.0117501095 0.007914347 -0.0065279095 0.01053538 0.004299716
0.016511925 0.024217382 0.0037493766 -0.0049475287 0.008322836 0.00441411 0.032587256 0.0066317176
0.021741677 -0.026801893 0.032871056 -0.01767019 -0.07306128 -0.045191966 0.0042839437 -0.016182981
0.019263038 0.0026346464 -0.0044289837 -0.018075535 -0.0075614834 0.022592021 0.019102652 0.00087075256
-0.004776558 -0.0011288424 0.0035499579 0.007813237 0.00403537 0.018766267 -0.00053688115 -0.004770341
0.008281661 0.00068226387 -0.011110883 -0.05558973 -0.0064563043 -0.005372742 -0.003801123 -0.008864192
-0.003256492 -0.057616238 0.026289817 0.0057947454 0.0020623042 -0.042181656 -0.0054015964 -0.026756689
-0.033668198 0.03651945 0.0020974556 -0.014355527 0.0017990757 -0.013426307 0.022065228 0.022409532
-0.09783576 0.00144434 -0.017863637 -0.02396971 -0.0038167539 0.022781758 -0.012096349 0.011690294
-0.0005133042 -0.021882843 0.021503642 0.017295467 0.009864178 0.012873935 -0.007827979 -0.016070258
-0.00064970425 0.008595823 -0.015864402 0.0011144836 0.021340303 0.01904291 -0.023159606 -0.0071415594
0.009553494 -0.005542337 -0.021263214 -0.02880219 -0.026455034 -0.02671398 -0.021784095 0.007761194
0.01238503 -0.018687693 0.041624606 -0.030676665 -0.02755147 -0.05648656 -0.010913024 0.019054439
0.01722631 -0.013686074 -0.0019737626 0.0073193545 0.041348137 0.013334119 0.009139443 -0.026647553
-0.0007674161 -0.012685796 0.0070343204 -0.017160308 0.014828898 -0.014065459 0.0021804466 0.0060895775
-0.0024878313 0.0072611193 0.00633297 -0.028702443 -0.012463208 -0.011580909 -0.009032076 0.0017581708
0.031056589 -0.00887828 0.00096694694 0.024419274 0.012595007 -0.08522515 -0.037831508 -0.0019955283
0.0059880586 -0.0037602293 -0.013545013 0.017606739 0.011829469 -0.0017584696 0.015833216 0.020443954
0.0051734 -0.020519173 -0.00060122134 0.0041468814 0.031001657 0.0075578485 -0.060558334 -0.00673547
-0.004477703 0.008381538 -0.008012018 0.027422566 0.0075711226 -0.017300138 -0.0024775865 0.013620257
-0.014253342 -0.019687392 0.007514124 -0.016043434 0.066170774 -0.004855612 -0.030460997 -0.020268267
0.025349544 0.0057638967 -0.0029107062 0.025536515 0.008420272 -0.010451117 0.0228192 0.056122683
-0.026747495 -0.019213175 0.01779193 -0.00262198 -0.049163487 0.008456335 0.004224143 0.014749713
-0.005983253 -0.0030296734 0.011009728 -0.009299291 0.014111835 -0.013541956 -0.0031975254 0.011081904
-0.02672648 -0.011729602 0.009084463 -0.0074943947 -0.0022856581 -0.0068500945 0.021100275 0.018279387
-0.07408268 -0.0009316836 -0.032256994 0.0219551 -0.00686164 0.036227327 -0.032154277 -0.010929196

linear.bias f4 [21]
00000000: 378a 783c 9e26 023d 665a a43c 7326 093d
00000010: ff83 b2bc 6e34 a13c 93f8 8abb a5e2 a1bc
00000020: 6e20 21bc f8af 1e3d 83c4 bb3c 9ff4 983c
00000030: 920f 103d e16d 84bb 1a6f f63c 3589 afbd
00000040: ef4d ce3c 91e7 fbbc b46d e2bc 1cae 3cbc
00000050: 8cc8 9bbc
0.015169672 0.03177511 0.020062637 0.033483934 -0.021791456 0.01967832 -0.004241058 -0.019761393
-0.009834392 0.038742036 0.022920853 0.018671332 0.0351711 -0.004041419 0.030082274 -0.08571092
0.025183646 -0.030750068 -0.027640201 -0.01151612 -0.019016527
