Data/model_results_unphased_all_PRS/linear_regression/onnx_models/final_model_chr21.onnx (onnx, 905 bytes, 2 tensors)

linear.weight f4 [4, 40]
0	0x3cbb5a42	0.022870187
1	0xbc280a34	-0.010256339
2	0x3ca88330	0.020570368
3	0x3cd0226e	0.025407042
4	0xbd3e8e8c	-0.046522662
5	0xbc22d5c6	-0.009938663
6	0xbc00ed14	-0.007869024
7	0x39e3fc0f	0.00043484612
8	0x3dc00880	0.09376621
9	0xbc630de4	-0.013858292
10	0x3c82adb9	0.015951978
11	0xbc542aa4	-0.012949619
12	0xbd24f41d	-0.040271867
13	0x3b06f57f	0.0020593104
14	0xbbc1cc47	-0.0059142443
15	0xbcc2dce5	-0.023786971
16	0x3f66370b	0.8992774
17	0xbc34989f	-0.011022716
18	0x3d0bcce3	0.034130942
19	0xbc3c379f	-0.0114878705
20	0xbc2808cc	-0.010256004
21	0x3ccaa7c0	0.024738193
22	0x3d00db73	0.031459283
23	0x3ca923fb	0.02064704
24	0xbb81c298	-0.003959965
25	0x3c25d803	0.010122302
26	0x3b8d814d	0.0043183924
27	0xbbaabb2e	-0.005210302
28	0x3c2d61cd	0.0105824
29	0xbe5d9edc	-0.21642631
30	0x3b5e682c	0.0033936603
31	0xbbd193a5	-0.0063957744
32	0x3c7c577f	0.01540172
33	0x3b2ca8c5	0.0026345712
34	0x3c3d7694	0.011563916
35	0x39bbaae2	0.00035794737
36	0x3cc6eab0	0.02428183
37	0x3cbd1127	0.023079468
38	0xbc14d72f	-0.009084507
39	0x3c439097	0.011936328
40	0x3e016541	0.12636282
41	0xbec5642d	-0.3855299
42	0x3cb3dcc7	0.02195586
43	0xbd2431c7	-0.040086534
44	0x3db33930	0.08751142
45	0x3d0a5009	0.033767734
46	0x3a6c5863	0.0009015856
47	0x3b120e14	0.0022286223
48	0x3e903a2f	0.2816939
49	0xba54cf97	-0.00081180915
50	0xbcb5b631	-0.022181602
51	0x3e645ce8	0.22301066
52	0xbd90c6ff	-0.070692055
53	0xbd05d723	-0.032675873
54	0xbc07e50a	-0.008294353
55	0x3e3b2351	0.18275191
56	0xbee1270b	-0.439751
57	0x3d6a5550	0.057210267
58	0x3d9fcaba	0.07802339
59	0xbde0f024	-0.10983303
60	0x3d682b46	0.056681894
61	0x3d822a4f	0.06355726
62	0x3d95103c	0.07278487
63	0xbe0149f8	-0.12625873
64	0x3c01214a	0.007881472
65	0x3d1e0162	0.038575538
66	0x3be17402	0.0068802843
67	0x3b5a2264	0.0033284659
68	0xbcdb23df	-0.026750503
69	0xbd289ddb	-0.041166168
70	0xbbd85b5f	-0.006602689
71	0xbbea6a6a	-0.007153799
72	0x3c9cf3a1	0.01915914
73	0xbbd3117e	-0.006441294
74	0x3c20e120	0.009819299
75	0xbbff0b71	-0.0077833463
76	0x3cff7236	0.03118239
77	0x3ba60da2	0.005067543
78	0x3c57f15e	0.013180105
79	0xbc03c1be	-0.008041797
80	0xbd0c175d	-0.03420197
81	0x3bdeeed3	0.0068033724
82	0x3c0b6edf	0.00851032
83	0xbc33ed18	-0.0109818205
84	0xbb8d6e3d	-0.00431612
85	0x3cb21d4e	0.02174249
86	0xbb5ca781	-0.0033669176
87	0xbc225c30	-0.0099096745
88	0xbc9ce296	-0.019151013
89	0x3c3749ec	0.011187058
90	0xbc20e4ee	-0.009820206
91	0x3c88f4af	0.016718237
92	0x3ca2c5b7	0.019869668
93	0xbbe0aab3	-0.0068562864
94	0xbb4b1b89	-0.0030991754
95	0xbce8dd16	-0.028425734
96	0x3c7af6cb	0.015317629
97	0xbb483c3c	-0.003055348
98	0xba4585fe	-0.000753492
99	0xbba6f61d	-0.005095257
100	0xba97baa8	-0.0011576014
101	0xbcb47bfd	-0.022031778
102	0xbc36baf5	-0.0111529725
103	0x3d56f202	0.05247689
104	0x3c4b6c85	0.01241601
105	0x3d82b271	0.06381691
106	0xbd7e671f	-0.062110063
107	0xbb3fff3e	-0.0029296423
108	0xbc9b1781	-0.018932106
109	0x3f25061c	0.6446245
110	0xbc87f761	-0.016597452
111	0x3cfabee3	0.0306086
112	0x3dabfeb5	0.08398191
113	0x3da549e4	0.08070734
114	0x39bbbd0d	0.00035808273
115	0x3d9eb087	0.07748514
116	0x3c8a336b	0.016870221
117	0xbc0379f3	-0.00802468
118	0xbc890a4c	-0.016728543
119	0xbd95efa7	-0.07321101
120	0x3d93073d	0.07179115
121	0x3d985363	0.0743778
122	0x3c8162e9	0.015794234
123	0xbce212c7	-0.027596844
124	0x3cac2eec	0.021018468
125	0x3bd32fc2	0.006444902
126	0xbac109db	-0.0014727669
127	0x3b1c28b1	0.0023827965
128	0xbd9a6084	-0.0753794
129	0xbc868f8a	-0.016425867
130	0x3c28153e	0.010258971
131	0x3ca18c3a	0.019720186
132	0xbd6bab78	-0.057536572
133	0xbca98b73	-0.020696377
134	0xbd5d5e90	-0.05404526
135	0x3c008b78	0.007845752
136	0xbce5c752	-0.028049145
137	0x3c635740	0.0138757825
138	0x39d8825c	0.00041295856
139	0x3a9cc73a	0.001196123
140	0xbd2522ea	-0.0403165
141	0x3b7fb160	0.0039015636
142	0x3bac766c	0.0052631404
143	0x3d4ddebd	0.050261248
144	0x3d14c72b	0.036322754
145	0x3d06c7b7	0.032905307
146	0xbd1adb26	-0.037806652
147	0x3c6be57c	0.014397975
148	0xbc22f6f8	-0.009946577
149	0xbd137e8a	-0.03600935
150	0xbd8b2362	-0.06793858
151	0x3c9a927a	0.018868674
152	0x3d058f59	0.03260741
153	0x3bcdfc66	0.0062861918
154	0x3ce63ac0	0.028104186
155	0x3cfd1ae4	0.030896612
156	0x3d0332a8	0.03203073
157	0xbc258233	-0.010101843
158	0xbd140984	-0.036141887
159	0x3dc15656	0.094402954

linear.bias f4 [4]
0	0xbd6fced5	-0.05854686
1	0xbcd18ebe	-0.02558076
2	0x3d72b001	0.05924988
3	0x3e4b5b2b	0.19858997
