Data/model_results_unphased_all_PRS/linear_regression/onnx_models/final_model_chr16.onnx (onnx, 19742 bytes, 2 tensors)

linear.weight f4 [14, 347]
00000000: b0e2 de3b 017f 21bd c845 8bbc cec8 8cbc
00000010: a8cf 73bd 29f5 973d c67d 4d3e d1e0 5a3d
00000020: 3001 873c 4a78 973c 0018 c3bc 9b31 c539
00000030: 7ea4 8d3d 4471 a83c 4a45 58bc 2d53 cfbb
00000040: a846 1e3d f046 d13c 532f 1e3c ae2f 823a
00000050: 8b5b b4bc 80c8 c13d 3597 c0bc f7ee 7b3e
00000060: e195 7bbe c829 a83c 6905 983d 2f7e 943b
00000070: 5a0d 1fbd c2f4 9a3d e973 803e 956d 2ebe
00000080: e9a2 083b 10b5 8c3d e31f 5bbc 6d1e 7c3a
00000090: 0b64 133f 4691 e3bc f5e3 703d 194a 93bd
000000a0: e118 ee3b c35b d83c 5146 cdbc 408f c43c
000000b0: fdf8 54bc 53d9 45bc f02a 323d e7a0 be3b
000000c0: 5d3b 6fbd 447d 273c 9eb3 b0bc e04c 1cbd
000000d0: 9edf 353d 29f3 183d ef01 b2bc 477b bfbd
000000e0: 27c2 23bd 4ebc 103d 6579 003e 7b37 903b
000000f0: beca 85bd 35b4 77bc d6ad 02bc 7854 133a
00000100: 1c63 7dbc eaea f33c 56a6 023d a9c2 863c
00000110: b225 48bc 7e20 ce3b beac 163d 87fe 8ebc
00000120: 03d5 c1bc 83af 9ebc b302 94bc 81e1 81bc
00000130: 395a 9f3c 54e0 bbbc 8e66 72bc 6eb1 c3bc
00000140: 0ecc 3b3c a1e2 c03c f88d 763c fd36 fcbb
00000150: 1910 2bb9 c0c1 383b 1090 fa3c 642d 243c
00000160: 6c23 5fbd 1171 953c 3385 2ebd 7919 02bb
00000170: 8aac 2bbc cdad 5ebb 9723 f0ba fcce ab3b
00000180: ce66 77bc 7c2f 90bc 37b0 873c d9c8 233c
00000190: 0883 01bb 3ab4 103d c10d 7f3c 2a8e e8bc
000001a0: f162 ad3d 5c2f f1b9 031e 11bd 1dfd 8ebc
000001b0: fb89 babc 0cd7 8dbb 64a9 8d3c 16f6 a2bc
000001c0: 98a1 00bc 8f9d 9b3b 4118 d83a c1aa a93d
000001d0: 7ca7 54bd cc6f 3bbc fe01 963a d1b0 413c
000001e0: 336c 8f3c d1a8 133d 5921 15bd 5019 5a3d
000001f0: 4ae2 7dbc 168b ad3c d1e8 7b3c 999c cd3c
00000200: 873e a73c 4b3a be39 c0d6 283c 070b 903c
00000210: 63b0 8ebc e6d7 b0ba 46ad d03b e799 f4bc
00000220: 8477 5abd ca9e c4bc 4817 9b3c 6cd9 bebc
00000230: bce3 d33c e835 eabc 7389 d3ba 034b bebc
00000240: e618 a13a d40d 013c c61f 513c 5883 bd3d
00000250: b483 2f3c ee54 b93c 4c1b 923d e6db 363a
00000260: c2b3 c4bc 97c8 51bb 85de f53c 3981 04bb
00000270: e62c 0cbc 0299 b6bb 8426 55bc 1a9c d83c
00000280: bb2b e1bb bf78 d8bc 16db a9bc 41f3 b3bc
00000290: 9445 103d fdab 073b e88d 203c 69e6 1ebc
000002a0: 1b73 8e3c 68c9 54bd dc93 7d3b ff0a a5ba
000002b0: bd52 e4bc 3015 80bc 26a3 2dbb 2e95 a0bc
000002c0: c7f7 cebb c795 ba3c d992 733c 67f1 0cbd
000002d0: 4467 f63a f3d8 cabd 8612 843a 1094 fb3b
000002e0: 8772 3dbc 59a0 653c 5e76 663d 7b2d ccbc
000002f0: 229a 55bc 9850 2cbc 7a4b b6ba 55d8 1c3a
00000300: dc93 a9bb aec4 b13c 114d 013d f88e b4b9
00000310: 98c1 a7bb d083 963b 445d 2cbd 6048 f23a
00000320: d78c 0bbc d513 4bbc 2eb9 683d 74db ad3c
00000330: b339 bb3c f669 b4bc 782f 323d 5de3 e23c
00000340: de47 86bc dc5b 2abd 8fe4 9cbc c371 23bc
00000350: c96e 91bb e116 01bd 15d2 bf3c 4d50 ed3c
00000360: 3156 bbbc 1e54 85bc 1647 963c 815e 363c
00000370: 9dbb e3bc c284 80bc b6a3 d7bc 4bc2 65bd
00000380: e0aa 3f3c 0376 f73a b9f7 0e3c 4ed9 84bc
00000390: 08f0 2fbb 8b7e c33c 55bc 15bc 6ab6 3d3c
000003a0: 8491 dbbc 89b8 21bd ba30 69bc 9457 123c
000003b0: 92c0 363c 75a9 d8bc 8c6a 37bb 5aa7 8f3c
000003c0: 938b dfbc e6c5 ca3c 8d91 8cbb 8f2c c73c
000003d0: 5c18 523d e6d2 02bb 8531 b43b 5072 0e3d
000003e0: 24e7 373c 50b1 8bbc 740f aa3c aae9 e1bb
000003f0: 92eb b83c 80c5 0abb 6239 16bb 1871 42bd
0.0068019256 -0.03942776 -0.017001048 -0.017185595 -0.05952421 0.074198075 0.2006751 0.053437058
0.016480058 0.018489975 -0.023815155 0.00037611727 0.0691614 0.020561822 -0.013200114 -0.006327054
0.0386416 0.025546521 0.009654838 0.0009932423 -0.022016307 0.094620705 -0.023509601 0.24602877
-0.24568893 0.020527735 0.07422907 0.004531644 -0.038831092 0.07566215 0.25088432 -0.1703399
0.0020849055 0.068704724 -0.013374302 0.0009617571 0.5757453 -0.027779233 0.058811147 -0.071918674
0.0072661494 0.026410943 -0.025057944 0.023994088 -0.012998817 -0.01207574 0.04349798 0.005817521
-0.058406223 0.010222737 -0.021570023 -0.03815925 0.04440271 0.03734127 -0.021729438 -0.09349685
-0.03998008 0.03533583 0.12546308 0.004401145 -0.06532811 -0.015118648 -0.007976016 0.0005620192
-0.015465524 0.029775102 0.03189691 0.016450243 -0.0122160185 0.0062904945 0.036785834 -0.017455352
-0.023661142 -0.0193708 -0.018067693 -0.015854599 0.019452201 -0.022934116 -0.014794959 -0.023888316
0.011462225 0.023545565 0.015048496 -0.007696985 -0.00016313828 0.0028191656 0.030586272 0.010020588
-0.05447714 0.01824239 -0.042607497 -0.0019851609 -0.010478148 -0.0033978105 -0.0018321153 0.0052431803
-0.015100194 -0.017600767 0.016563518 0.009996616 -0.0019761939 0.035328127 0.015567244 -0.028388102
0.08466137 -0.00046002388 -0.035429012 -0.017454678 -0.022770872 -0.004328614 0.017292686 -0.019892734
-0.007851027 0.004749007 0.001648672 0.08284522 -0.051917538 -0.011440229 0.0011444686 0.0118219415
0.017507648 0.036049668 -0.036408756 0.053246796 -0.015495846 0.021184485 0.015375332 0.025099086
0.020415558 0.00036283056 0.010305107 0.017583383 -0.017418092 -0.0013492077 0.006368312 -0.029858543
-0.053336635 -0.024001498 0.018932 -0.023297034 0.025865428 -0.028590158 -0.0016138986 -0.023229128
0.0012290746 0.007876832 0.012763923 0.092535675 0.010712553 0.022623505 0.07134113 0.00069755164
-0.024011496 -0.003201043 0.030013332 -0.0020218624 -0.0085556265 -0.005572439 -0.013009671 0.026441623
-0.006871668 -0.026424764 -0.020734351 -0.021966578 0.035222605 0.0020701878 0.009799458 -0.009698489
0.017388871 -0.05194989 0.0038692867 -0.0012591778 -0.027871484 -0.015635103 -0.002649495 -0.019602384
-0.0063161585 0.022776498 0.014866554 -0.034409907 0.0018799086 -0.09904661 0.0010076321 0.0076775625
-0.01156295 0.014015281 0.056265227 -0.02492403 -0.013037236 -0.010517262 -0.0013907992 0.0005983164
-0.005175097 0.02170023 0.031567637 -0.00034438795 -0.0051195137 0.00459335 -0.042081133 0.0018484704
-0.008517466 -0.012394865 0.056817226 0.021222807 0.022854662 -0.022023182 0.0435023 0.027696306
-0.01639169 -0.04159151 -0.019151954 -0.009975853 -0.0044382554 -0.03151596 0.023415605 0.028968954
-0.022868248 -0.016275462 0.018344443 0.01113093 -0.027799422 -0.015688304 -0.02632318 -0.056093495
0.011698455 0.0018879775 0.008726054 -0.0162169 -0.002684595 0.023864051 -0.00913914 0.011579135
-0.026802786 -0.039482627 -0.014232809 0.008932013 0.011154311 -0.02644799 -0.002798709 0.017535854
-0.027288234 0.024752568 -0.004289812 0.02431324 0.051292762 -0.001996213 0.0054990673 0.034776986
0.011224542 -0.017052323 0.020759322 -0.00689431 0.022573266 -0.0021174848 -0.0022922386 -0.047471136

linear.bias f4 [14]
00000000: 6c12 7f3d 63a9 243c 6538 0cbd 1d44 86bc
00000010: 2175 883b e04e fd3c 9ad7 983d 1482 d23c
00000020: f4b3 e63c b406 c7bb 188f cf3b 02a4 2f3c
00000030: af45 003d 4ebd 04bd
0.062273428 0.010050151 -0.03423347 -0.0163899 0.0041643535 0.0309214 0.07462998 0.025696792
0.02816198 -0.006073797 0.006334197 0.010720255 0.031316455 -0.032407098
