Data/model_results_unphased_all_PRS/linear_regression/onnx_models/final_model_chr3.onnx (onnx, 79614 bytes, 2 tensors)

linear.weight f4 [16, 1239]
00000000: dc4d c43b 8b4f 4e3c b82f bb3c fd08 b4bb
00000010: 50c3 613b c7f0 de3b 12a1 a53c b7c9 d83a
00000020: f504 dfbc cbc9 e33b b2cc b5bb 0079 d83b
00000030: dd58 173b e1a3 543c 4ceb cbbc 07e3 47bd
00000040: 67e9 fcbb ea46 4d3c 76c4 0a3d 45cf 05bd
00000050: b039 ef3c dd92 313c 69f1 e53a 5102 103c
00000060: da42 a93b 9ba8 c5ba 607a 4cbd 9f7d f339
00000070: 105f 0a3c 2f34 adbc 1d1b 363c c3fe f3bb
00000080: c6f1 e9bc 739a 58bd 46e9 883b 0c94 e9bb
00000090: ee6a ad3b 5b9c ddbc ef71 bd3b 49a2 b73c
000000a0: 374f 80bd 131c a63b bdfa 813c de22 13bc
000000b0: d2ef a73c b36b 73bc b66b dfbc d809 38bc
000000c0: fff3 fe3b efbe 5abd 45fb 9f3a 1e24 0fbd
000000d0: a29a 0d3c 4457 1abd 96b4 86bb 2499 083c
000000e0: 89da 5cbd 8b95 273c f60d 33bc 2768 603c
000000f0: 2b66 163d 8170 80bb 2989 51bb 140b 1d3c
00000100: 04f8 4f3c 2808 c2bc c8f4 3b3d 2857 05ba
00000110: 4e19 cd3b 6cdf 003d d4a7 9fbb 8579 893a
00000120: b3d7 48bd 9e22 3f3c e369 01bd a1a7 96bc
00000130: de3f f1bc 8f68 14bc 01f2 bbbd 8037 d93b
00000140: 1d05 5b3c 1a19 10bb 4a80 bcbb aae6 4bb9
00000150: 0f9d 2f3c f727 49bb 7a73 fe3a d1a6 3e3a
00000160: f235 c6bb 93de f0bb 1a4e 3f39 a366 f93b
00000170: 9bbc 1abc 2e6b 023a fde9 eabc 14d5 e9bc
00000180: 490e 84bb cfba e33a 4788 fe3b 5327 e4bc
00000190: e2f3 09bb 4549 62bb e6d4 c8bc 2769 fcba
000001a0: 0562 fe3c b5c0 433d b9ac af3c 85ad 173c
000001b0: 4483 013c b85f 9b3d c8da c9bc 523d 863b
000001c0: 8cbf 903c 84ed 983b e56a 363d c4aa 903c
000001d0: 08cb 883c 2273 2bbd 8d98 ee3b af96 d93b
000001e0: 3c62 de3c 93b3 c23b 71c8 11bc 12de 2cbc
000001f0: 53b6 a23c 430d 9a3c 933a 32bc d658 e9bb
00000200: 1618 e4bb facd ef3b 0050 e0b1 f1bf fd3b
00000210: 9bab d7bc 82f4 e8bc b57e 2d3c 6873 b3bc
00000220: f23c f73c 8f65 b9ba f2e3 99bc 2119 b73c
00000230: 26e1 333c d2f5 d03e 1382 48bd 7e7b 13bc
00000240: 93e1 d33c 3dcf 96bc 085b ddbc 0cf3 373b
00000250: c4ce 9b3c 6acb 813b a6e0 d439 fcbf d33c
00000260: 3faf 0bbd 2257 253c a3d0 f43c 1053 7f3b
00000270: 37bb b43a c62a 183d 2749 9839 e80d 6dbc
00000280: d2ed d1bb dfcb 77bb 81cd 293c c868 7fbd
00000290: dae2 1abb 8f9e 3b3b 4284 fe3c 3dcd fe3a
000002a0: bd4d 823a 13cf 08bd ecd2 a7bc 6e01 16bb
000002b0: b7b4 b6bc 3f44 b23c e0c6 333d ceaa 91bc
000002c0: 6717 efbc e626 6e3a 4f22 55bb b3ed 033c
000002d0: c239 163d a6f9 be3c dc8c d3bb 9a83 62bc
000002e0: e17e 87bc 2f95 823c 9b4e 153c 0375 93bc
000002f0: b703 283c cefd 083d 9d39 5dbc 207b f03b
00000300: b80b b2bb 8d68 e03b 4a24 60bc 99b1 bebc
00000310: a8ca 193c a84a 613b 00a6 733d f7e8 92bc
00000320: 3910 1ebd fc4a 883a 4a58 cebc c6ec dbbc
00000330: 5611 cf3b 2334 8cbb ce97 8e3b 6f5d 02bc
00000340: 41f4 4c3c 529f 84bb d5fd 42bb 7344 ce3a
00000350: 157b d7bb 7f39 7e3b 882a 8f3b ba1e dfba
00000360: 81d1 293b 6ec2 363c 2bdd 9f3a 74a8 703c
00000370: bfb2 b9bb 08ee 343b 25b7 bf3b e7fe 2fbb
00000380: c61b b73a 23fa 21bb cad0 3ebc 859e dfbc
00000390: 7555 8ab9 3447 67bc e1ae 63bb 3d34 163b
000003a0: 5f65 14bc e099 2a3c ca76 d63c 9679 2cbb
000003b0: 4b55 07bc 665d 3bbc cb9e 2cbb 8079 38bc
000003c0: eb90 213c de5e 3bbb 1bb0 d6bb cd75 413b
000003d0: fee7 90ba d007 5e3c 67d0 97bb 91a3 d5bb
000003e0: 8806 99bb 879d 7a3b fdb2 89bb f0bd 9a3c
000003f0: c336 8b3c 72c3 103c abba 99bb b72a 2d3b
0.005990727 0.012592207 0.022849903 -0.0054942355 0.003444869 0.0068036052 0.020218406 0.0016539608
-0.027224043 0.006951546 -0.005548083 0.006606221 0.0023093738 0.012978525 -0.024892472 -0.048800495
-0.0077182534 0.012529114 0.033878766 -0.03266837 0.029202312 0.010838238 0.0017543259 0.008789615
0.00516544 -0.0015080156 -0.049921393 0.00046442167 0.008445516 -0.021143047 0.011114863 -0.0074461414
-0.02855767 -0.05288167 0.004178199 -0.0071282443 0.005292288 -0.027052095 0.005781404 0.02241625
-0.06265109 0.0050692647 0.015866632 -0.008980481 0.020500097 -0.01485722 -0.02727304 -0.011232816
0.0077805514 -0.053404745 0.0012205621 -0.034946553 0.008642824 -0.03768088 -0.004110883 0.008337293
-0.05391935 0.010228525 -0.0109286215 0.013696707 0.03671853 -0.0039196615 -0.0031972623 0.009585161
0.012693409 -0.02368553 0.04588774 -0.00050865347 0.00625912 0.03146307 -0.0048723016 0.0010488486
-0.04903383 0.011665968 -0.031595122 -0.018390479 -0.0294494 -0.009058132 -0.09177018 0.0066289306
0.013367918 -0.0021987618 -0.005752598 -0.00019445518 0.010718598 -0.0030693987 0.0019413077 0.00072727824
-0.0060489113 -0.0073507517 0.00018244275 0.007611112 -0.009444381 0.00049750775 -0.028676027 -0.028543986
-0.0040300232 0.0017374399 0.0077677104 -0.027850782 -0.0021049906 -0.0034528535 -0.02451558 -0.0019257412
0.031052599 0.0477912 0.021444665 0.009257679 0.007904831 0.07586616 -0.024640456 0.0040966654
0.017669462 0.004666986 0.044535536 0.017659552 0.016698375 -0.041857846 0.007281369 0.0066402773
0.027146451 0.005941817 -0.008897887 -0.010550993 0.01986233 0.018805152 -0.010878223 -0.007121186
-0.006960879 0.0073182555 -6.528353e-09 0.0077438285 -0.026326945 -0.028436903 0.010589291 -0.021905616
0.030180428 -0.0014144647 -0.01878545 0.02235085 0.010978973 0.40812546 -0.048952173 -0.009001611
0.025864398 -0.018409366 -0.027020946 0.0028068451 0.019019492 0.0039610164 0.00040603167 0.025848381
-0.034102675 0.010091575 0.029884642 0.0038959421 0.0013788705 0.037150167 0.00029046202 -0.014468648
-0.006406524 -0.0037810726 0.010363937 -0.062355787 -0.002363375 0.0028628444 0.031068925 0.0019439828
0.0009941381 -0.033400606 -0.020486318 -0.0022889036 -0.022302968 0.021761058 0.043890834 -0.017781641
-0.029185964 0.0009084776 -0.003252167 0.008052277 0.036676176 0.023312401 -0.0064560007 -0.013825322
-0.016539993 0.015940277 0.009112979 -0.018000131 0.010254792 0.033445172 -0.013502506 0.0073388964
-0.005433526 0.006848401 -0.013680527 -0.023278045 0.009386696 0.0034376774 0.05948448 -0.017933352
-0.03858969 0.0010398324 -0.025188584 -0.0268463 0.0063192053 -0.004278676 0.0043515926 -0.007956847
0.012509407 -0.004047313 -0.0029753346 0.0015736952 -0.006575952 0.0038791595 0.004369084 -0.0017022707
0.0025912228 0.011154754 0.001219665 0.0146886 -0.00566706 0.0027607698 0.00585069 -0.0026854814
0.0013970069 -0.0024715743 -0.011646459 -0.027297268 -0.00026385082 -0.014116097 -0.0034741687 0.002291932
-0.009057372 0.010412663 0.02617969 -0.0026317588 -0.0082600815 -0.011435842 -0.0026339765 -0.011259437
0.009861211 -0.002859048 -0.006551755 0.0029519678 -0.0011055467 0.013551667 -0.004632998 -0.006519743
-0.004669968 0.0038240866 -0.0042022453 0.018889397 0.016993886 0.00883566 -0.004691442 0.0026423165

linear.bias f4 [16]
00000000: 9531 eebc e4cc c73c 6224 4fbc f39b 3cbc
00000010: e44a 7dbc 9534 05bd 0bc9 d5bc 2e2d 6d3c
00000020: 7ab9 933c 27ed dc3c 0be7 8c3c c602 4cba
00000030: 69d5 803c a0e5 c83c f860 673c b371 bebc
-0.029076377 0.024389692 -0.012642952 -0.011511791 -0.01545975 -0.03252085 -0.026096841 0.014476104
0.018032778 0.026968552 0.017200014 -0.00077823957 0.015726762 0.024523556 0.01412224 -0.023247575
