Data/model_results_unphased_all_PRS/linear_regression/onnx_models/final_model_chr11.onnx (onnx, 68730 bytes, 2 tensors)

linear.weight f4 [19, 900]
00000000: 7aa2 993d 0bfc 123d bd5a 8bbc 8424 4e3c
00000010: b14a 823d c8c8 02bd b09a e63d c96e b43d
00000020: dfa6 cabc 0228 b2bd bddc 49bc 64b9 01be
00000030: 67ee b3bc 2200 e9bd f5ed 153d 4e73 cf3b
00000040: af43 273c 3e63 0f3e 1b7f 7f3d 6b0a 4d3b
00000050: 8775 11bd 2e6d 91bb 4cfd 4d3f 3052 67bc
00000060: 1457 90bd 000d 5e3d fdf0 6f3d c934 40bb
00000070: 6746 33bc c717 96bc d061 5ebc 7443 29bb
00000080: 6da4 88bc ad70 063b d1fa f2bb 5631 d43c
00000090: 78bd fe3a d803 073c 156e 8b3a a01f 9abc
000000a0: bd2c 453c 6d15 6e3b 9aad 54bb 0917 a43b
000000b0: f460 d63a 846a 87bb a683 783b f3eb 0b3c
000000c0: 87eb cd3a 606b ac39 9402 88ba e188 9ebc
000000d0: 64e4 6c3b 7f75 c5ba 703e 383c 2d94 f23a
000000e0: e25c 3bbc c16e 003c 2bce 9f3c 3f09 0f3b
000000f0: 2289 33bc 2e92 31bc 93db 05bd 18b1 a73c
00000100: 9b4d bebc 1cbb 0a3d fddd c03c aa75 36bb
00000110: 968c a53b daef cbbb a165 c33c 9e77 293c
00000120: 2004 aabc d700 2bbc 4572 71bc dc2e 38bc
00000130: bacd b1bb 13ea a83c 26f6 6b3c 6c8e e8bc
00000140: 90a5 7c3a fc3e 42bc 3d49 f43c 7596 aabc
00000150: c80d 423a 25bc 173c fea7 18bc a0db dcbb
00000160: f083 143b 7a8e f13c b99b 9e3b 6477 003c
00000170: 16ba bc3c 7172 9f3b e5c9 f83b cb00 be3c
00000180: 36ff d1ba b37c 843c e53b 43bb c737 e43b
00000190: db6e b1bc 492f c63b b09f 373c cd4d 113c
000001a0: d076 d9bc ec10 913b 6455 7f3c 40c9 f53b
000001b0: 32a4 2b3c 7a2f 8f3a 39b9 75bb 927e 06bd
000001c0: be18 58bb f6de 2f3d aba6 dabc c498 0ebc
000001d0: e9d1 6dbb 115b 863b 9675 00bc 73fc b43a
000001e0: 2830 ebbc d299 1ebb f267 2cbc 606a b6bc
000001f0: 5a46 20bc 110b 44bc 4ef3 e3bc 572d 1f3c
00000200: 3abc 463c 184c 183d 51c6 2fbc bbe4 bcbc
00000210: 4c0c b23c 6a41 a4bc 7e61 47bc 8f81 3cbd
00000220: 8269 b73b 2588 703c c7b1 1f3c 8b97 893b
00000230: 2b3d 03bc b976 f63b 3a49 80bc a486 7d3b
00000240: e789 b03c 3adb e8bb a6d0 dbbb 27ab a03b
00000250: 6946 223d 7230 0fbb e49a a33b e988 53bc
00000260: 20c0 75bc 8bd0 5b3c 0596 c5bb b101 3b3c
00000270: 0dc4 a93b 8655 e1bc a8f7 c43c d9d0 23bd
00000280: d916 c139 c0c4 2ebb de85 223b 8882 01bc
00000290: 6403 95bc 28d0 223d 67cc 6abb 397d 013c
000002a0: d064 83bc 4ed9 c33b f6d8 473c c068 c6bb
000002b0: ac70 a2ba 53c2 d5ba 3f20 4fbc d050 a1b7
000002c0: 8a9d 523c e8a5 5ebc 2bcf 04bc 4f6f 6e3c
000002d0: 4638 9c3c 7ee2 c13c 00bb e43c afc6 82bd
000002e0: f43b df3c 093f 28bc 8c89 483b 455f 223b
000002f0: 86f0 d9bc cc26 e7bb 2e76 babc 3151 1cbc
00000300: 7d42 c7bc 3be4 1c3d b338 d5bb 2715 cd3c
00000310: a6a0 abba 143a c7bb d06d 48bb b4cb c33a
00000320: 0eb3 b4bc ead3 76bb 47bd c13b 9c13 a43b
00000330: 1c76 ecb9 82bd 1bbc cdf8 073c c666 073c
00000340: b186 0e3a bd33 8abc 1562 433d f8bd 87bb
00000350: 74a8 6cbc 7300 15bd dd6d 343b b539 97bd
00000360: 1c40 cb3a 6d2b 9dba f6c9 abbb d372 6abc
00000370: d9bb 143c 2470 053c aa90 cb3a 89b8 84bc
00000380: ce8e ac3a 4a05 1fbc 8b38 eb3b bbde 3d3b
00000390: 63b0 06bc 0689 733c e691 65b9 2da0 8bbc
000003a0: ffd2 89bc 6bd7 1a3c 1d84 89bc 3fbc 003d
000003b0: fcc3 a63c b886 beba 5895 053d 393c ac3c
000003c0: ddf5 033c d26d d8bc 935e 513b 9cb2 7c3c
000003d0: 3ac5 7a3c 0bd6 843b 03a1 77bc e93b b13c
000003e0: 49af 863c d75d a6bc 59f9 bbbb 8ef9 d2ba
000003f0: 9380 acbc a88e 93bc c400 0bbd a151 2cbc
0.07501693 0.0358849 -0.01701104 0.012581948 0.063619025 -0.03192976 0.11259973 0.08810193
-0.024737773 -0.08699037 -0.0123206945 -0.12668377 -0.021964265 -0.113769785 0.036603887 0.006330884
0.010209008 0.14002702 0.062377077 0.0031286727 -0.035512473 -0.004438064 0.80464625 -0.014118716
-0.07047859 0.054211617 0.058579434 -0.0029328337 -0.010942078 -0.018321885 -0.013573125 -0.0025827559
-0.016679967 0.0020513937 -0.0074151536 0.025902431 0.0019435128 0.0082406625 0.0010637665 -0.018813908
0.012034592 0.0036328689 -0.0032452107 0.005007629 0.0016355799 -0.0041325707 0.0037920265 0.008540141
0.0015710451 0.00032886397 -0.0010376745 -0.019352378 0.0036146874 -0.0015064924 0.011245355 0.0018507295
-0.011435719 0.007838906 0.019507488 0.002182558 -0.010957988 -0.010838075 -0.032680105 0.020470187
-0.023230365 0.033869848 0.023543352 -0.002784113 0.0050521595 -0.006223661 0.023852171 0.01034346
-0.02075392 -0.010437212 -0.014736717 -0.011241641 -0.005426136 0.020619428 0.014401948 -0.028388225
0.0009637708 -0.011855837 0.029820079 -0.020823697 0.0007402566 0.009261166 -0.009317396 -0.0067400485
0.0022661649 0.029486883 0.004840341 0.007840965 0.023037951 0.0048659374 0.007592427 0.023193737
-0.0016021493 0.016172742 -0.0029790339 0.006964657 -0.021659305 0.0060481173 0.011207506 0.008868647
-0.026545912 0.004427066 0.015584324 0.0075007975 0.010476159 0.0010924183 -0.0037494435 -0.03283555
-0.0032973732 0.04293724 -0.026690802 -0.008703414 -0.0036288446 0.0041002114 -0.007840535 0.0013808146
-0.028709486 -0.002420057 -0.010522829 -0.02226752 -0.009782398 -0.011965529 -0.027825978 0.0097154
0.012129838 0.037181944 -0.010728435 -0.023058286 0.02173438 -0.020050723 -0.01216924 -0.046021994
0.0055972943 0.014680897 0.009746975 0.0041989735 -0.008010189 0.007521477 -0.015659917 0.0038684988
0.021550132 -0.007106212 -0.0067082224 0.0049032154 0.03961793 -0.0021848944 0.0049928296 -0.01291106
-0.014999419 0.01341642 -0.0060298466 0.0114139775 0.005180842 -0.027506601 0.024043873 -0.039994095
0.0003682885 -0.0026667565 0.002479903 -0.007904656 -0.018190093 0.039749295 -0.00358274 0.007903391
-0.016039282 0.0059768325 0.012197724 -0.0060549676 -0.0012393198 -0.0016308523 -0.012641965 -1.9230327e-05
0.012854943 -0.01358936 -0.008106033 0.014552905 0.019069802 0.02366757 0.0279212 -0.06385552
0.027250268 -0.010268935 0.0030599562 0.0024776023 -0.026603948 -0.0070541855 -0.02276143 -0.009540842
-0.024323696 0.038303595 -0.006507003 0.0250345 -0.0013094142 -0.0060799215 -0.0030583031 0.0014938028
-0.022058036 -0.0037662932 0.005912456 0.0050072204 -0.00045101426 -0.009505631 0.008299065 0.008264249
0.00054369407 -0.016870374 0.04770096 -0.004142519 -0.014444459 -0.03637738 0.0027531304 -0.073840536
0.0015506777 -0.0011991091 -0.0052425815 -0.014309603 0.0090779895 0.008144412 0.0015530784 -0.016201274
0.0013165118 -0.009705851 0.0071783713 0.002897187 -0.008220765 0.014864212 -0.00021893493 -0.017044151
-0.016824244 0.009450774 -0.01678663 0.031429525 0.020357125 -0.0014535999 0.03261313 0.02102481
0.008054224 -0.026419554 0.003194724 0.015423443 0.015305812 0.004053836 -0.015114072 0.021635013
0.016441004 -0.020308418 -0.0057365117 -0.0016096102 -0.021057403 -0.01801236 -0.033936277 -0.010517509

linear.bias f4 [19]
00000000: da1a 9dbc d67b 10bd cb24 fdbc a450 c13c
00000010: 17ef f83b 874f 3f3c 0e87 c5bc 3f70 6abc
00000020: bf02 a5bc 895f b23b 1799 8dbb d8cb 95bc
00000030: 3cf1 873a 29c1 a73d 1a7b ee3c 6436 053d
00000040: 60a7 693c 3a91 8bbc 2fdb 1abd
-0.019177843 -0.03527435 -0.030901333 0.023598023 0.007596861 0.011676676 -0.02411225 -0.014308988
-0.020142911 0.0054435176 -0.0043212282 -0.018285677 0.0010371576 0.08191139 0.029111434 0.032522574
0.014261097 -0.017037023 -0.037806686
