Data/model_results_unphased_all_PRS/linear_regression/onnx_models/final_model_chr16.onnx (onnx, 33462 bytes, 2 tensors)

linear.weight f4 [14, 592]
000000 d7 8d ae 3c 34 32 74 bd fe 55 a5 bc 0f 59 f4 bc
       0.021307869 -0.05961819 -0.020182606 -0.029827623
000010 38 55 66 bd ab 6b 9b 3d 72 6a 4a 3e ae 94 4c 3d
       -0.056233615 0.075888954 0.19767168 0.04994648
000020 2d 72 e6 3b 47 8f 10 bd e1 03 60 bd b9 4a e9 3c
       0.007032654 -0.03529289 -0.0546912 0.028478013
000030 18 33 bf 3c f2 81 e1 bc 57 b0 11 bb e4 05 87 bc
       0.023339793 -0.027527783 -0.002223035 -0.016482301
000040 e3 79 b0 3d 00 40 04 3d 1c 4d 3e bb bc 63 71 3c
       0.08616998 0.032287598 -0.002903766 0.014733251
000050 ba 99 1b bc 92 8a ec bc 32 e6 e8 3c 50 76 f5 3c
       -0.0094971005 -0.02887467 0.028430078 0.029963642
000060 05 6c 14 3d c0 15 82 bc 91 ff bc 3c 0a dd c7 bb
       0.036235828 -0.015879512 0.023071082 -0.006099348
000070 9b c5 2a 3b 80 9e 8b bc c6 9f 50 3c 39 5f 1e 3c
       0.0026057723 -0.017043352 0.012733405 0.009666258
000080 62 aa 44 ba 49 37 eb bc 86 ec 09 bc 88 c1 b0 bc
       -0.00075021957 -0.028712885 -0.008418208 -0.021576658
000090 0e 7c 8b 3d e4 77 b7 bc 14 29 7d 3e 60 f8 5b be
       0.06810771 -0.022396035 0.24722701 -0.21481466
0000a0 f5 fe d3 3c dc 9d 4c bc 30 b0 98 3d f6 a2 1b 3c
       0.025878409 -0.0124888085 0.0745548 0.009499302
0000b0 44 6e 05 bd ae 85 91 3d e1 d0 7d 3e 4a e9 3e be
       -0.03257586 0.071055755 0.24786712 -0.1864368
0000c0 bf b5 68 3b 51 7d 12 3c 06 ed 46 3d a7 0a 18 bd
       0.003550872 0.008941011 0.048565887 -0.037119534
0000d0 89 87 2d bd 79 6d aa bb 88 27 e0 bc e4 0d 18 3f
       -0.042365585 -0.0052010384 -0.0273626 0.59396195
0000e0 20 61 b0 bc 4e 07 80 3b eb 90 a2 3d 3a 42 93 bd
       -0.021530688 0.003907121 0.07937797 -0.07190366
0000f0 dd 96 a3 3b a3 8b 61 3c ca 8a 89 bc d6 e0 a3 bc
       0.0049923495 0.013766202 -0.016789813 -0.020004671
000100 1e d8 7a 3c e9 06 a8 bc 86 9e b1 bc a7 76 67 bc
       0.015310315 -0.020511108 -0.021682035 -0.01412741
000110 a8 b5 b3 3b c4 dd 43 3b 52 23 02 3c 1e c9 ad bc
       0.0054843016 0.0029886821 0.007942991 -0.021214064
000120 4b 9f 63 bd a4 92 60 3c 4e 34 5d 3c ba 63 2f bb
       -0.055571835 0.013706837 0.01350124 -0.0026762323
000130 8b 7b 06 bd 6c 36 0c 3d 0e f5 7a 3d 0e 17 27 bb
       -0.032832664 0.03423159 0.06126886 -0.002549592
000140 e7 eb bf bd 0a 93 2f bd 16 a1 aa 3c 91 29 47 3e
       -0.09371167 -0.042864837 0.020828765 0.1944945
000150 03 03 32 3a 66 5b 01 bd bf 4a 72 3b 2d dc fe b9
       0.000679061 -0.031581305 0.0036970822 -0.000486107
000160 78 2d 4c bb 8c 21 e0 bb c0 9e 9f bd 53 6f a2 3b
       -0.0031155031 -0.0068399366 -0.07793951 0.0049571185
000170 60 ee 70 3c d1 68 b1 bc 0c 79 39 3c 4b ac 23 3d
       0.0147052705 -0.021656426 0.011320364 0.039959233
000180 0e ab b4 bc 96 0a 1a bd 08 7c cd bc 76 70 95 3b
       -0.022054221 -0.03760775 -0.025083557 0.0045605255
000190 1d 12 2b bc b9 c5 cb 3b e9 0c 05 bd 65 5b e6 bc
       -0.01044133 0.0062186387 -0.032483015 -0.028119752
0001a0 d6 66 cb bc e0 cf 9f 3c 00 be d3 3b be 28 79 b9
       -0.02482931 0.019508302 0.0064618587 -0.00023761668
0001b0 27 02 90 3c e0 45 ef bb 3e 0b 54 bc 01 b0 f5 3a
       0.017579151 -0.007302031 -0.0129421335 0.001874447
0001c0 f5 c6 0d 3d f9 c5 9b 3b c4 12 6f 3c ff d3 2d bd
       0.03461357 0.004753825 0.014591876 -0.042438503
0001d0 48 de 71 bc ce b4 88 b9 ae e1 59 bc 8e 0f 4b 3d
       -0.014762469 -0.0002607465 -0.013298435 0.04957538
0001e0 89 49 a8 3c 11 5b 6c bd 02 c8 5c 3c a6 78 54 bc
       0.020542877 -0.057704035 0.01347542 -0.012968218
0001f0 f8 85 0e 3b d0 46 7f 3c 11 a1 ac 3b e1 ea 87 3b
       0.0021747332 0.015580848 0.005268224 0.004147873
000200 80 70 61 3b 02 a1 08 bd e2 0f 92 bc 27 22 ae bb
       0.003439933 -0.033356674 -0.01782984 -0.00531413
000210 ec 7b 81 3b 65 31 f8 bc 4c 1e 62 3c 03 ae 22 bc
       0.00395154 -0.03029699 0.013801169 -0.009929183
000220 ec a4 57 bc cb 57 1d 3d 84 c3 a0 3c dc 12 6c bc
       -0.013161879 0.038413804 0.01962448 -0.014408793
000230 52 2b 84 3d 73 53 b7 3b c2 fc 5f bc 26 5f bc bc
       0.06453575 0.0055946647 -0.013671102 -0.022994589
000240 da 4c 8d bc af 33 9b bc f4 40 86 3c cf 81 b0 bc
       -0.01724856 -0.018945543 0.016388394 -0.021546273
000250 92 f5 11 3c 6a fb b5 3c bc 4e 99 3c 18 af 08 bc
       0.008908646 0.02221461 0.018714301 -0.008342527
000260 96 a9 d7 3d 88 0a 23 3d f1 09 1d bb c5 6b 30 bd
       0.10530393 0.039804965 -0.0023962224 -0.043071527
000270 3e 51 91 3b 9e 0b 14 bc b9 3e c5 bc 8f 25 a9 bb
       0.0044347337 -0.009035973 -0.02407776 -0.005161948
000280 5c 37 dc bb b4 0d ad bb 7a 9b 96 3c 3d 68 09 3c
       -0.0067204665 -0.0052811746 0.018384684 0.008386669
000290 8f bc 1f 3d 52 9b b1 3d 6d ec 83 3b a0 83 09 bd
       0.038998183 0.08672203 0.004025987 -0.033572793
0002a0 cf a9 3f 3d f8 29 88 bc b7 f1 c7 3c 4f 16 3b 3c
       0.0467928 -0.016621575 0.02440725 0.011418893
0002b0 8f 67 09 3d 12 a2 75 3c 6f 9e 21 3c 8a 89 0d bd
       0.033546027 0.014992254 0.009864434 -0.034554996
0002c0 f4 a3 e2 3b 37 2c 7a 3b ee 57 cb bc d0 0c b5 bc
       0.0069165174 0.0038173327 -0.024822202 -0.022100836
0002d0 5b 63 3e 3b b6 59 b3 3b 5e 77 24 3c b8 fe 23 bd
       0.002905092 0.005473341 0.010038225 -0.04003784
0002e0 ae e9 cc bd 54 7d 4d bd 3f bc d3 bc 7b 45 d8 3c
       -0.10005508 -0.05016835 -0.025846599 0.026400318
0002f0 b2 7a 00 bd 46 49 45 3c e1 3b 22 bc 7a 3d 80 3b
       -0.03136701 0.0120413955 -0.009901972 0.0039135786
000300 68 65 b2 bc a6 ff 83 b9 7c 7b 46 bd c8 d8 33 3c
       -0.02177687 -0.0002517674 -0.048457608 0.010976978
000310 c3 73 34 3e 54 c6 d9 3b 54 bd ec 3c b0 17 09 3d
       0.17622285 0.006645957 0.028898872 0.033469856
000320 f6 70 a5 38 6b 72 eb bc 07 c9 71 bb 5e 57 15 bc
       7.888854e-05 -0.028741082 -0.0036893503 -0.009115068
000330 ed af 81 3d f3 5a 87 bc a4 ea 29 bd 29 dd 33 bc
       0.06332383 -0.01652286 -0.041483536 -0.010978022
000340 66 51 db 3b 21 64 17 3d 9c 4a e9 3b be e6 ff 3b
       0.006693053 0.036960725 0.00711949 0.007809489
000350 c0 99 6d 3c 8f d1 df bb c7 fa ee 3c 86 4c aa 3c
       0.014501989 -0.0068304013 0.029172314 0.020788442
000360 e3 3a 22 3c 1a 5e fd 3a 70 5e a3 3b e6 e6 86 3c
       0.009901735 0.0019330413 0.004985623 0.016467523
000370 88 53 23 bc ab 36 00 bd c5 b9 4f bc f2 d3 c0 3b
       -0.009968646 -0.031302135 -0.012678568 0.005884641
000380 c1 57 d9 3b d0 f2 36 3c b9 16 ac bb 96 35 04 bb
       0.0066327755 0.011166289 -0.005251732 -0.0020173541
000390 34 f6 6f bc 89 0a 4e 3b 3a aa 22 3d 5c c9 16 bc
       -0.014646102 0.0031439385 0.039713122 -0.009203281
0003a0 cf 76 33 bc 7d 9e 59 bd 5a d1 05 bc 4e cf 9c 3c
       -0.010953619 -0.05312966 -0.008167589 0.01914182
0003b0 05 49 b6 bc 2a f6 41 bc c9 1d 4a 3d aa 06 6d 3c
       -0.022251615 -0.011838475 0.04934481 0.014466921
0003c0 76 ca f4 bb 0c 31 2e 3b 9d b0 01 bb 49 de 4e 3b
       -0.0074704243 0.0026579527 -0.0019789108 0.0031565598
0003d0 c4 ef 4f bc 1d e4 78 3b 79 f7 d1 3c 0b 55 c7 3c
       -0.012691442 0.0037977763 0.0256307 0.024332544
0003e0 f0 10 bb 3c 22 3e 53 3d ef 63 f4 3b d5 6d c5 3a
       0.022835225 0.051572926 0.007458202 0.001506264
0003f0 ee 88 04 3c 6b 13 07 bc 13 86 1b bc db 03 8c bc
       0.008089287 -0.008244376 -0.009492415 -0.017091682

linear.bias f4 [14]
000000 76 a2 c3 3c 18 50 48 bb 25 c5 57 3b 65 c7 c2 bc
       0.023881178 -0.0030565318 0.0032923904 -0.02377672
000010 56 c0 0f 3d a3 c3 38 3b ce 4b dc bc bb 74 f4 3c
       0.035095535 0.002819278 -0.026891615 0.029840818
000020 e6 11 5b bb 02 cf 5b bc c6 90 e8 bb b1 e3 03 3d
       -0.0033427416 -0.013416054 -0.0070973365 0.032199565
000030 8d dd c5 3c e7 d5 af bc
       0.024153495 -0.021464301
