Data/model_results_unphased_all_PRS/linear_regression/onnx_models/final_model_chr3.onnx (onnx, 60926 bytes, 2 tensors)

linear.weight f4 [16, 947]
00000000: a50e c13b 24fb d43c 8b67 b73c 6f15 5dbc
00000010: af16 3bbc cb6e 893b c7c8 583c c80f 50ba
00000020: 4015 64bc 8e41 5c3c 00e3 54bc 4825 783c
00000030: 0639 d43b 17b2 ed3a 522d 94bc 7746 15bd
00000040: cd1b 0abc 7e2b 61bc 3759 083c 5dbc 56bc
00000050: 38ab 6b3b 0d5e 3c3c bd26 1a3c 9d25 693c
00000060: 5614 143a a6c9 323b 8396 d9bd ee44 003a
00000070: 0116 f5ba e417 ddbc be6e e63b ff89 6f3c
00000080: a8db 02bc 0bb7 1bbd fac7 ab3c 76f6 f43b
00000090: c951 75bb 999f 32bd 8349 d13c eff7 ae3c
000000a0: 52b1 54bd b5ac 193c abc0 413c 75aa 3abc
000000b0: 5c67 37bb 2771 f3bc 826a 06bd be8e a9bc
000000c0: 9f38 2cbb e026 0bbd 8ffa d83b b6e1 c9bc
000000d0: 92b0 3a3a ae89 0dbd c771 81bb 0030 033c
000000e0: 01c2 c5bd cb9c c7bb 4a8a fcbb 305d 9c3c
000000f0: 4626 fa3c f843 023b 3b07 babb 08fa 233b
00000100: a6a2 723b 06c1 c5b9 0293 ca3c 3c32 003b
00000110: eb57 05bb 288a fc3c 1338 ed3b e8ff f3bb
00000120: e848 73bd a8a4 67bc 77d5 f0bc 23ec e6bc
00000130: effe 08bd f926 b9bb 78d6 b3bd 2739 c33b
00000140: 2fad c93c 6e90 cbbb 7186 68bb ae48 4a3a
00000150: 1678 f03c 0c49 333c c38e c53a ffd5 eb3b
00000160: 25bc 54bb 62bf a8bb eab6 b13a 3271 1cbc
00000170: 87ea 413b 6581 c8bb 0d21 e8bc eb73 73bc
00000180: 5be5 bc3c 8e3e bf3c 7022 3e3d fc1d 47bc
00000190: 771e 7dba 1a40 dfbb deff 18bd 37f7 91bb
000001a0: b8f8 e83c 4bea f83c b1bb 013d ce72 44bc
000001b0: 2b56 4b3c 93ad 0c3e f890 c5bc d7bc 90bc
000001c0: 8a8f 2b3c 9997 46bb 5661 823d 9fbf b03c
000001d0: bc77 593c 04b5 45bc c6c4 52bc fa5f 20bc
000001e0: 7ad3 183d 5fa6 af3c f56d bf39 b627 32bc
000001f0: ce61 093c 97d7 8e3c 6326 f9bb 879f be3b
00000200: 2eaf 433b dbcc da3b 7f01 b338 3c55 983b
00000210: 4e54 91bb 8e83 f5bc c7ec bcbc e877 8bbc
00000220: 004b b0bc 8c79 dcba 4dd7 39bc 7a64 de3c
00000230: 3382 613c 8933 113f ce4d 9ebc a02d acb9
00000240: fd5f d03c 2f2d 42bb bce9 13bd 0c94 683a
00000250: e56b 8fbb 6e7d 873b 9da2 893c 6e42 b33c
00000260: 0cef 98bc aada d03c 4046 063d 91bf eb3b
00000270: 7b09 833b 0577 b33d b6c9 173a 4e3c 7c3b
00000280: 8e15 cfba b03b c5bb 6315 15bc 8562 97bd
00000290: 84ab 943b bfbe e73b db10 ff3c 34d1 41bc
000002a0: 8210 aaba 9c89 79bd 5bba 01bd 0a62 87bb
000002b0: 3058 f7bb 1633 b13c 793b f23c c403 6fbc
000002c0: f3e1 81bc 87ff 723b e630 fe3b 085f 54ba
000002d0: fa3d ee3c c2d3 cfbc 65bb b5ba a5ef b23b
000002e0: 98b7 57bc c798 533b f5c9 003c 195a 34bc
000002f0: 71c9 f33b 862f cf3c cbcb 7fbc eb4a cbb8
00000300: 715b e9ba 7134 873b 503c 3ebc 4d89 fdbc
00000310: 1e59 e03c 558c 103c 866a 263d 0783 02bc
00000320: d51a 11bd 2d19 5fbb f674 6dbb ad84 abbc
00000330: 201f f93b 7b01 a1bb 56cc 0b3b ba0f bebb
00000340: 3832 833c 170b aabb 383c 9dbb f6ff 46bb
00000350: f44e 91bb faba 0aba 79c8 b7bb 5062 fc3a
00000360: 6951 e83b 089e 483b 53eb 5b3b 431c 00bc
00000370: 1a19 a6ba 6966 28bb ab12 34bb e205 b23b
00000380: 580e daba ce03 57bc d64c 13bc c571 593b
00000390: 9143 73bc 450b b6bb ee0f 7b3b 511e b23b
000003a0: 6f86 d63c 7813 593a 8dbe 6cbb 1bb2 383c
000003b0: 870b 6cba 2d62 54ba 13a3 e73b aa0d 02bc
000003c0: d83d d03b 3cb8 583c 7ecf 2b3c aad7 25ba
000003d0: e20c 8539 35ac 863b 0b78 30bc 4c6a 9ebb
000003e0: b5d2 9cbb 2050 c53b b452 41bc 3890 a93b
000003f0: 6643 2b3c 279b 703c c5ae 58bb f8af 98ba
0.0058916383 0.02599866 0.02238824 -0.01349388 -0.011418982 0.0041941158 0.013231463 -0.0007936922
-0.013921082 0.013443364 -0.012993574 0.015145607 0.0064765243 0.001813474 -0.018088017 -0.036444154
-0.00842948 -0.0137432795 0.008322052 -0.013106433 0.0035960209 0.011497033 0.00940865 0.014230159
0.0005648782 0.0027280836 -0.10624411 0.0004893084 -0.0018698574 -0.026988931 0.0070322445 0.014620303
-0.00798694 -0.03801636 0.02096938 0.0074756695 -0.003743278 -0.043609235 0.025547748 0.021358458
-0.05192692 0.0093795555 0.011825721 -0.011393179 -0.002798519 -0.029717041 -0.032816418 -0.020697948
-0.0026278866 -0.03397262 0.006621666 -0.02464376 0.0007121648 -0.03455513 -0.003950331 0.00800705
-0.09656144 -0.006091689 -0.007706915 0.019087404 0.030535828 0.0019876938 -0.0056771315 0.0025020856
0.0037023216 -0.00037718582 0.024728302 0.0019561192 -0.0020346593 0.030827597 0.0072393506 -0.007446278
-0.0593957 -0.014138378 -0.029398663 -0.02818877 -0.03344625 -0.005650398 -0.08781141 0.005957741
0.024618713 -0.0062122857 -0.0035480524 0.00077165186 0.029354136 0.010942709 0.0015072454 0.007197141
-0.0032460776 -0.0051497677 0.0013558541 -0.009548472 0.0029589252 -0.0061189407 -0.028336072 -0.01485918
0.023058584 0.023345258 0.04641956 -0.012153145 -0.00096557237 -0.0068130614 -0.03735339 -0.004454519
0.02843891 0.030385157 0.031673137 -0.011990262 0.012410681 0.13738088 -0.024116978 -0.01766817
0.010471234 -0.0030302762 0.063662216 0.021575747 0.013273176 -0.012067083 -0.012864297 -0.009788508
0.037311055 0.021441637 0.00036512283 -0.010873726 0.008385135 0.017436786 -0.007603453 0.005817357
0.0029859054 0.0066772527 8.535664e-05 0.0046488326 -0.0044350987 -0.029969957 -0.023062123 -0.01702495
-0.021520138 -0.0016820892 -0.011342836 0.02714752 0.013763952 0.5671926 -0.01932421 -0.0003284039
0.025436396 -0.0029628982 -0.03611158 0.00088721584 -0.0043768757 0.0041348254 0.016801173 0.021882262
-0.018668674 0.025494892 0.03278184 0.0071944674 0.003998933 0.087629355 0.000579025 0.0038488093
-0.001579927 -0.006019078 -0.009099337 -0.07391838 0.004537048 0.0070722993 0.031135967 -0.011829663
-0.001297489 -0.06092225 -0.031671863 -0.00413156 -0.0075483546 0.021630805 0.029569374 -0.0145883
-0.015854811 0.0037078576 0.007757294 -0.0008101319 0.029082287 -0.025369529 -0.0013865052 0.0054606968
-0.013166331 0.0032287107 0.00786065 -0.011007809 0.007439785 0.025291216 -0.015612553 -9.693749e-05
-0.0017803741 0.0041261245 -0.011611059 -0.03094926 0.027386244 0.00882252 0.040628932 -0.00796581
-0.03542598 -0.0034042106 -0.0036233044 -0.020937288 0.0076025873 -0.0049135066 0.002133151 -0.0058002146
0.016015157 -0.0051893103 -0.0047984384 -0.0030364967 -0.004434461 -0.0005292144 -0.005608615 0.0019255374
0.007089783 0.0030611772 0.0033557012 -0.007819238 -0.0012672276 -0.0025695807 -0.0027476947 0.00543283
-0.0016636355 -0.013123466 -0.008990487 0.0033179384 -0.014847652 -0.0055555427 0.0038309055 0.005435743
0.02618715 0.0008280794 -0.003612432 0.011272932 -0.0009004403 -0.00081017875 0.0070690005 -0.007937828
0.0063550286 0.013227519 0.010486482 -0.0006326387 0.00025377335 0.004109884 -0.010770808 -0.004834449
-0.0047858604 0.0060215145 -0.011799503 0.005174663 0.010453081 0.014685429 -0.0033063155 -0.0011649122

linear.bias f4 [16]
00000000: 405e 9a3c d52b 7f3c 191d 6abc 1c82 babb
00000010: 16ee d4bb 1513 7b3c 11a4 1cbd 3520 9ebc
00000020: 58f1 093d f6d3 b9bc 5778 063c bc40 073d
00000030: a7ee b83a 98fb 183d 999d 1d3c 5080 763c
0.01884377 0.015574415 -0.014289164 -0.00569178 -0.0064981086 0.015324374 -0.038242403 -0.019302467
0.03367743 -0.022684079 0.008207402 0.03302072 0.001410921 0.037349313 0.009620094 0.0150452405
