Data/model_results_unphased_all_PRS/linear_regression/onnx_models/final_model_chr13.onnx (onnx, 3211 bytes, 2 tensors)

linear.weight f4 [5, 147]
00000000: f3ea c93c 286f e6bc 1525 873c 9ee7 253d
00000010: 25c2 333e 42e1 8c3c ebf9 c7ba dc19 99bb
00000020: bc83 fcbc 475e dd3d 3c83 653e 4f6c c9bd
00000030: 6770 6a3d f85c 5a3d 4d62 e13d fc77 85bc
00000040: e5a3 e63a 502f 2dbd 903f c7bb 6d0c df3d
00000050: 154d b1bc e38c 623d 34fe 51bc e313 e83c
00000060: d678 f13b 9c20 d33b e5c5 bd3c 9804 123c
00000070: e0b0 e3bb 763a b23d 9629 673c 8b8c c63e
00000080: 58c3 14bc 89cf 033e 7d30 3a3c 944b 983d
00000090: 748f 483c 4486 f43c 3f48 a53e 3e17 2e3d
000000a0: 4275 c2bb 3c29 283d f848 fabb f99a 403b
000000b0: 50f3 68bd c878 2cbe 0c85 ee3c 1c9b 8e3d
000000c0: 98d8 c23d f313 debb 2dbe 9e3e 2fc4 1f3c
000000d0: 9106 b3be 159a dbbb 410b a43d fe04 8b3d
000000e0: 4da8 7a3c 00f6 3437 b4bb 25bc 9576 223d
000000f0: 1e8b efbc 0bcf 38bc a37d 293b 13d7 0b3d
00000100: 86cb df3c ebd1 2d3c 38eb 173d 6f0e 713d
00000110: 6a93 b43c c7ab a7bc 128e ff3c f9d3 46bd
00000120: 9c7d 393b 58ac 96bb a0ed 9b3d 5cf5 d33c
00000130: 0b5e 0dbd 79df 023d 56c0 003e fc70 883c
00000140: 2f13 333c 0f25 55bc a093 b13c 7e9f 353b
00000150: 91e1 0c3d 9fe2 5fbc 0f16 b1bc ad45 b43c
00000160: 13ff 183c 2a69 ce3b 72fe a93c b617 65bd
00000170: f5f0 253b 2f25 6cbd cba5 c13a b6dc 8cbd
00000180: 0519 48bc 2d8d 0aba 19bd fb3c 9127 c33c
00000190: 022a a6bd dd9a 133b 5a5b 7abd feee e0bb
000001a0: d8f9 1cbb 5e31 503b e9d2 193b 018a 683d
000001b0: 499b fb3b 8515 c2bb fcaa 44bd aa88 3d3c
000001c0: b877 4d3e 1be0 a2bd ae75 c23c 510d c5bc
000001d0: 594a 63bd 5992 cdbc 79e9 63bc e1ce e83c
000001e0: 0278 4a3c 5727 443d 425d bebc 75f5 acbd
000001f0: 6afe c03c da78 c73c b550 73bd 3598 d63c
00000200: 9c02 c7bc dfcf c2bc e2f5 09bc f4b5 b33c
00000210: 03e7 11bc eb56 a8bc 82b7 63bc 1cd5 b43d
00000220: 4835 43bc eb6a 403c 5e2a fa3b 56c0 5e3c
00000230: bb18 e4bc f0f1 db3c da8b 853d 94e7 8b3c
00000240: 509b 96bc 7fbe d93d bdf5 6fbd 191a 2abc
00000250: ecd4 dbba bd45 d4ba 8f1d b33b cec8 a83c
00000260: d76f 39bb 6407 e33b 6b42 b2ba 6a39 343c
00000270: 3a2a 2c3c a2e7 f1bc e4e9 913b 77d0 b7bb
00000280: 33e1 b5bb 7eae 33bc 8636 5f3c d556 1f3b
00000290: f677 233b 9302 c33b f31d ef3b 9bb9 5e3a
000002a0: c2d9 9abb 4382 f83a 393b 72bb f746 85bb
000002b0: 8cbb 00bc f7a7 c03a 8684 8fbb 148a 0a3c
000002c0: 4e1d 48bc 0b7e 8c3b fc48 2d3c be54 ffbb
000002d0: 4e03 17bc b45c 813b 06f5 3c3c 5d9d 19bb
000002e0: cd21 a2ba e155 d4bb c92d ce3b e47e efba
000002f0: 87b9 32bb ce61 e1ba 6687 f33a 1edd ce3b
00000300: cdf9 e3bc 8b47 11bc eb1a a83c 90de 2d3e
00000310: fea0 503b db3f d13d 2668 003c c8a4 bc3e
00000320: 1cb0 133d 4f26 56bc 3f25 cc3d 55cf f23b
00000330: 7831 963c 89b2 5ebc 9f7e 313d cacc afbb
00000340: f41a 153c a0f2 60bb c14e 793b b4f3 1cbc
00000350: 8c85 8f3c 0c5e 28bc 55b5 03bc a809 c2bb
00000360: 3f3f f23b 91f5 bcbc 2275 7b3b 8592 c0b9
00000370: 036d f53a 57a7 c83c 3d64 deba 0332 32bc
00000380: e5cf 363c 8f93 57bd ca41 9b3b 81ef 73bc
00000390: 26fe 8e3b f5fa acbb ccd9 143b 85d6 70bc
000003a0: b310 ff3b da19 843c cf00 0b3c 9833 9d3b
000003b0: 84ec dabb 74c9 1d3b 9c44 e83b dc4c 8cbb
000003c0: ffb5 e9bc 13a9 0f3c e90e 96bc 54d1 1dba
000003d0: 71d8 bb3b f7aa 41ba 4aaa 2b3b 4c81 263c
000003e0: 6a58 d6bb 5865 b238 f441 00ba 26a5 62b9
000003f0: 96cf 31bb 5e42 f53a 44e6 81ba 35a8 15bb
0.024648165 -0.028129175 0.016497174 0.04050409 0.17554529 0.017197255 -0.0015256976 -0.004672272
-0.030824535 0.108089976 0.22413343 -0.09835111 0.0572361 0.05331132 0.110050775 -0.016292565
0.0017596452 -0.04228145 -0.0060805753 0.10891042 -0.0216432 0.05531014 -0.012816954 0.028329795
0.007369141 0.0064430963 0.023165653 0.008912228 -0.0069485754 0.08702557 0.014109036 0.387791
-0.009079777 0.12872137 0.0113641 0.074362904 0.012241233 0.02984918 0.32281682 0.042502634
-0.0059343884 0.04105495 -0.007638093 0.0029389246 -0.056872666 -0.1684295 0.029116176 0.069631785
0.09513968 -0.0067772805 0.31004468 0.009751364 -0.34965947 -0.0067017176 0.08009959 0.067880616
0.015298915 1.0786112e-05 -0.010115553 0.03966387 -0.029241141 -0.011279832 0.0025862239 0.034140658
0.027318727 0.01060913 0.037089556 0.058851656 0.022042949 -0.020467652 0.031195674 -0.048541997
0.0028303629 -0.0045981817 0.07613683 0.025873832 -0.034513514 0.0319514 0.1257337 0.016655438
0.010929867 -0.013009324 0.021676838 0.0027713473 0.034394804 -0.0136648705 -0.021616964 0.02200588
0.009338158 0.0062991576 0.020751212 -0.055930816 0.0025320624 -0.05765265 0.0014774142 -0.06878035
-0.012212996 -0.0005285319 0.030729817 0.023822578 -0.08113481 0.0022522726 -0.061122276 -0.0068644276
-0.002395263 0.0031767706 0.002347166 0.056772236 0.0076784235 -0.0059229755 -0.048014626 0.011568228
0.200652 -0.07952901 0.023737755 -0.024054201 -0.055490825 -0.025094198 -0.013910645 0.02841896
0.012357714 0.04788908 -0.023237828 -0.08445255 0.023558814 0.024349619 -0.05940314 0.026195625
-0.024293236 -0.023780761 -0.008420439 0.021937348 -0.008905175 -0.020549258 -0.013898732 0.0882971
-0.011914559 0.011744241 0.007634445 0.013595661 -0.027843824 0.026848763 0.06520815 0.017078198
-0.018384606 0.10632037 -0.058583964 -0.010382199 -0.001677183 -0.00161951 0.00546617 0.020603564
-0.0028295422 0.0069283713 -0.0013600116 0.011000017 0.0105081145 -0.029529396 0.0044529308 -0.0056095677
-0.0055505275 -0.010966895 0.013623839 0.002431323 0.0024943328 0.0059512346 0.0072972714 0.00084962853
-0.004725666 0.001895972 -0.003696157 -0.0040672976 -0.007857215 0.0014698495 -0.0043798117 0.008455772
-0.012214018 0.0042874864 0.010576483 -0.0077920845 -0.0092170965 0.0039478187 0.0115330275 -0.0023439743
-0.0012369693 -0.006479964 0.006292079 -0.0018272069 -0.0027271227 -0.0017195286 0.0018579781 0.0063129803
-0.027829075 -0.008867155 0.020520648 0.16979432 0.003183424 0.102172576 0.007837331 0.36844468
0.036056623 -0.013070657 0.09968042 0.00740997 0.018334135 -0.013592371 0.043333646 -0.005364989
0.009100664 -0.0034324303 0.0038041326 -0.009579588 0.017519735 -0.010276329 -0.008038838 -0.0059215613
0.0073927934 -0.023066314 0.0038369377 -0.0003673026 0.0018724505 0.024493856 -0.0016967129 -0.010876182
0.011157964 -0.052630957 0.0047380673 -0.014888645 0.004363793 -0.00527894 0.0022712825 -0.014699583
0.007783973 0.016125608 0.0084840795 0.00479741 -0.006681027 0.0024076374 0.007088257 -0.0042816233
-0.028529165 0.008768338 -0.018317657 -0.0006020267 0.005732589 -0.00073878415 0.002619403 0.010162663
-0.0065413015 8.506578e-05 -0.000489264 -0.00021614562 -0.0027131788 0.0018711796 -0.0009910543 -0.0022835855

linear.bias f4 [5]
00000000: ebb1 73bd dba9 2ebd 8704 7d3d c2af be3b
00000010: c96e 733c
-0.059495848 -0.042642456 0.061771896 0.005819292 0.014857956
