Data/model_results_unphased_all_PRS/linear_regression/onnx_models/final_model_chr1.onnx (onnx, 240135 bytes, 2 tensors)

linear.weight f4 [30, 1998]
000000 d0 56 02 3e 97 8e 9b bc 5c 59 6b bd 3d 11 0f bc
       0.12728429 -0.01898889 -0.057458267 -0.008732137
000010 ef 1e 9b 3c e5 bd 05 3b 0a ff 91 bc 4d 78 1d 3e
       0.018935649 0.0020407375 -0.017821807 0.15377922
000020 a3 46 d6 3b 6e 65 77 b9 f6 fb ec 3d 42 b7 7f 3e
       0.0065391823 -0.00023593541 0.11571495 0.24972251
000030 9a 6c a6 3e 5f 21 94 3d 31 d9 c8 bd e0 0c 3b 3d
       0.3250473 0.072329275 -0.09807051 0.045666575
000040 2e 3c d0 bc 5b 2d f1 3d 06 16 ac 3d cc 99 39 3c
       -0.02541932 0.11776229 0.08402638 0.011328172
000050 94 cd c6 3c b1 f5 51 3e 07 be d7 3b 35 45 79 3c
       0.02426795 0.2050388 0.0065839323 0.015214254
000060 dc 7f 21 3b 66 79 73 bc 12 6c d2 bb ac 51 82 3b
       0.002464286 -0.014860487 -0.0064215744 0.003977021
000070 5c c6 8b bc 5a 5d f3 39 0f a4 7f 3c 63 8d bc 3b
       -0.017062359 0.00046418124 0.015603079 0.0057541593
000080 d7 e2 de bc 50 7e b2 3c bb 9c b1 3c 92 1a 90 bb
       -0.027207775 0.021788746 0.02168118 -0.0043976987
000090 8e 32 6b ba 42 66 b3 3a a3 0d 3c 3b b3 a4 5a 3b
       -0.0008972072 0.0013687091 0.0028694652 0.0033362329
0000a0 80 75 ac 3c 4a 51 a7 3d 62 c6 89 bc 09 97 b2 3b
       0.021052122 0.081698015 -0.01681823 0.0054501337
0000b0 57 f3 c4 3b 53 39 9d 3b 04 a2 d5 3b c1 1a ea bc
       0.0060104537 0.0047980933 0.006519558 -0.02857721
0000c0 5b 44 85 3c aa d5 37 bc d6 db dc bb 87 77 19 3d
       0.016267946 -0.011220375 -0.0067400737 0.037467506
0000d0 7f 15 a1 3b 29 11 16 bc bd 29 42 3d a2 ac 8c 3b
       0.0049158926 -0.009159365 0.047403086 0.0042930404
0000e0 e7 d1 13 bd a6 8a f0 ba de 29 30 bd a9 a1 7d bc
       -0.03608885 -0.0018351867 -0.043008678 -0.015480437
0000f0 33 eb 09 bc a2 83 72 3d 70 7d 7d bc 07 9e 8f 3a
       -0.008417892 0.059207566 -0.015471801 0.001095713
000100 97 85 e5 3b 20 28 8c bc 5d 20 64 3b e1 5a e3 ba
       0.0070044505 -0.017108977 0.003480933 -0.001734581
000110 7e c8 45 3d 9b e7 80 3a 7e 0b 82 3c 68 82 09 3c
       0.048286907 0.0009834649 0.01587462 0.008392908
000120 f8 08 93 3c 6e 3c a5 bc 1b f2 71 3c 45 eb 9b bc
       0.017948613 -0.020170417 0.014767195 -0.019033084
000130 94 5c 9e 3c f8 4d e6 bb 08 bc bc bc 78 2a 95 bb
       0.019331254 -0.0070283376 -0.023038879 -0.004552182
000140 44 96 b5 3a 61 db 7f 38 7f e6 2d 3c a1 5f 3f 3c
       0.0013853987 6.100105e-05 0.010614037 0.011680515
000150 6e 8e 3a bc 05 d2 b1 bc 80 a9 c7 3b 78 9e 70 bc
       -0.011386497 -0.02170659 0.006093204 -0.014686219
000160 a3 18 3d bc ad b5 7c bc c2 06 89 bb 08 30 66 3b
       -0.011541518 -0.015424174 -0.004181714 0.0035123844
000170 f0 b5 03 bc a6 f0 29 bc 5c 62 ae 3a 0a b2 93 bc
       -0.008038983 -0.010372316 0.001330446 -0.018029232
000180 3e 0a 4e 3c b4 45 b6 38 49 4b f0 bc 44 1b 48 bc
       0.012575684 8.6914195e-05 -0.029332774 -0.012213532
000190 ea 70 bb 3c fd a1 1b 3d e9 14 42 3b 3e 4e 83 bc
       0.02288099 0.03799628 0.0029614514 -0.01602852
0001a0 80 e6 82 3c 94 a7 b6 bb 16 16 ae 3b 8a 40 03 3c
       0.015979052 -0.005574176 0.0053126914 0.008010993
0001b0 1a 48 14 bc 19 2c dd bb 30 53 e5 3b a9 e1 93 bc
       -0.0090503935 -0.0067496416 0.006998442 -0.01805194
0001c0 63 6e 0c be a4 e3 7f ba 8d 57 80 3e 75 ef c8 bc
       -0.13713984 -0.0009761399 0.25066796 -0.024528245
0001d0 ab a9 30 bc 3e 81 15 bb 03 8a 7d bc 32 a4 9d bc
       -0.0107826395 -0.002281263 -0.015474799 -0.019243333
0001e0 77 5d a0 3c 30 79 a7 3c 4e 5c 50 bc c0 2c 14 3b
       0.019575818 0.020443529 -0.01271732 0.002260968
0001f0 d2 2a 86 ba 75 d7 e4 ba cc 3e 3c bc 48 95 7f bc
       -0.001023615 -0.0017459231 -0.011489581 -0.015599556
000200 20 28 0c 3c fd 6a db 3b 28 12 1e 3b 30 79 f1 3b
       0.008554488 0.0066961036 0.0024119709 0.007369183
000210 0b 61 9f ba 62 08 4b 3c 0e b3 43 bc 64 da 3e 3c
       -0.0012159658 0.012392135 -0.011944545 0.011648748
000220 52 27 cd 3b 62 39 5d 39 bd 05 2a 3b 38 a0 b5 39
       0.006260791 0.00021097579 0.0025943362 0.00034642383
000230 5b 2c c4 3c fb 2d db 3b db f9 da bb 9f e3 08 3c
       0.023946932 0.006688831 -0.006682617 0.00835505
000240 27 cc 81 bc 51 eb bc bb b9 25 68 39 33 97 fa ba
       -0.015844418 -0.0057653566 0.00022139297 -0.0019118547
000250 87 c9 7f 3c ab 23 33 3c a2 95 fc 3c e1 d3 8b bb
       0.015612013 0.010933797 0.03083307 -0.0042672013
000260 ff bd 9b bc a0 e9 11 3a de 80 c2 bc 59 4c a1 bc
       -0.019011496 0.0005566124 -0.02374309 -0.019689726
000270 7b bc 5d bc 74 dc 2e 3c 1f ea 45 bc d0 29 42 bb
       -0.013533707 0.010672677 -0.012079745 -0.0029626973
000280 d2 0f d0 3c f9 6f 75 3c ce 65 1b bc bf bf cc 3b
       0.025398169 0.01498031 -0.009484721 0.006248444
000290 86 17 a4 3c af fa cf 3b 88 ac 42 3b bd 30 53 3d
       0.020030748 0.0063470225 0.0029704887 0.051560152
0002a0 1b b6 be bd e0 92 59 bc 4f a0 88 3c 16 c1 7b bc
       -0.093120776 -0.013279647 0.016678004 -0.0153658595
0002b0 bd e5 14 bd f7 ab e0 3d 11 f3 2d bb 77 9f d4 3b
       -0.036351908 0.109703 -0.0026542584 0.0064887363
0002c0 38 da 56 3c 37 e0 ae bb 1b 1a 65 3c 52 cd 5c 3c
       0.013113551 -0.005336787 0.013983275 0.013476687
0002d0 27 4a 96 bc a7 fa 3e 3b f6 73 9d 3d 6f 57 08 3b
       -0.018345905 0.00291411 0.076881334 0.0020804068
0002e0 02 03 59 bb fd 6f 4b 3c 39 bf b8 3c b0 2c 40 bc
       -0.0033113365 0.012416837 0.02255212 -0.011729404
0002f0 cb 12 15 3b ae e0 fe bd 6f 36 4a 3c 56 fc 07 bc
       0.0022746797 -0.12445198 0.01234208 -0.008299908
000300 f3 36 48 3c 8d ae 26 ba 94 4f 55 3d 86 66 34 3c
       0.012220132 -0.00063584076 0.052077845 0.011010772
000310 09 32 a7 3c 99 87 ab bb 2c 3e 08 bc 06 97 2c bc
       0.0204096 -0.0052346704 -0.008315604 -0.010534054
000320 01 25 3e 39 10 ac 92 bb b5 00 d1 bb a1 9b 55 bc
       0.00018133597 -0.004476078 -0.006378258 -0.013037593
000330 c8 52 75 bc 32 1d 5b bb 65 2f ef 39 bb bb 35 ba
       -0.01497335 -0.003343415 0.00045620944 -0.0006932576
000340 db df 02 3c 96 29 d3 bc d2 f2 51 3b 70 2a 8d 3c
       0.007987942 -0.025776666 0.0032035601 0.01723215
000350 f4 88 a0 3b 92 a9 78 bd 8d b0 ac bd b2 ea 07 bc
       0.0048991386 -0.06070859 -0.08432112 -0.008295702
000360 9e fc 8a 3b e3 c0 ea 3c 33 ca ad ba d0 4a c5 bb
       0.00424154 0.028656429 -0.0013259113 -0.0060208812
000370 60 a9 0d bc 26 35 9a 3d 30 fb 9d ba 19 4f 5d bd
       -0.008646339 0.075296685 -0.0012053009 -0.05403051
000380 48 cc 5a 3c 1f 67 7b bc a6 c7 b6 bd 08 12 d2 3d
       0.0133543685 -0.01534441 -0.08924799 0.102573454
000390 1f f9 1b bc 7b 4d 0f 3b 5f 61 7a bc c4 96 8d 3c
       -0.009519844 0.002186625 -0.015282004 0.017283805
0003a0 8e fa dd 3d 15 e5 9a 3c 31 66 b6 3c 4e 32 d4 3a
       0.10838805 0.018908063 0.022265526 0.0016189308
0003b0 88 d4 1e bc 13 75 f4 3c 6e 36 20 3c af 70 f4 3c
       -0.009694226 0.029840982 0.009778602 0.029838888
0003c0 c8 93 1f bd 6f 59 0c 3c 72 49 69 3c c5 aa 99 bc
       -0.038959295 0.0085662445 0.014238702 -0.018758187
0003d0 a2 2a 37 3d e7 c3 b1 b9 57 15 1a bc 00 6d fc 3c
       0.044718392 -0.0003390603 -0.009404502 0.030813694
0003e0 ca ab a9 3b 4f 3b 89 3b 9d 25 da bc 96 c5 d0 3b
       0.0051779496 0.0041879783 -0.026629264 0.0063712103
0003f0 94 ce e5 3a 06 f9 16 bb f6 b3 2f 3d 30 02 76 bc
       0.0017532879 -0.0023036613 0.042896233 -0.01501517

linear.bias f4 [30]
000000 4c e2 cd bb 54 79 e0 bb a0 68 5e bc 24 91 77 3c
       -0.00628308 -0.006850401 -0.013574749 0.015110288
000010 89 74 9d 3b 66 52 50 3c f4 a4 aa 3c 74 2f 2f bb
       0.004805152 0.012714958 0.020830609 -0.0026731165
000020 36 1a ba 39 a3 2b cb bb 6e a6 05 bb 3e 50 3d 3b
       0.00035496213 -0.0062002703 -0.002039339 0.002888694
000030 32 97 77 bc b2 9d 5c bc 0d fd a4 3c d5 6e 77 3c
       -0.015111731 -0.013465332 0.020140195 0.015102108
000040 c0 c7 58 bb bb a5 95 3a 51 9c 34 3b 23 72 53 bc
       -0.0033078045 0.0011417189 0.0027558992 -0.01290563
000050 f2 75 a0 3c e6 f1 60 3b fb a1 45 3c 51 04 26 bc
       0.01958749 0.003432387 0.012062545 -0.010132865
000060 26 89 3f bc c7 d8 e3 3b ff cc a3 3c 66 32 28 3c
       -0.011690414 0.006953332 0.01999521 0.010265922
000070 f4 1d 83 bc f6 1b 99 bc
       -0.016005494 -0.01869009
